…
2022-11-08 23:33:16.677971: I tensorflow/compiler/xla/service/service.cc:176]   StreamExecutor device (7): Tesla P100-PCIE-16GB, Compute Capability 6.0
Model: "model"
__________________________________________________________________________________________________
Layer (type)                    Output Shape         Param #     Connected to                     
==================================================================================================
input_1 (InputLayer)            [(None, 127, 26)]    0                                            
__________________________________________________________________________________________________
encoder0_conv0 (Conv1D)         (None, 127, 4)       316         input_1[0][0]                    
__________________________________________________________________________________________________
encoder0_conv0_activation (Leak (None, 127, 4)       0           encoder0_conv0[0][0]             
__________________________________________________________________________________________________
encoder0_conv0_batchnorm (Batch (None, 127, 4)       16          encoder0_conv0_activation[0][0]  
__________________________________________________________________________________________________
encoder0_pooling (MaxPooling1D) (None, 63, 4)        0           encoder0_conv0_batchnorm[0][0]   
__________________________________________________________________________________________________
encoder1_conv0 (Conv1D)         (None, 63, 8)        104         encoder0_pooling[0][0]           
__________________________________________________________________________________________________
encoder1_conv0_activation (Leak (None, 63, 8)        0           encoder1_conv0[0][0]             
__________________________________________________________________________________________________
encoder1_conv0_batchnorm (Batch (None, 63, 8)        32          encoder1_conv0_activation[0][0]  
__________________________________________________________________________________________________
encoder1_pooling (MaxPooling1D) (None, 31, 8)        0           encoder1_conv0_batchnorm[0][0]   
__________________________________________________________________________________________________
encoder2_conv0 (Conv1D)         (None, 31, 16)       400         encoder1_pooling[0][0]           
__________________________________________________________________________________________________
encoder2_conv0_activation (Leak (None, 31, 16)       0           encoder2_conv0[0][0]             
__________________________________________________________________________________________________
encoder2_conv0_batchnorm (Batch (None, 31, 16)       64          encoder2_conv0_activation[0][0]  
__________________________________________________________________________________________________
encoder2_pooling (MaxPooling1D) (None, 15, 16)       0           encoder2_conv0_batchnorm[0][0]   
__________________________________________________________________________________________________
encoder3_conv0 (Conv1D)         (None, 15, 32)       1568        encoder2_pooling[0][0]           
__________________________________________________________________________________________________
encoder3_conv0_activation (Leak (None, 15, 32)       0           encoder3_conv0[0][0]             
__________________________________________________________________________________________________
encoder3_conv0_batchnorm (Batch (None, 15, 32)       128         encoder3_conv0_activation[0][0]  
__________________________________________________________________________________________________
decoder2_upsample_encoder3 (UpS (None, 30, 32)       0           encoder3_conv0_batchnorm[0][0]   
__________________________________________________________________________________________________
decoder2_upsample_encoder3_padd (None, 31, 32)       0           decoder2_upsample_encoder3[0][0] 
__________________________________________________________________________________________________
decoder2_downsample_encoder0_po (None, 31, 4)        0           encoder0_conv0_batchnorm[0][0]   
__________________________________________________________________________________________________
decoder2_downsample_encoder1_po (None, 31, 8)        0           encoder1_conv0_batchnorm[0][0]   
__________________________________________________________________________________________________
decoder2_upsample_encoder3_conv (None, 31, 4)        388         decoder2_upsample_encoder3_paddin
__________________________________________________________________________________________________
decoder2_carry_encoder2_conv (C (None, 31, 4)        196         encoder2_conv0_batchnorm[0][0]   
__________________________________________________________________________________________________
decoder2_downsample_encoder0_co (None, 31, 4)        52          decoder2_downsample_encoder0_pool
__________________________________________________________________________________________________
decoder2_downsample_encoder1_co (None, 31, 4)        100         decoder2_downsample_encoder1_pool
__________________________________________________________________________________________________
decoder2_upsample_encoder3_acti (None, 31, 4)        0           decoder2_upsample_encoder3_conv[0
__________________________________________________________________________________________________
decoder2_carry_encoder2_activat (None, 31, 4)        0           decoder2_carry_encoder2_conv[0][0
__________________________________________________________________________________________________
decoder2_downsample_encoder0_ac (None, 31, 4)        0           decoder2_downsample_encoder0_conv
__________________________________________________________________________________________________
decoder2_downsample_encoder1_ac (None, 31, 4)        0           decoder2_downsample_encoder1_conv
__________________________________________________________________________________________________
decoder2_upsample_encoder3_batc (None, 31, 4)        16          decoder2_upsample_encoder3_activa
__________________________________________________________________________________________________
decoder2_carry_encoder2_batchno (None, 31, 4)        16          decoder2_carry_encoder2_activatio
__________________________________________________________________________________________________
decoder2_downsample_encoder0_ba (None, 31, 4)        16          decoder2_downsample_encoder0_acti
__________________________________________________________________________________________________
decoder2_downsample_encoder1_ba (None, 31, 4)        16          decoder2_downsample_encoder1_acti
__________________________________________________________________________________________________
decoder2_concat (Concatenate)   (None, 31, 16)       0           decoder2_upsample_encoder3_batchn
                                                                 decoder2_carry_encoder2_batchnorm
                                                                 decoder2_downsample_encoder0_batc
                                                                 decoder2_downsample_encoder1_batc
__________________________________________________________________________________________________
decoder2_conv0 (Conv1D)         (None, 31, 16)       784         decoder2_concat[0][0]            
__________________________________________________________________________________________________
decoder2_conv0_activation (Leak (None, 31, 16)       0           decoder2_conv0[0][0]             
__________________________________________________________________________________________________
decoder2_conv0_batchnorm (Batch (None, 31, 16)       64          decoder2_conv0_activation[0][0]  
__________________________________________________________________________________________________
decoder1_upsample_decoder2 (UpS (None, 62, 16)       0           decoder2_conv0_batchnorm[0][0]   
__________________________________________________________________________________________________
decoder1_upsample_encoder3 (UpS (None, 60, 32)       0           encoder3_conv0_batchnorm[0][0]   
__________________________________________________________________________________________________
decoder1_upsample_decoder2_padd (None, 63, 16)       0           decoder1_upsample_decoder2[0][0] 
__________________________________________________________________________________________________
decoder1_upsample_encoder3_padd (None, 63, 32)       0           decoder1_upsample_encoder3[0][0] 
__________________________________________________________________________________________________
decoder1_downsample_encoder0_po (None, 63, 4)        0           encoder0_conv0_batchnorm[0][0]   
__________________________________________________________________________________________________
decoder1_upsample_decoder2_conv (None, 63, 4)        196         decoder1_upsample_decoder2_paddin
__________________________________________________________________________________________________
decoder1_upsample_encoder3_conv (None, 63, 4)        388         decoder1_upsample_encoder3_paddin
__________________________________________________________________________________________________
decoder1_carry_encoder1_conv (C (None, 63, 4)        100         encoder1_conv0_batchnorm[0][0]   
__________________________________________________________________________________________________
decoder1_downsample_encoder0_co (None, 63, 4)        52          decoder1_downsample_encoder0_pool
__________________________________________________________________________________________________
decoder1_upsample_decoder2_acti (None, 63, 4)        0           decoder1_upsample_decoder2_conv[0
__________________________________________________________________________________________________
decoder1_upsample_encoder3_acti (None, 63, 4)        0           decoder1_upsample_encoder3_conv[0
__________________________________________________________________________________________________
decoder1_carry_encoder1_activat (None, 63, 4)        0           decoder1_carry_encoder1_conv[0][0
__________________________________________________________________________________________________
decoder1_downsample_encoder0_ac (None, 63, 4)        0           decoder1_downsample_encoder0_conv
__________________________________________________________________________________________________
decoder1_upsample_decoder2_batc (None, 63, 4)        16          decoder1_upsample_decoder2_activa
__________________________________________________________________________________________________
decoder1_upsample_encoder3_batc (None, 63, 4)        16          decoder1_upsample_encoder3_activa
__________________________________________________________________________________________________
decoder1_carry_encoder1_batchno (None, 63, 4)        16          decoder1_carry_encoder1_activatio
__________________________________________________________________________________________________
decoder1_downsample_encoder0_ba (None, 63, 4)        16          decoder1_downsample_encoder0_acti
__________________________________________________________________________________________________
decoder1_concat (Concatenate)   (None, 63, 16)       0           decoder1_upsample_decoder2_batchn
                                                                 decoder1_upsample_encoder3_batchn
                                                                 decoder1_carry_encoder1_batchnorm
                                                                 decoder1_downsample_encoder0_batc
__________________________________________________________________________________________________
decoder1_conv0 (Conv1D)         (None, 63, 16)       784         decoder1_concat[0][0]            
__________________________________________________________________________________________________
decoder1_conv0_activation (Leak (None, 63, 16)       0           decoder1_conv0[0][0]             
__________________________________________________________________________________________________
decoder1_conv0_batchnorm (Batch (None, 63, 16)       64          decoder1_conv0_activation[0][0]  
__________________________________________________________________________________________________
decoder0_upsample_decoder1 (UpS (None, 126, 16)      0           decoder1_conv0_batchnorm[0][0]   
__________________________________________________________________________________________________
decoder0_upsample_decoder2 (UpS (None, 124, 16)      0           decoder2_conv0_batchnorm[0][0]   
__________________________________________________________________________________________________
decoder0_upsample_encoder3 (UpS (None, 120, 32)      0           encoder3_conv0_batchnorm[0][0]   
__________________________________________________________________________________________________
flatten (Flatten)               (None, 480)          0           encoder3_conv0_batchnorm[0][0]   
__________________________________________________________________________________________________
decoder0_upsample_decoder1_padd (None, 127, 16)      0           decoder0_upsample_decoder1[0][0] 
__________________________________________________________________________________________________
decoder0_upsample_decoder2_padd (None, 127, 16)      0           decoder0_upsample_decoder2[0][0] 
__________________________________________________________________________________________________
decoder0_upsample_encoder3_padd (None, 127, 32)      0           decoder0_upsample_encoder3[0][0] 
__________________________________________________________________________________________________
dense (Dense)                   (None, 122)          58682       flatten[0][0]                    
__________________________________________________________________________________________________
decoder0_upsample_decoder1_conv (None, 127, 4)       196         decoder0_upsample_decoder1_paddin
__________________________________________________________________________________________________
decoder0_upsample_decoder2_conv (None, 127, 4)       196         decoder0_upsample_decoder2_paddin
__________________________________________________________________________________________________
decoder0_upsample_encoder3_conv (None, 127, 4)       388         decoder0_upsample_encoder3_paddin
__________________________________________________________________________________________________
decoder0_carry_encoder0_conv (C (None, 127, 4)       52          encoder0_conv0_batchnorm[0][0]   
__________________________________________________________________________________________________
leaky_re_lu (LeakyReLU)         (None, 122)          0           dense[0][0]                      
__________________________________________________________________________________________________
decoder0_upsample_decoder1_acti (None, 127, 4)       0           decoder0_upsample_decoder1_conv[0
__________________________________________________________________________________________________
decoder0_upsample_decoder2_acti (None, 127, 4)       0           decoder0_upsample_decoder2_conv[0
__________________________________________________________________________________________________
decoder0_upsample_encoder3_acti (None, 127, 4)       0           decoder0_upsample_encoder3_conv[0
__________________________________________________________________________________________________
decoder0_carry_encoder0_activat (None, 127, 4)       0           decoder0_carry_encoder0_conv[0][0
__________________________________________________________________________________________________
batch_normalization (BatchNorma (None, 122)          488         leaky_re_lu[0][0]                
__________________________________________________________________________________________________
decoder0_upsample_decoder1_batc (None, 127, 4)       16          decoder0_upsample_decoder1_activa
__________________________________________________________________________________________________
decoder0_upsample_decoder2_batc (None, 127, 4)       16          decoder0_upsample_decoder2_activa
__________________________________________________________________________________________________
decoder0_upsample_encoder3_batc (None, 127, 4)       16          decoder0_upsample_encoder3_activa
__________________________________________________________________________________________________
decoder0_carry_encoder0_batchno (None, 127, 4)       16          decoder0_carry_encoder0_activatio
__________________________________________________________________________________________________
dense_1 (Dense)                 (None, 31)           3813        batch_normalization[0][0]        
__________________________________________________________________________________________________
decoder0_concat (Concatenate)   (None, 127, 16)      0           decoder0_upsample_decoder1_batchn
                                                                 decoder0_upsample_decoder2_batchn
                                                                 decoder0_upsample_encoder3_batchn
                                                                 decoder0_carry_encoder0_batchnorm
__________________________________________________________________________________________________
leaky_re_lu_1 (LeakyReLU)       (None, 31)           0           dense_1[0][0]                    
__________________________________________________________________________________________________
decoder0_conv0 (Conv1D)         (None, 127, 16)      784         decoder0_concat[0][0]            
__________________________________________________________________________________________________
batch_normalization_1 (BatchNor (None, 31)           124         leaky_re_lu_1[0][0]              
__________________________________________________________________________________________________
decoder0_conv0_activation (Leak (None, 127, 16)      0           decoder0_conv0[0][0]             
__________________________________________________________________________________________________
dense_2 (Dense)                 (None, 8)            256         batch_normalization_1[0][0]      
__________________________________________________________________________________________________
deepsup1_upsampling (UpSampling (None, 126, 16)      0           decoder1_conv0_batchnorm[0][0]   
__________________________________________________________________________________________________
deepsup2_upsampling (UpSampling (None, 124, 16)      0           decoder2_conv0_batchnorm[0][0]   
__________________________________________________________________________________________________
deepsup3_upsampling (UpSampling (None, 120, 32)      0           encoder3_conv0_batchnorm[0][0]   
__________________________________________________________________________________________________
decoder0_conv0_batchnorm (Batch (None, 127, 16)      64          decoder0_conv0_activation[0][0]  
__________________________________________________________________________________________________
leaky_re_lu_2 (LeakyReLU)       (None, 8)            0           dense_2[0][0]                    
__________________________________________________________________________________________________
deepsup1_padding (ZeroPadding1D (None, 127, 16)      0           deepsup1_upsampling[0][0]        
__________________________________________________________________________________________________
deepsup2_padding (ZeroPadding1D (None, 127, 16)      0           deepsup2_upsampling[0][0]        
__________________________________________________________________________________________________
deepsup3_padding (ZeroPadding1D (None, 127, 32)      0           deepsup3_upsampling[0][0]        
__________________________________________________________________________________________________
last_conv (Conv1D)              (None, 127, 1)       17          decoder0_conv0_batchnorm[0][0]   
__________________________________________________________________________________________________
batch_normalization_2 (BatchNor (None, 8)            32          leaky_re_lu_2[0][0]              
__________________________________________________________________________________________________
deepsup1_conv (Conv1D)          (None, 127, 1)       17          deepsup1_padding[0][0]           
__________________________________________________________________________________________________
deepsup2_conv (Conv1D)          (None, 127, 1)       17          deepsup2_padding[0][0]           
__________________________________________________________________________________________________
deepsup3_conv (Conv1D)          (None, 127, 1)       33          deepsup3_padding[0][0]           
__________________________________________________________________________________________________
last_conv_activation (ReLU)     (None, 127, 1)       0           last_conv[0][0]                  
__________________________________________________________________________________________________
dense_3 (Dense)                 (None, 2)            18          batch_normalization_2[0][0]      
__________________________________________________________________________________________________
deepsup1_activation (ReLU)      (None, 127, 1)       0           deepsup1_conv[0][0]              
__________________________________________________________________________________________________
deepsup2_activation (ReLU)      (None, 127, 1)       0           deepsup2_conv[0][0]              
__________________________________________________________________________________________________
deepsup3_activation (ReLU)      (None, 127, 1)       0           deepsup3_conv[0][0]              
__________________________________________________________________________________________________
conv_output (Lambda)            (None, 127, 1)       0           last_conv_activation[0][0]       
__________________________________________________________________________________________________
dense_output (ReLU)             (None, 2)            0           dense_3[0][0]                    
__________________________________________________________________________________________________
deepsup1_output (Lambda)        (None, 127, 1)       0           deepsup1_activation[0][0]        
__________________________________________________________________________________________________
deepsup2_output (Lambda)        (None, 127, 1)       0           deepsup2_activation[0][0]        
__________________________________________________________________________________________________
deepsup3_output (Lambda)        (None, 127, 1)       0           deepsup3_activation[0][0]        
==================================================================================================
Total params: 71,165
Trainable params: 70,531
Non-trainable params: 634
__________________________________________________________________________________________________
Writing model to: "/scratch1/RDARCH/rda-ghpcs/Ryan.Lagerquist/ml4rt_models/2022paper_experiment_sw_plusplusplus_deep/templates/depth=3_num-conv-layers-per-block=1_num-first-layer-channels=004/model.h5"...
Writing metadata to: "/scratch1/RDARCH/rda-ghpcs/Ryan.Lagerquist/ml4rt_models/2022paper_experiment_sw_plusplusplus_deep/templates/depth=3_num-conv-layers-per-block=1_num-first-layer-channels=004/model_metadata.dill"...
Model: "model_1"
__________________________________________________________________________________________________
Layer (type)                    Output Shape         Param #     Connected to                     
==================================================================================================
input_2 (InputLayer)            [(None, 127, 26)]    0                                            
__________________________________________________________________________________________________
encoder0_conv0 (Conv1D)         (None, 127, 8)       632         input_2[0][0]                    
__________________________________________________________________________________________________
encoder0_conv0_activation (Leak (None, 127, 8)       0           encoder0_conv0[0][0]             
__________________________________________________________________________________________________
encoder0_conv0_batchnorm (Batch (None, 127, 8)       32          encoder0_conv0_activation[0][0]  
__________________________________________________________________________________________________
encoder0_pooling (MaxPooling1D) (None, 63, 8)        0           encoder0_conv0_batchnorm[0][0]   
__________________________________________________________________________________________________
encoder1_conv0 (Conv1D)         (None, 63, 16)       400         encoder0_pooling[0][0]           
__________________________________________________________________________________________________
encoder1_conv0_activation (Leak (None, 63, 16)       0           encoder1_conv0[0][0]             
__________________________________________________________________________________________________
encoder1_conv0_batchnorm (Batch (None, 63, 16)       64          encoder1_conv0_activation[0][0]  
__________________________________________________________________________________________________
encoder1_pooling (MaxPooling1D) (None, 31, 16)       0           encoder1_conv0_batchnorm[0][0]   
__________________________________________________________________________________________________
encoder2_conv0 (Conv1D)         (None, 31, 32)       1568        encoder1_pooling[0][0]           
__________________________________________________________________________________________________
encoder2_conv0_activation (Leak (None, 31, 32)       0           encoder2_conv0[0][0]             
__________________________________________________________________________________________________
encoder2_conv0_batchnorm (Batch (None, 31, 32)       128         encoder2_conv0_activation[0][0]  
__________________________________________________________________________________________________
encoder2_pooling (MaxPooling1D) (None, 15, 32)       0           encoder2_conv0_batchnorm[0][0]   
__________________________________________________________________________________________________
encoder3_conv0 (Conv1D)         (None, 15, 64)       6208        encoder2_pooling[0][0]           
__________________________________________________________________________________________________
encoder3_conv0_activation (Leak (None, 15, 64)       0           encoder3_conv0[0][0]             
__________________________________________________________________________________________________
encoder3_conv0_batchnorm (Batch (None, 15, 64)       256         encoder3_conv0_activation[0][0]  
__________________________________________________________________________________________________
decoder2_upsample_encoder3 (UpS (None, 30, 64)       0           encoder3_conv0_batchnorm[0][0]   
__________________________________________________________________________________________________
decoder2_upsample_encoder3_padd (None, 31, 64)       0           decoder2_upsample_encoder3[0][0] 
__________________________________________________________________________________________________
decoder2_downsample_encoder0_po (None, 31, 8)        0           encoder0_conv0_batchnorm[0][0]   
__________________________________________________________________________________________________
decoder2_downsample_encoder1_po (None, 31, 16)       0           encoder1_conv0_batchnorm[0][0]   
__________________________________________________________________________________________________
decoder2_upsample_encoder3_conv (None, 31, 8)        1544        decoder2_upsample_encoder3_paddin
__________________________________________________________________________________________________
decoder2_carry_encoder2_conv (C (None, 31, 8)        776         encoder2_conv0_batchnorm[0][0]   
__________________________________________________________________________________________________
decoder2_downsample_encoder0_co (None, 31, 8)        200         decoder2_downsample_encoder0_pool
__________________________________________________________________________________________________
decoder2_downsample_encoder1_co (None, 31, 8)        392         decoder2_downsample_encoder1_pool
__________________________________________________________________________________________________
decoder2_upsample_encoder3_acti (None, 31, 8)        0           decoder2_upsample_encoder3_conv[0
__________________________________________________________________________________________________
decoder2_carry_encoder2_activat (None, 31, 8)        0           decoder2_carry_encoder2_conv[0][0
__________________________________________________________________________________________________
decoder2_downsample_encoder0_ac (None, 31, 8)        0           decoder2_downsample_encoder0_conv
__________________________________________________________________________________________________
decoder2_downsample_encoder1_ac (None, 31, 8)        0           decoder2_downsample_encoder1_conv
__________________________________________________________________________________________________
decoder2_upsample_encoder3_batc (None, 31, 8)        32          decoder2_upsample_encoder3_activa
__________________________________________________________________________________________________
decoder2_carry_encoder2_batchno (None, 31, 8)        32          decoder2_carry_encoder2_activatio
__________________________________________________________________________________________________
decoder2_downsample_encoder0_ba (None, 31, 8)        32          decoder2_downsample_encoder0_acti
__________________________________________________________________________________________________
decoder2_downsample_encoder1_ba (None, 31, 8)        32          decoder2_downsample_encoder1_acti
__________________________________________________________________________________________________
decoder2_concat (Concatenate)   (None, 31, 32)       0           decoder2_upsample_encoder3_batchn
                                                                 decoder2_carry_encoder2_batchnorm
                                                                 decoder2_downsample_encoder0_batc
                                                                 decoder2_downsample_encoder1_batc
__________________________________________________________________________________________________
decoder2_conv0 (Conv1D)         (None, 31, 32)       3104        decoder2_concat[0][0]            
__________________________________________________________________________________________________
decoder2_conv0_activation (Leak (None, 31, 32)       0           decoder2_conv0[0][0]             
__________________________________________________________________________________________________
decoder2_conv0_batchnorm (Batch (None, 31, 32)       128         decoder2_conv0_activation[0][0]  
__________________________________________________________________________________________________
decoder1_upsample_decoder2 (UpS (None, 62, 32)       0           decoder2_conv0_batchnorm[0][0]   
__________________________________________________________________________________________________
decoder1_upsample_encoder3 (UpS (None, 60, 64)       0           encoder3_conv0_batchnorm[0][0]   
__________________________________________________________________________________________________
decoder1_upsample_decoder2_padd (None, 63, 32)       0           decoder1_upsample_decoder2[0][0] 
__________________________________________________________________________________________________
decoder1_upsample_encoder3_padd (None, 63, 64)       0           decoder1_upsample_encoder3[0][0] 
__________________________________________________________________________________________________
decoder1_downsample_encoder0_po (None, 63, 8)        0           encoder0_conv0_batchnorm[0][0]   
__________________________________________________________________________________________________
decoder1_upsample_decoder2_conv (None, 63, 8)        776         decoder1_upsample_decoder2_paddin
__________________________________________________________________________________________________
decoder1_upsample_encoder3_conv (None, 63, 8)        1544        decoder1_upsample_encoder3_paddin
__________________________________________________________________________________________________
decoder1_carry_encoder1_conv (C (None, 63, 8)        392         encoder1_conv0_batchnorm[0][0]   
__________________________________________________________________________________________________
decoder1_downsample_encoder0_co (None, 63, 8)        200         decoder1_downsample_encoder0_pool
__________________________________________________________________________________________________
decoder1_upsample_decoder2_acti (None, 63, 8)        0           decoder1_upsample_decoder2_conv[0
__________________________________________________________________________________________________
decoder1_upsample_encoder3_acti (None, 63, 8)        0           decoder1_upsample_encoder3_conv[0
__________________________________________________________________________________________________
decoder1_carry_encoder1_activat (None, 63, 8)        0           decoder1_carry_encoder1_conv[0][0
__________________________________________________________________________________________________
decoder1_downsample_encoder0_ac (None, 63, 8)        0           decoder1_downsample_encoder0_conv
__________________________________________________________________________________________________
decoder1_upsample_decoder2_batc (None, 63, 8)        32          decoder1_upsample_decoder2_activa
__________________________________________________________________________________________________
decoder1_upsample_encoder3_batc (None, 63, 8)        32          decoder1_upsample_encoder3_activa
__________________________________________________________________________________________________
decoder1_carry_encoder1_batchno (None, 63, 8)        32          decoder1_carry_encoder1_activatio
__________________________________________________________________________________________________
decoder1_downsample_encoder0_ba (None, 63, 8)        32          decoder1_downsample_encoder0_acti
__________________________________________________________________________________________________
decoder1_concat (Concatenate)   (None, 63, 32)       0           decoder1_upsample_decoder2_batchn
                                                                 decoder1_upsample_encoder3_batchn
                                                                 decoder1_carry_encoder1_batchnorm
                                                                 decoder1_downsample_encoder0_batc
__________________________________________________________________________________________________
decoder1_conv0 (Conv1D)         (None, 63, 32)       3104        decoder1_concat[0][0]            
__________________________________________________________________________________________________
decoder1_conv0_activation (Leak (None, 63, 32)       0           decoder1_conv0[0][0]             
__________________________________________________________________________________________________
decoder1_conv0_batchnorm (Batch (None, 63, 32)       128         decoder1_conv0_activation[0][0]  
__________________________________________________________________________________________________
decoder0_upsample_decoder1 (UpS (None, 126, 32)      0           decoder1_conv0_batchnorm[0][0]   
__________________________________________________________________________________________________
decoder0_upsample_decoder2 (UpS (None, 124, 32)      0           decoder2_conv0_batchnorm[0][0]   
__________________________________________________________________________________________________
decoder0_upsample_encoder3 (UpS (None, 120, 64)      0           encoder3_conv0_batchnorm[0][0]   
__________________________________________________________________________________________________
flatten_1 (Flatten)             (None, 960)          0           encoder3_conv0_batchnorm[0][0]   
__________________________________________________________________________________________________
decoder0_upsample_decoder1_padd (None, 127, 32)      0           decoder0_upsample_decoder1[0][0] 
__________________________________________________________________________________________________
decoder0_upsample_decoder2_padd (None, 127, 32)      0           decoder0_upsample_decoder2[0][0] 
__________________________________________________________________________________________________
decoder0_upsample_encoder3_padd (None, 127, 64)      0           decoder0_upsample_encoder3[0][0] 
__________________________________________________________________________________________________
dense_4 (Dense)                 (None, 205)          197005      flatten_1[0][0]                  
__________________________________________________________________________________________________
decoder0_upsample_decoder1_conv (None, 127, 8)       776         decoder0_upsample_decoder1_paddin
__________________________________________________________________________________________________
decoder0_upsample_decoder2_conv (None, 127, 8)       776         decoder0_upsample_decoder2_paddin
__________________________________________________________________________________________________
decoder0_upsample_encoder3_conv (None, 127, 8)       1544        decoder0_upsample_encoder3_paddin
__________________________________________________________________________________________________
decoder0_carry_encoder0_conv (C (None, 127, 8)       200         encoder0_conv0_batchnorm[0][0]   
__________________________________________________________________________________________________
leaky_re_lu_3 (LeakyReLU)       (None, 205)          0           dense_4[0][0]                    
__________________________________________________________________________________________________
decoder0_upsample_decoder1_acti (None, 127, 8)       0           decoder0_upsample_decoder1_conv[0
__________________________________________________________________________________________________
decoder0_upsample_decoder2_acti (None, 127, 8)       0           decoder0_upsample_decoder2_conv[0
__________________________________________________________________________________________________
decoder0_upsample_encoder3_acti (None, 127, 8)       0           decoder0_upsample_encoder3_conv[0
__________________________________________________________________________________________________
decoder0_carry_encoder0_activat (None, 127, 8)       0           decoder0_carry_encoder0_conv[0][0
__________________________________________________________________________________________________
batch_normalization_3 (BatchNor (None, 205)          820         leaky_re_lu_3[0][0]              
__________________________________________________________________________________________________
decoder0_upsample_decoder1_batc (None, 127, 8)       32          decoder0_upsample_decoder1_activa
__________________________________________________________________________________________________
decoder0_upsample_decoder2_batc (None, 127, 8)       32          decoder0_upsample_decoder2_activa
__________________________________________________________________________________________________
decoder0_upsample_encoder3_batc (None, 127, 8)       32          decoder0_upsample_encoder3_activa
__________________________________________________________________________________________________
decoder0_carry_encoder0_batchno (None, 127, 8)       32          decoder0_carry_encoder0_activatio
__________________________________________________________________________________________________
dense_5 (Dense)                 (None, 44)           9064        batch_normalization_3[0][0]      
__________________________________________________________________________________________________
decoder0_concat (Concatenate)   (None, 127, 32)      0           decoder0_upsample_decoder1_batchn
                                                                 decoder0_upsample_decoder2_batchn
                                                                 decoder0_upsample_encoder3_batchn
                                                                 decoder0_carry_encoder0_batchnorm
__________________________________________________________________________________________________
leaky_re_lu_4 (LeakyReLU)       (None, 44)           0           dense_5[0][0]                    
__________________________________________________________________________________________________
decoder0_conv0 (Conv1D)         (None, 127, 32)      3104        decoder0_concat[0][0]            
__________________________________________________________________________________________________
batch_normalization_4 (BatchNor (None, 44)           176         leaky_re_lu_4[0][0]              
__________________________________________________________________________________________________
decoder0_conv0_activation (Leak (None, 127, 32)      0           decoder0_conv0[0][0]             
__________________________________________________________________________________________________
dense_6 (Dense)                 (None, 9)            405         batch_normalization_4[0][0]      
__________________________________________________________________________________________________
deepsup1_upsampling (UpSampling (None, 126, 32)      0           decoder1_conv0_batchnorm[0][0]   
__________________________________________________________________________________________________
deepsup2_upsampling (UpSampling (None, 124, 32)      0           decoder2_conv0_batchnorm[0][0]   
__________________________________________________________________________________________________
deepsup3_upsampling (UpSampling (None, 120, 64)      0           encoder3_conv0_batchnorm[0][0]   
__________________________________________________________________________________________________
decoder0_conv0_batchnorm (Batch (None, 127, 32)      128         decoder0_conv0_activation[0][0]  
__________________________________________________________________________________________________
leaky_re_lu_5 (LeakyReLU)       (None, 9)            0           dense_6[0][0]                    
__________________________________________________________________________________________________
deepsup1_padding (ZeroPadding1D (None, 127, 32)      0           deepsup1_upsampling[0][0]        
__________________________________________________________________________________________________
deepsup2_padding (ZeroPadding1D (None, 127, 32)      0           deepsup2_upsampling[0][0]        
__________________________________________________________________________________________________
deepsup3_padding (ZeroPadding1D (None, 127, 64)      0           deepsup3_upsampling[0][0]        
__________________________________________________________________________________________________
last_conv (Conv1D)              (None, 127, 1)       33          decoder0_conv0_batchnorm[0][0]   
__________________________________________________________________________________________________
batch_normalization_5 (BatchNor (None, 9)            36          leaky_re_lu_5[0][0]              
__________________________________________________________________________________________________
deepsup1_conv (Conv1D)          (None, 127, 1)       33          deepsup1_padding[0][0]           
__________________________________________________________________________________________________
deepsup2_conv (Conv1D)          (None, 127, 1)       33          deepsup2_padding[0][0]           
__________________________________________________________________________________________________
deepsup3_conv (Conv1D)          (None, 127, 1)       65          deepsup3_padding[0][0]           
__________________________________________________________________________________________________
last_conv_activation (ReLU)     (None, 127, 1)       0           last_conv[0][0]                  
__________________________________________________________________________________________________
dense_7 (Dense)                 (None, 2)            20          batch_normalization_5[0][0]      
__________________________________________________________________________________________________
deepsup1_activation (ReLU)      (None, 127, 1)       0           deepsup1_conv[0][0]              
__________________________________________________________________________________________________
deepsup2_activation (ReLU)      (None, 127, 1)       0           deepsup2_conv[0][0]              
__________________________________________________________________________________________________
deepsup3_activation (ReLU)      (None, 127, 1)       0           deepsup3_conv[0][0]              
__________________________________________________________________________________________________
conv_output (Lambda)            (None, 127, 1)       0           last_conv_activation[0][0]       
__________________________________________________________________________________________________
dense_output (ReLU)             (None, 2)            0           dense_7[0][0]                    
__________________________________________________________________________________________________
deepsup1_output (Lambda)        (None, 127, 1)       0           deepsup1_activation[0][0]        
__________________________________________________________________________________________________
deepsup2_output (Lambda)        (None, 127, 1)       0           deepsup2_activation[0][0]        
__________________________________________________________________________________________________
deepsup3_output (Lambda)        (None, 127, 1)       0           deepsup3_activation[0][0]        
==================================================================================================
Total params: 236,178
Trainable params: 235,038
Non-trainable params: 1,140
__________________________________________________________________________________________________
Writing model to: "/scratch1/RDARCH/rda-ghpcs/Ryan.Lagerquist/ml4rt_models/2022paper_experiment_sw_plusplusplus_deep/templates/depth=3_num-conv-layers-per-block=1_num-first-layer-channels=008/model.h5"...
Writing metadata to: "/scratch1/RDARCH/rda-ghpcs/Ryan.Lagerquist/ml4rt_models/2022paper_experiment_sw_plusplusplus_deep/templates/depth=3_num-conv-layers-per-block=1_num-first-layer-channels=008/model_metadata.dill"...
Model: "model_2"
__________________________________________________________________________________________________
Layer (type)                    Output Shape         Param #     Connected to                     
==================================================================================================
input_3 (InputLayer)            [(None, 127, 26)]    0                                            
__________________________________________________________________________________________________
encoder0_conv0 (Conv1D)         (None, 127, 16)      1264        input_3[0][0]                    
__________________________________________________________________________________________________
encoder0_conv0_activation (Leak (None, 127, 16)      0           encoder0_conv0[0][0]             
__________________________________________________________________________________________________
encoder0_conv0_batchnorm (Batch (None, 127, 16)      64          encoder0_conv0_activation[0][0]  
__________________________________________________________________________________________________
encoder0_pooling (MaxPooling1D) (None, 63, 16)       0           encoder0_conv0_batchnorm[0][0]   
__________________________________________________________________________________________________
encoder1_conv0 (Conv1D)         (None, 63, 32)       1568        encoder0_pooling[0][0]           
__________________________________________________________________________________________________
encoder1_conv0_activation (Leak (None, 63, 32)       0           encoder1_conv0[0][0]             
__________________________________________________________________________________________________
encoder1_conv0_batchnorm (Batch (None, 63, 32)       128         encoder1_conv0_activation[0][0]  
__________________________________________________________________________________________________
encoder1_pooling (MaxPooling1D) (None, 31, 32)       0           encoder1_conv0_batchnorm[0][0]   
__________________________________________________________________________________________________
encoder2_conv0 (Conv1D)         (None, 31, 64)       6208        encoder1_pooling[0][0]           
__________________________________________________________________________________________________
encoder2_conv0_activation (Leak (None, 31, 64)       0           encoder2_conv0[0][0]             
__________________________________________________________________________________________________
encoder2_conv0_batchnorm (Batch (None, 31, 64)       256         encoder2_conv0_activation[0][0]  
__________________________________________________________________________________________________
encoder2_pooling (MaxPooling1D) (None, 15, 64)       0           encoder2_conv0_batchnorm[0][0]   
__________________________________________________________________________________________________
encoder3_conv0 (Conv1D)         (None, 15, 128)      24704       encoder2_pooling[0][0]           
__________________________________________________________________________________________________
encoder3_conv0_activation (Leak (None, 15, 128)      0           encoder3_conv0[0][0]             
__________________________________________________________________________________________________
encoder3_conv0_batchnorm (Batch (None, 15, 128)      512         encoder3_conv0_activation[0][0]  
__________________________________________________________________________________________________
decoder2_upsample_encoder3 (UpS (None, 30, 128)      0           encoder3_conv0_batchnorm[0][0]   
__________________________________________________________________________________________________
decoder2_upsample_encoder3_padd (None, 31, 128)      0           decoder2_upsample_encoder3[0][0] 
__________________________________________________________________________________________________
decoder2_downsample_encoder0_po (None, 31, 16)       0           encoder0_conv0_batchnorm[0][0]   
__________________________________________________________________________________________________
decoder2_downsample_encoder1_po (None, 31, 32)       0           encoder1_conv0_batchnorm[0][0]   
__________________________________________________________________________________________________
decoder2_upsample_encoder3_conv (None, 31, 16)       6160        decoder2_upsample_encoder3_paddin
__________________________________________________________________________________________________
decoder2_carry_encoder2_conv (C (None, 31, 16)       3088        encoder2_conv0_batchnorm[0][0]   
__________________________________________________________________________________________________
decoder2_downsample_encoder0_co (None, 31, 16)       784         decoder2_downsample_encoder0_pool
__________________________________________________________________________________________________
decoder2_downsample_encoder1_co (None, 31, 16)       1552        decoder2_downsample_encoder1_pool
__________________________________________________________________________________________________
decoder2_upsample_encoder3_acti (None, 31, 16)       0           decoder2_upsample_encoder3_conv[0
__________________________________________________________________________________________________
decoder2_carry_encoder2_activat (None, 31, 16)       0           decoder2_carry_encoder2_conv[0][0
__________________________________________________________________________________________________
decoder2_downsample_encoder0_ac (None, 31, 16)       0           decoder2_downsample_encoder0_conv
__________________________________________________________________________________________________
decoder2_downsample_encoder1_ac (None, 31, 16)       0           decoder2_downsample_encoder1_conv
__________________________________________________________________________________________________
decoder2_upsample_encoder3_batc (None, 31, 16)       64          decoder2_upsample_encoder3_activa
__________________________________________________________________________________________________
decoder2_carry_encoder2_batchno (None, 31, 16)       64          decoder2_carry_encoder2_activatio
__________________________________________________________________________________________________
decoder2_downsample_encoder0_ba (None, 31, 16)       64          decoder2_downsample_encoder0_acti
__________________________________________________________________________________________________
decoder2_downsample_encoder1_ba (None, 31, 16)       64          decoder2_downsample_encoder1_acti
__________________________________________________________________________________________________
decoder2_concat (Concatenate)   (None, 31, 64)       0           decoder2_upsample_encoder3_batchn
                                                                 decoder2_carry_encoder2_batchnorm
                                                                 decoder2_downsample_encoder0_batc
                                                                 decoder2_downsample_encoder1_batc
__________________________________________________________________________________________________
decoder2_conv0 (Conv1D)         (None, 31, 64)       12352       decoder2_concat[0][0]            
__________________________________________________________________________________________________
decoder2_conv0_activation (Leak (None, 31, 64)       0           decoder2_conv0[0][0]             
__________________________________________________________________________________________________
decoder2_conv0_batchnorm (Batch (None, 31, 64)       256         decoder2_conv0_activation[0][0]  
__________________________________________________________________________________________________
decoder1_upsample_decoder2 (UpS (None, 62, 64)       0           decoder2_conv0_batchnorm[0][0]   
__________________________________________________________________________________________________
decoder1_upsample_encoder3 (UpS (None, 60, 128)      0           encoder3_conv0_batchnorm[0][0]   
__________________________________________________________________________________________________
decoder1_upsample_decoder2_padd (None, 63, 64)       0           decoder1_upsample_decoder2[0][0] 
__________________________________________________________________________________________________
decoder1_upsample_encoder3_padd (None, 63, 128)      0           decoder1_upsample_encoder3[0][0] 
__________________________________________________________________________________________________
decoder1_downsample_encoder0_po (None, 63, 16)       0           encoder0_conv0_batchnorm[0][0]   
__________________________________________________________________________________________________
decoder1_upsample_decoder2_conv (None, 63, 16)       3088        decoder1_upsample_decoder2_paddin
__________________________________________________________________________________________________
decoder1_upsample_encoder3_conv (None, 63, 16)       6160        decoder1_upsample_encoder3_paddin
__________________________________________________________________________________________________
decoder1_carry_encoder1_conv (C (None, 63, 16)       1552        encoder1_conv0_batchnorm[0][0]   
__________________________________________________________________________________________________
decoder1_downsample_encoder0_co (None, 63, 16)       784         decoder1_downsample_encoder0_pool
__________________________________________________________________________________________________
decoder1_upsample_decoder2_acti (None, 63, 16)       0           decoder1_upsample_decoder2_conv[0
__________________________________________________________________________________________________
decoder1_upsample_encoder3_acti (None, 63, 16)       0           decoder1_upsample_encoder3_conv[0
__________________________________________________________________________________________________
decoder1_carry_encoder1_activat (None, 63, 16)       0           decoder1_carry_encoder1_conv[0][0
__________________________________________________________________________________________________
decoder1_downsample_encoder0_ac (None, 63, 16)       0           decoder1_downsample_encoder0_conv
__________________________________________________________________________________________________
decoder1_upsample_decoder2_batc (None, 63, 16)       64          decoder1_upsample_decoder2_activa
__________________________________________________________________________________________________
decoder1_upsample_encoder3_batc (None, 63, 16)       64          decoder1_upsample_encoder3_activa
__________________________________________________________________________________________________
decoder1_carry_encoder1_batchno (None, 63, 16)       64          decoder1_carry_encoder1_activatio
__________________________________________________________________________________________________
decoder1_downsample_encoder0_ba (None, 63, 16)       64          decoder1_downsample_encoder0_acti
__________________________________________________________________________________________________
decoder1_concat (Concatenate)   (None, 63, 64)       0           decoder1_upsample_decoder2_batchn
                                                                 decoder1_upsample_encoder3_batchn
                                                                 decoder1_carry_encoder1_batchnorm
                                                                 decoder1_downsample_encoder0_batc
__________________________________________________________________________________________________
decoder1_conv0 (Conv1D)         (None, 63, 64)       12352       decoder1_concat[0][0]            
__________________________________________________________________________________________________
decoder1_conv0_activation (Leak (None, 63, 64)       0           decoder1_conv0[0][0]             
__________________________________________________________________________________________________
decoder1_conv0_batchnorm (Batch (None, 63, 64)       256         decoder1_conv0_activation[0][0]  
__________________________________________________________________________________________________
decoder0_upsample_decoder1 (UpS (None, 126, 64)      0           decoder1_conv0_batchnorm[0][0]   
__________________________________________________________________________________________________
decoder0_upsample_decoder2 (UpS (None, 124, 64)      0           decoder2_conv0_batchnorm[0][0]   
__________________________________________________________________________________________________
decoder0_upsample_encoder3 (UpS (None, 120, 128)     0           encoder3_conv0_batchnorm[0][0]   
__________________________________________________________________________________________________
flatten_2 (Flatten)             (None, 1920)         0           encoder3_conv0_batchnorm[0][0]   
__________________________________________________________________________________________________
decoder0_upsample_decoder1_padd (None, 127, 64)      0           decoder0_upsample_decoder1[0][0] 
__________________________________________________________________________________________________
decoder0_upsample_decoder2_padd (None, 127, 64)      0           decoder0_upsample_decoder2[0][0] 
__________________________________________________________________________________________________
decoder0_upsample_encoder3_padd (None, 127, 128)     0           decoder0_upsample_encoder3[0][0] 
__________________________________________________________________________________________________
dense_8 (Dense)                 (None, 345)          662745      flatten_2[0][0]                  
__________________________________________________________________________________________________
decoder0_upsample_decoder1_conv (None, 127, 16)      3088        decoder0_upsample_decoder1_paddin
__________________________________________________________________________________________________
decoder0_upsample_decoder2_conv (None, 127, 16)      3088        decoder0_upsample_decoder2_paddin
__________________________________________________________________________________________________
decoder0_upsample_encoder3_conv (None, 127, 16)      6160        decoder0_upsample_encoder3_paddin
__________________________________________________________________________________________________
decoder0_carry_encoder0_conv (C (None, 127, 16)      784         encoder0_conv0_batchnorm[0][0]   
__________________________________________________________________________________________________
leaky_re_lu_6 (LeakyReLU)       (None, 345)          0           dense_8[0][0]                    
__________________________________________________________________________________________________
decoder0_upsample_decoder1_acti (None, 127, 16)      0           decoder0_upsample_decoder1_conv[0
__________________________________________________________________________________________________
decoder0_upsample_decoder2_acti (None, 127, 16)      0           decoder0_upsample_decoder2_conv[0
__________________________________________________________________________________________________
decoder0_upsample_encoder3_acti (None, 127, 16)      0           decoder0_upsample_encoder3_conv[0
__________________________________________________________________________________________________
decoder0_carry_encoder0_activat (None, 127, 16)      0           decoder0_carry_encoder0_conv[0][0
__________________________________________________________________________________________________
batch_normalization_6 (BatchNor (None, 345)          1380        leaky_re_lu_6[0][0]              
__________________________________________________________________________________________________
decoder0_upsample_decoder1_batc (None, 127, 16)      64          decoder0_upsample_decoder1_activa
__________________________________________________________________________________________________
decoder0_upsample_decoder2_batc (None, 127, 16)      64          decoder0_upsample_decoder2_activa
__________________________________________________________________________________________________
decoder0_upsample_encoder3_batc (None, 127, 16)      64          decoder0_upsample_encoder3_activa
__________________________________________________________________________________________________
decoder0_carry_encoder0_batchno (None, 127, 16)      64          decoder0_carry_encoder0_activatio
__________________________________________________________________________________________________
dense_9 (Dense)                 (None, 62)           21452       batch_normalization_6[0][0]      
__________________________________________________________________________________________________
decoder0_concat (Concatenate)   (None, 127, 64)      0           decoder0_upsample_decoder1_batchn
                                                                 decoder0_upsample_decoder2_batchn
                                                                 decoder0_upsample_encoder3_batchn
                                                                 decoder0_carry_encoder0_batchnorm
__________________________________________________________________________________________________
leaky_re_lu_7 (LeakyReLU)       (None, 62)           0           dense_9[0][0]                    
__________________________________________________________________________________________________
decoder0_conv0 (Conv1D)         (None, 127, 64)      12352       decoder0_concat[0][0]            
__________________________________________________________________________________________________
batch_normalization_7 (BatchNor (None, 62)           248         leaky_re_lu_7[0][0]              
__________________________________________________________________________________________________
decoder0_conv0_activation (Leak (None, 127, 64)      0           decoder0_conv0[0][0]             
__________________________________________________________________________________________________
dense_10 (Dense)                (None, 11)           693         batch_normalization_7[0][0]      
__________________________________________________________________________________________________
deepsup1_upsampling (UpSampling (None, 126, 64)      0           decoder1_conv0_batchnorm[0][0]   
__________________________________________________________________________________________________
deepsup2_upsampling (UpSampling (None, 124, 64)      0           decoder2_conv0_batchnorm[0][0]   
__________________________________________________________________________________________________
deepsup3_upsampling (UpSampling (None, 120, 128)     0           encoder3_conv0_batchnorm[0][0]   
__________________________________________________________________________________________________
decoder0_conv0_batchnorm (Batch (None, 127, 64)      256         decoder0_conv0_activation[0][0]  
__________________________________________________________________________________________________
leaky_re_lu_8 (LeakyReLU)       (None, 11)           0           dense_10[0][0]                   
__________________________________________________________________________________________________
deepsup1_padding (ZeroPadding1D (None, 127, 64)      0           deepsup1_upsampling[0][0]        
__________________________________________________________________________________________________
deepsup2_padding (ZeroPadding1D (None, 127, 64)      0           deepsup2_upsampling[0][0]        
__________________________________________________________________________________________________
deepsup3_padding (ZeroPadding1D (None, 127, 128)     0           deepsup3_upsampling[0][0]        
__________________________________________________________________________________________________
last_conv (Conv1D)              (None, 127, 1)       65          decoder0_conv0_batchnorm[0][0]   
__________________________________________________________________________________________________
batch_normalization_8 (BatchNor (None, 11)           44          leaky_re_lu_8[0][0]              
__________________________________________________________________________________________________
deepsup1_conv (Conv1D)          (None, 127, 1)       65          deepsup1_padding[0][0]           
__________________________________________________________________________________________________
deepsup2_conv (Conv1D)          (None, 127, 1)       65          deepsup2_padding[0][0]           
__________________________________________________________________________________________________
deepsup3_conv (Conv1D)          (None, 127, 1)       129         deepsup3_padding[0][0]           
__________________________________________________________________________________________________
last_conv_activation (ReLU)     (None, 127, 1)       0           last_conv[0][0]                  
__________________________________________________________________________________________________
dense_11 (Dense)                (None, 2)            24          batch_normalization_8[0][0]      
__________________________________________________________________________________________________
deepsup1_activation (ReLU)      (None, 127, 1)       0           deepsup1_conv[0][0]              
__________________________________________________________________________________________________
deepsup2_activation (ReLU)      (None, 127, 1)       0           deepsup2_conv[0][0]              
__________________________________________________________________________________________________
deepsup3_activation (ReLU)      (None, 127, 1)       0           deepsup3_conv[0][0]              
__________________________________________________________________________________________________
conv_output (Lambda)            (None, 127, 1)       0           last_conv_activation[0][0]       
__________________________________________________________________________________________________
dense_output (ReLU)             (None, 2)            0           dense_11[0][0]                   
__________________________________________________________________________________________________
deepsup1_output (Lambda)        (None, 127, 1)       0           deepsup1_activation[0][0]        
__________________________________________________________________________________________________
deepsup2_output (Lambda)        (None, 127, 1)       0           deepsup2_activation[0][0]        
__________________________________________________________________________________________________
deepsup3_output (Lambda)        (None, 127, 1)       0           deepsup3_activation[0][0]        
==================================================================================================
Total params: 796,494
Trainable params: 794,410
Non-trainable params: 2,084
__________________________________________________________________________________________________
Writing model to: "/scratch1/RDARCH/rda-ghpcs/Ryan.Lagerquist/ml4rt_models/2022paper_experiment_sw_plusplusplus_deep/templates/depth=3_num-conv-layers-per-block=1_num-first-layer-channels=016/model.h5"...
Writing metadata to: "/scratch1/RDARCH/rda-ghpcs/Ryan.Lagerquist/ml4rt_models/2022paper_experiment_sw_plusplusplus_deep/templates/depth=3_num-conv-layers-per-block=1_num-first-layer-channels=016/model_metadata.dill"...
Model: "model_3"
__________________________________________________________________________________________________
Layer (type)                    Output Shape         Param #     Connected to                     
==================================================================================================
input_4 (InputLayer)            [(None, 127, 26)]    0                                            
__________________________________________________________________________________________________
encoder0_conv0 (Conv1D)         (None, 127, 32)      2528        input_4[0][0]                    
__________________________________________________________________________________________________
encoder0_conv0_activation (Leak (None, 127, 32)      0           encoder0_conv0[0][0]             
__________________________________________________________________________________________________
encoder0_conv0_batchnorm (Batch (None, 127, 32)      128         encoder0_conv0_activation[0][0]  
__________________________________________________________________________________________________
encoder0_pooling (MaxPooling1D) (None, 63, 32)       0           encoder0_conv0_batchnorm[0][0]   
__________________________________________________________________________________________________
encoder1_conv0 (Conv1D)         (None, 63, 64)       6208        encoder0_pooling[0][0]           
__________________________________________________________________________________________________
encoder1_conv0_activation (Leak (None, 63, 64)       0           encoder1_conv0[0][0]             
__________________________________________________________________________________________________
encoder1_conv0_batchnorm (Batch (None, 63, 64)       256         encoder1_conv0_activation[0][0]  
__________________________________________________________________________________________________
encoder1_pooling (MaxPooling1D) (None, 31, 64)       0           encoder1_conv0_batchnorm[0][0]   
__________________________________________________________________________________________________
encoder2_conv0 (Conv1D)         (None, 31, 128)      24704       encoder1_pooling[0][0]           
__________________________________________________________________________________________________
encoder2_conv0_activation (Leak (None, 31, 128)      0           encoder2_conv0[0][0]             
__________________________________________________________________________________________________
encoder2_conv0_batchnorm (Batch (None, 31, 128)      512         encoder2_conv0_activation[0][0]  
__________________________________________________________________________________________________
encoder2_pooling (MaxPooling1D) (None, 15, 128)      0           encoder2_conv0_batchnorm[0][0]   
__________________________________________________________________________________________________
encoder3_conv0 (Conv1D)         (None, 15, 256)      98560       encoder2_pooling[0][0]           
__________________________________________________________________________________________________
encoder3_conv0_activation (Leak (None, 15, 256)      0           encoder3_conv0[0][0]             
__________________________________________________________________________________________________
encoder3_conv0_batchnorm (Batch (None, 15, 256)      1024        encoder3_conv0_activation[0][0]  
__________________________________________________________________________________________________
decoder2_upsample_encoder3 (UpS (None, 30, 256)      0           encoder3_conv0_batchnorm[0][0]   
__________________________________________________________________________________________________
decoder2_upsample_encoder3_padd (None, 31, 256)      0           decoder2_upsample_encoder3[0][0] 
__________________________________________________________________________________________________
decoder2_downsample_encoder0_po (None, 31, 32)       0           encoder0_conv0_batchnorm[0][0]   
__________________________________________________________________________________________________
decoder2_downsample_encoder1_po (None, 31, 64)       0           encoder1_conv0_batchnorm[0][0]   
__________________________________________________________________________________________________
decoder2_upsample_encoder3_conv (None, 31, 32)       24608       decoder2_upsample_encoder3_paddin
__________________________________________________________________________________________________
decoder2_carry_encoder2_conv (C (None, 31, 32)       12320       encoder2_conv0_batchnorm[0][0]   
__________________________________________________________________________________________________
decoder2_downsample_encoder0_co (None, 31, 32)       3104        decoder2_downsample_encoder0_pool
__________________________________________________________________________________________________
decoder2_downsample_encoder1_co (None, 31, 32)       6176        decoder2_downsample_encoder1_pool
__________________________________________________________________________________________________
decoder2_upsample_encoder3_acti (None, 31, 32)       0           decoder2_upsample_encoder3_conv[0
__________________________________________________________________________________________________
decoder2_carry_encoder2_activat (None, 31, 32)       0           decoder2_carry_encoder2_conv[0][0
__________________________________________________________________________________________________
decoder2_downsample_encoder0_ac (None, 31, 32)       0           decoder2_downsample_encoder0_conv
__________________________________________________________________________________________________
decoder2_downsample_encoder1_ac (None, 31, 32)       0           decoder2_downsample_encoder1_conv
__________________________________________________________________________________________________
decoder2_upsample_encoder3_batc (None, 31, 32)       128         decoder2_upsample_encoder3_activa
__________________________________________________________________________________________________
decoder2_carry_encoder2_batchno (None, 31, 32)       128         decoder2_carry_encoder2_activatio
__________________________________________________________________________________________________
decoder2_downsample_encoder0_ba (None, 31, 32)       128         decoder2_downsample_encoder0_acti
__________________________________________________________________________________________________
decoder2_downsample_encoder1_ba (None, 31, 32)       128         decoder2_downsample_encoder1_acti
__________________________________________________________________________________________________
decoder2_concat (Concatenate)   (None, 31, 128)      0           decoder2_upsample_encoder3_batchn
                                                                 decoder2_carry_encoder2_batchnorm
                                                                 decoder2_downsample_encoder0_batc
                                                                 decoder2_downsample_encoder1_batc
__________________________________________________________________________________________________
decoder2_conv0 (Conv1D)         (None, 31, 128)      49280       decoder2_concat[0][0]            
__________________________________________________________________________________________________
decoder2_conv0_activation (Leak (None, 31, 128)      0           decoder2_conv0[0][0]             
__________________________________________________________________________________________________
decoder2_conv0_batchnorm (Batch (None, 31, 128)      512         decoder2_conv0_activation[0][0]  
__________________________________________________________________________________________________
decoder1_upsample_decoder2 (UpS (None, 62, 128)      0           decoder2_conv0_batchnorm[0][0]   
__________________________________________________________________________________________________
decoder1_upsample_encoder3 (UpS (None, 60, 256)      0           encoder3_conv0_batchnorm[0][0]   
__________________________________________________________________________________________________
decoder1_upsample_decoder2_padd (None, 63, 128)      0           decoder1_upsample_decoder2[0][0] 
__________________________________________________________________________________________________
decoder1_upsample_encoder3_padd (None, 63, 256)      0           decoder1_upsample_encoder3[0][0] 
__________________________________________________________________________________________________
decoder1_downsample_encoder0_po (None, 63, 32)       0           encoder0_conv0_batchnorm[0][0]   
__________________________________________________________________________________________________
decoder1_upsample_decoder2_conv (None, 63, 32)       12320       decoder1_upsample_decoder2_paddin
__________________________________________________________________________________________________
decoder1_upsample_encoder3_conv (None, 63, 32)       24608       decoder1_upsample_encoder3_paddin
__________________________________________________________________________________________________
decoder1_carry_encoder1_conv (C (None, 63, 32)       6176        encoder1_conv0_batchnorm[0][0]   
__________________________________________________________________________________________________
decoder1_downsample_encoder0_co (None, 63, 32)       3104        decoder1_downsample_encoder0_pool
__________________________________________________________________________________________________
decoder1_upsample_decoder2_acti (None, 63, 32)       0           decoder1_upsample_decoder2_conv[0
__________________________________________________________________________________________________
decoder1_upsample_encoder3_acti (None, 63, 32)       0           decoder1_upsample_encoder3_conv[0
__________________________________________________________________________________________________
decoder1_carry_encoder1_activat (None, 63, 32)       0           decoder1_carry_encoder1_conv[0][0
__________________________________________________________________________________________________
decoder1_downsample_encoder0_ac (None, 63, 32)       0           decoder1_downsample_encoder0_conv
__________________________________________________________________________________________________
decoder1_upsample_decoder2_batc (None, 63, 32)       128         decoder1_upsample_decoder2_activa
__________________________________________________________________________________________________
decoder1_upsample_encoder3_batc (None, 63, 32)       128         decoder1_upsample_encoder3_activa
__________________________________________________________________________________________________
decoder1_carry_encoder1_batchno (None, 63, 32)       128         decoder1_carry_encoder1_activatio
__________________________________________________________________________________________________
decoder1_downsample_encoder0_ba (None, 63, 32)       128         decoder1_downsample_encoder0_acti
__________________________________________________________________________________________________
decoder1_concat (Concatenate)   (None, 63, 128)      0           decoder1_upsample_decoder2_batchn
                                                                 decoder1_upsample_encoder3_batchn
                                                                 decoder1_carry_encoder1_batchnorm
                                                                 decoder1_downsample_encoder0_batc
__________________________________________________________________________________________________
decoder1_conv0 (Conv1D)         (None, 63, 128)      49280       decoder1_concat[0][0]            
__________________________________________________________________________________________________
decoder1_conv0_activation (Leak (None, 63, 128)      0           decoder1_conv0[0][0]             
__________________________________________________________________________________________________
decoder1_conv0_batchnorm (Batch (None, 63, 128)      512         decoder1_conv0_activation[0][0]  
__________________________________________________________________________________________________
decoder0_upsample_decoder1 (UpS (None, 126, 128)     0           decoder1_conv0_batchnorm[0][0]   
__________________________________________________________________________________________________
decoder0_upsample_decoder2 (UpS (None, 124, 128)     0           decoder2_conv0_batchnorm[0][0]   
__________________________________________________________________________________________________
decoder0_upsample_encoder3 (UpS (None, 120, 256)     0           encoder3_conv0_batchnorm[0][0]   
__________________________________________________________________________________________________
flatten_3 (Flatten)             (None, 3840)         0           encoder3_conv0_batchnorm[0][0]   
__________________________________________________________________________________________________
decoder0_upsample_decoder1_padd (None, 127, 128)     0           decoder0_upsample_decoder1[0][0] 
__________________________________________________________________________________________________
decoder0_upsample_decoder2_padd (None, 127, 128)     0           decoder0_upsample_decoder2[0][0] 
__________________________________________________________________________________________________
decoder0_upsample_encoder3_padd (None, 127, 256)     0           decoder0_upsample_encoder3[0][0] 
__________________________________________________________________________________________________
dense_12 (Dense)                (None, 580)          2227780     flatten_3[0][0]                  
__________________________________________________________________________________________________
decoder0_upsample_decoder1_conv (None, 127, 32)      12320       decoder0_upsample_decoder1_paddin
__________________________________________________________________________________________________
decoder0_upsample_decoder2_conv (None, 127, 32)      12320       decoder0_upsample_decoder2_paddin
__________________________________________________________________________________________________
decoder0_upsample_encoder3_conv (None, 127, 32)      24608       decoder0_upsample_encoder3_paddin
__________________________________________________________________________________________________
decoder0_carry_encoder0_conv (C (None, 127, 32)      3104        encoder0_conv0_batchnorm[0][0]   
__________________________________________________________________________________________________
leaky_re_lu_9 (LeakyReLU)       (None, 580)          0           dense_12[0][0]                   
__________________________________________________________________________________________________
decoder0_upsample_decoder1_acti (None, 127, 32)      0           decoder0_upsample_decoder1_conv[0
__________________________________________________________________________________________________
decoder0_upsample_decoder2_acti (None, 127, 32)      0           decoder0_upsample_decoder2_conv[0
__________________________________________________________________________________________________
decoder0_upsample_encoder3_acti (None, 127, 32)      0           decoder0_upsample_encoder3_conv[0
__________________________________________________________________________________________________
decoder0_carry_encoder0_activat (None, 127, 32)      0           decoder0_carry_encoder0_conv[0][0
__________________________________________________________________________________________________
batch_normalization_9 (BatchNor (None, 580)          2320        leaky_re_lu_9[0][0]              
__________________________________________________________________________________________________
decoder0_upsample_decoder1_batc (None, 127, 32)      128         decoder0_upsample_decoder1_activa
__________________________________________________________________________________________________
decoder0_upsample_decoder2_batc (None, 127, 32)      128         decoder0_upsample_decoder2_activa
__________________________________________________________________________________________________
decoder0_upsample_encoder3_batc (None, 127, 32)      128         decoder0_upsample_encoder3_activa
__________________________________________________________________________________________________
decoder0_carry_encoder0_batchno (None, 127, 32)      128         decoder0_carry_encoder0_activatio
__________________________________________________________________________________________________
dense_13 (Dense)                (None, 88)           51128       batch_normalization_9[0][0]      
__________________________________________________________________________________________________
decoder0_concat (Concatenate)   (None, 127, 128)     0           decoder0_upsample_decoder1_batchn
                                                                 decoder0_upsample_decoder2_batchn
                                                                 decoder0_upsample_encoder3_batchn
                                                                 decoder0_carry_encoder0_batchnorm
__________________________________________________________________________________________________
leaky_re_lu_10 (LeakyReLU)      (None, 88)           0           dense_13[0][0]                   
__________________________________________________________________________________________________
decoder0_conv0 (Conv1D)         (None, 127, 128)     49280       decoder0_concat[0][0]            
__________________________________________________________________________________________________
batch_normalization_10 (BatchNo (None, 88)           352         leaky_re_lu_10[0][0]             
__________________________________________________________________________________________________
decoder0_conv0_activation (Leak (None, 127, 128)     0           decoder0_conv0[0][0]             
__________________________________________________________________________________________________
dense_14 (Dense)                (None, 13)           1157        batch_normalization_10[0][0]     
__________________________________________________________________________________________________
deepsup1_upsampling (UpSampling (None, 126, 128)     0           decoder1_conv0_batchnorm[0][0]   
__________________________________________________________________________________________________
deepsup2_upsampling (UpSampling (None, 124, 128)     0           decoder2_conv0_batchnorm[0][0]   
__________________________________________________________________________________________________
deepsup3_upsampling (UpSampling (None, 120, 256)     0           encoder3_conv0_batchnorm[0][0]   
__________________________________________________________________________________________________
decoder0_conv0_batchnorm (Batch (None, 127, 128)     512         decoder0_conv0_activation[0][0]  
__________________________________________________________________________________________________
leaky_re_lu_11 (LeakyReLU)      (None, 13)           0           dense_14[0][0]                   
__________________________________________________________________________________________________
deepsup1_padding (ZeroPadding1D (None, 127, 128)     0           deepsup1_upsampling[0][0]        
__________________________________________________________________________________________________
deepsup2_padding (ZeroPadding1D (None, 127, 128)     0           deepsup2_upsampling[0][0]        
__________________________________________________________________________________________________
deepsup3_padding (ZeroPadding1D (None, 127, 256)     0           deepsup3_upsampling[0][0]        
__________________________________________________________________________________________________
last_conv (Conv1D)              (None, 127, 1)       129         decoder0_conv0_batchnorm[0][0]   
__________________________________________________________________________________________________
batch_normalization_11 (BatchNo (None, 13)           52          leaky_re_lu_11[0][0]             
__________________________________________________________________________________________________
deepsup1_conv (Conv1D)          (None, 127, 1)       129         deepsup1_padding[0][0]           
__________________________________________________________________________________________________
deepsup2_conv (Conv1D)          (None, 127, 1)       129         deepsup2_padding[0][0]           
__________________________________________________________________________________________________
deepsup3_conv (Conv1D)          (None, 127, 1)       257         deepsup3_padding[0][0]           
__________________________________________________________________________________________________
last_conv_activation (ReLU)     (None, 127, 1)       0           last_conv[0][0]                  
__________________________________________________________________________________________________
dense_15 (Dense)                (None, 2)            28          batch_normalization_11[0][0]     
__________________________________________________________________________________________________
deepsup1_activation (ReLU)      (None, 127, 1)       0           deepsup1_conv[0][0]              
__________________________________________________________________________________________________
deepsup2_activation (ReLU)      (None, 127, 1)       0           deepsup2_conv[0][0]              
__________________________________________________________________________________________________
deepsup3_activation (ReLU)      (None, 127, 1)       0           deepsup3_conv[0][0]              
__________________________________________________________________________________________________
conv_output (Lambda)            (None, 127, 1)       0           last_conv_activation[0][0]       
__________________________________________________________________________________________________
dense_output (ReLU)             (None, 2)            0           dense_15[0][0]                   
__________________________________________________________________________________________________
deepsup1_output (Lambda)        (None, 127, 1)       0           deepsup1_activation[0][0]        
__________________________________________________________________________________________________
deepsup2_output (Lambda)        (None, 127, 1)       0           deepsup2_activation[0][0]        
__________________________________________________________________________________________________
deepsup3_output (Lambda)        (None, 127, 1)       0           deepsup3_activation[0][0]        
==================================================================================================
Total params: 2,713,061
Trainable params: 2,709,203
Non-trainable params: 3,858
__________________________________________________________________________________________________
Writing model to: "/scratch1/RDARCH/rda-ghpcs/Ryan.Lagerquist/ml4rt_models/2022paper_experiment_sw_plusplusplus_deep/templates/depth=3_num-conv-layers-per-block=1_num-first-layer-channels=032/model.h5"...
Writing metadata to: "/scratch1/RDARCH/rda-ghpcs/Ryan.Lagerquist/ml4rt_models/2022paper_experiment_sw_plusplusplus_deep/templates/depth=3_num-conv-layers-per-block=1_num-first-layer-channels=032/model_metadata.dill"...
Model: "model_4"
__________________________________________________________________________________________________
Layer (type)                    Output Shape         Param #     Connected to                     
==================================================================================================
input_5 (InputLayer)            [(None, 127, 26)]    0                                            
__________________________________________________________________________________________________
encoder0_conv0 (Conv1D)         (None, 127, 64)      5056        input_5[0][0]                    
__________________________________________________________________________________________________
encoder0_conv0_activation (Leak (None, 127, 64)      0           encoder0_conv0[0][0]             
__________________________________________________________________________________________________
encoder0_conv0_batchnorm (Batch (None, 127, 64)      256         encoder0_conv0_activation[0][0]  
__________________________________________________________________________________________________
encoder0_pooling (MaxPooling1D) (None, 63, 64)       0           encoder0_conv0_batchnorm[0][0]   
__________________________________________________________________________________________________
encoder1_conv0 (Conv1D)         (None, 63, 128)      24704       encoder0_pooling[0][0]           
__________________________________________________________________________________________________
encoder1_conv0_activation (Leak (None, 63, 128)      0           encoder1_conv0[0][0]             
__________________________________________________________________________________________________
encoder1_conv0_batchnorm (Batch (None, 63, 128)      512         encoder1_conv0_activation[0][0]  
__________________________________________________________________________________________________
encoder1_pooling (MaxPooling1D) (None, 31, 128)      0           encoder1_conv0_batchnorm[0][0]   
__________________________________________________________________________________________________
encoder2_conv0 (Conv1D)         (None, 31, 256)      98560       encoder1_pooling[0][0]           
__________________________________________________________________________________________________
encoder2_conv0_activation (Leak (None, 31, 256)      0           encoder2_conv0[0][0]             
__________________________________________________________________________________________________
encoder2_conv0_batchnorm (Batch (None, 31, 256)      1024        encoder2_conv0_activation[0][0]  
__________________________________________________________________________________________________
encoder2_pooling (MaxPooling1D) (None, 15, 256)      0           encoder2_conv0_batchnorm[0][0]   
__________________________________________________________________________________________________
encoder3_conv0 (Conv1D)         (None, 15, 512)      393728      encoder2_pooling[0][0]           
__________________________________________________________________________________________________
encoder3_conv0_activation (Leak (None, 15, 512)      0           encoder3_conv0[0][0]             
__________________________________________________________________________________________________
encoder3_conv0_batchnorm (Batch (None, 15, 512)      2048        encoder3_conv0_activation[0][0]  
__________________________________________________________________________________________________
decoder2_upsample_encoder3 (UpS (None, 30, 512)      0           encoder3_conv0_batchnorm[0][0]   
__________________________________________________________________________________________________
decoder2_upsample_encoder3_padd (None, 31, 512)      0           decoder2_upsample_encoder3[0][0] 
__________________________________________________________________________________________________
decoder2_downsample_encoder0_po (None, 31, 64)       0           encoder0_conv0_batchnorm[0][0]   
__________________________________________________________________________________________________
decoder2_downsample_encoder1_po (None, 31, 128)      0           encoder1_conv0_batchnorm[0][0]   
__________________________________________________________________________________________________
decoder2_upsample_encoder3_conv (None, 31, 64)       98368       decoder2_upsample_encoder3_paddin
__________________________________________________________________________________________________
decoder2_carry_encoder2_conv (C (None, 31, 64)       49216       encoder2_conv0_batchnorm[0][0]   
__________________________________________________________________________________________________
decoder2_downsample_encoder0_co (None, 31, 64)       12352       decoder2_downsample_encoder0_pool
__________________________________________________________________________________________________
decoder2_downsample_encoder1_co (None, 31, 64)       24640       decoder2_downsample_encoder1_pool
__________________________________________________________________________________________________
decoder2_upsample_encoder3_acti (None, 31, 64)       0           decoder2_upsample_encoder3_conv[0
__________________________________________________________________________________________________
decoder2_carry_encoder2_activat (None, 31, 64)       0           decoder2_carry_encoder2_conv[0][0
__________________________________________________________________________________________________
decoder2_downsample_encoder0_ac (None, 31, 64)       0           decoder2_downsample_encoder0_conv
__________________________________________________________________________________________________
decoder2_downsample_encoder1_ac (None, 31, 64)       0           decoder2_downsample_encoder1_conv
__________________________________________________________________________________________________
decoder2_upsample_encoder3_batc (None, 31, 64)       256         decoder2_upsample_encoder3_activa
__________________________________________________________________________________________________
decoder2_carry_encoder2_batchno (None, 31, 64)       256         decoder2_carry_encoder2_activatio
__________________________________________________________________________________________________
decoder2_downsample_encoder0_ba (None, 31, 64)       256         decoder2_downsample_encoder0_acti
__________________________________________________________________________________________________
decoder2_downsample_encoder1_ba (None, 31, 64)       256         decoder2_downsample_encoder1_acti
__________________________________________________________________________________________________
decoder2_concat (Concatenate)   (None, 31, 256)      0           decoder2_upsample_encoder3_batchn
                                                                 decoder2_carry_encoder2_batchnorm
                                                                 decoder2_downsample_encoder0_batc
                                                                 decoder2_downsample_encoder1_batc
__________________________________________________________________________________________________
decoder2_conv0 (Conv1D)         (None, 31, 256)      196864      decoder2_concat[0][0]            
__________________________________________________________________________________________________
decoder2_conv0_activation (Leak (None, 31, 256)      0           decoder2_conv0[0][0]             
__________________________________________________________________________________________________
decoder2_conv0_batchnorm (Batch (None, 31, 256)      1024        decoder2_conv0_activation[0][0]  
__________________________________________________________________________________________________
decoder1_upsample_decoder2 (UpS (None, 62, 256)      0           decoder2_conv0_batchnorm[0][0]   
__________________________________________________________________________________________________
decoder1_upsample_encoder3 (UpS (None, 60, 512)      0           encoder3_conv0_batchnorm[0][0]   
__________________________________________________________________________________________________
decoder1_upsample_decoder2_padd (None, 63, 256)      0           decoder1_upsample_decoder2[0][0] 
__________________________________________________________________________________________________
decoder1_upsample_encoder3_padd (None, 63, 512)      0           decoder1_upsample_encoder3[0][0] 
__________________________________________________________________________________________________
decoder1_downsample_encoder0_po (None, 63, 64)       0           encoder0_conv0_batchnorm[0][0]   
__________________________________________________________________________________________________
decoder1_upsample_decoder2_conv (None, 63, 64)       49216       decoder1_upsample_decoder2_paddin
__________________________________________________________________________________________________
decoder1_upsample_encoder3_conv (None, 63, 64)       98368       decoder1_upsample_encoder3_paddin
__________________________________________________________________________________________________
decoder1_carry_encoder1_conv (C (None, 63, 64)       24640       encoder1_conv0_batchnorm[0][0]   
__________________________________________________________________________________________________
decoder1_downsample_encoder0_co (None, 63, 64)       12352       decoder1_downsample_encoder0_pool
__________________________________________________________________________________________________
decoder1_upsample_decoder2_acti (None, 63, 64)       0           decoder1_upsample_decoder2_conv[0
__________________________________________________________________________________________________
decoder1_upsample_encoder3_acti (None, 63, 64)       0           decoder1_upsample_encoder3_conv[0
__________________________________________________________________________________________________
decoder1_carry_encoder1_activat (None, 63, 64)       0           decoder1_carry_encoder1_conv[0][0
__________________________________________________________________________________________________
decoder1_downsample_encoder0_ac (None, 63, 64)       0           decoder1_downsample_encoder0_conv
__________________________________________________________________________________________________
decoder1_upsample_decoder2_batc (None, 63, 64)       256         decoder1_upsample_decoder2_activa
__________________________________________________________________________________________________
decoder1_upsample_encoder3_batc (None, 63, 64)       256         decoder1_upsample_encoder3_activa
__________________________________________________________________________________________________
decoder1_carry_encoder1_batchno (None, 63, 64)       256         decoder1_carry_encoder1_activatio
__________________________________________________________________________________________________
decoder1_downsample_encoder0_ba (None, 63, 64)       256         decoder1_downsample_encoder0_acti
__________________________________________________________________________________________________
decoder1_concat (Concatenate)   (None, 63, 256)      0           decoder1_upsample_decoder2_batchn
                                                                 decoder1_upsample_encoder3_batchn
                                                                 decoder1_carry_encoder1_batchnorm
                                                                 decoder1_downsample_encoder0_batc
__________________________________________________________________________________________________
decoder1_conv0 (Conv1D)         (None, 63, 256)      196864      decoder1_concat[0][0]            
__________________________________________________________________________________________________
decoder1_conv0_activation (Leak (None, 63, 256)      0           decoder1_conv0[0][0]             
__________________________________________________________________________________________________
decoder1_conv0_batchnorm (Batch (None, 63, 256)      1024        decoder1_conv0_activation[0][0]  
__________________________________________________________________________________________________
decoder0_upsample_decoder1 (UpS (None, 126, 256)     0           decoder1_conv0_batchnorm[0][0]   
__________________________________________________________________________________________________
decoder0_upsample_decoder2 (UpS (None, 124, 256)     0           decoder2_conv0_batchnorm[0][0]   
__________________________________________________________________________________________________
decoder0_upsample_encoder3 (UpS (None, 120, 512)     0           encoder3_conv0_batchnorm[0][0]   
__________________________________________________________________________________________________
flatten_4 (Flatten)             (None, 7680)         0           encoder3_conv0_batchnorm[0][0]   
__________________________________________________________________________________________________
decoder0_upsample_decoder1_padd (None, 127, 256)     0           decoder0_upsample_decoder1[0][0] 
__________________________________________________________________________________________________
decoder0_upsample_decoder2_padd (None, 127, 256)     0           decoder0_upsample_decoder2[0][0] 
__________________________________________________________________________________________________
decoder0_upsample_encoder3_padd (None, 127, 512)     0           decoder0_upsample_encoder3[0][0] 
__________________________________________________________________________________________________
dense_16 (Dense)                (None, 976)          7496656     flatten_4[0][0]                  
__________________________________________________________________________________________________
decoder0_upsample_decoder1_conv (None, 127, 64)      49216       decoder0_upsample_decoder1_paddin
__________________________________________________________________________________________________
decoder0_upsample_decoder2_conv (None, 127, 64)      49216       decoder0_upsample_decoder2_paddin
__________________________________________________________________________________________________
decoder0_upsample_encoder3_conv (None, 127, 64)      98368       decoder0_upsample_encoder3_paddin
__________________________________________________________________________________________________
decoder0_carry_encoder0_conv (C (None, 127, 64)      12352       encoder0_conv0_batchnorm[0][0]   
__________________________________________________________________________________________________
leaky_re_lu_12 (LeakyReLU)      (None, 976)          0           dense_16[0][0]                   
__________________________________________________________________________________________________
decoder0_upsample_decoder1_acti (None, 127, 64)      0           decoder0_upsample_decoder1_conv[0
__________________________________________________________________________________________________
decoder0_upsample_decoder2_acti (None, 127, 64)      0           decoder0_upsample_decoder2_conv[0
__________________________________________________________________________________________________
decoder0_upsample_encoder3_acti (None, 127, 64)      0           decoder0_upsample_encoder3_conv[0
__________________________________________________________________________________________________
decoder0_carry_encoder0_activat (None, 127, 64)      0           decoder0_carry_encoder0_conv[0][0
__________________________________________________________________________________________________
batch_normalization_12 (BatchNo (None, 976)          3904        leaky_re_lu_12[0][0]             
__________________________________________________________________________________________________
decoder0_upsample_decoder1_batc (None, 127, 64)      256         decoder0_upsample_decoder1_activa
__________________________________________________________________________________________________
decoder0_upsample_decoder2_batc (None, 127, 64)      256         decoder0_upsample_decoder2_activa
__________________________________________________________________________________________________
decoder0_upsample_encoder3_batc (None, 127, 64)      256         decoder0_upsample_encoder3_activa
__________________________________________________________________________________________________
decoder0_carry_encoder0_batchno (None, 127, 64)      256         decoder0_carry_encoder0_activatio
__________________________________________________________________________________________________
dense_17 (Dense)                (None, 124)          121148      batch_normalization_12[0][0]     
__________________________________________________________________________________________________
decoder0_concat (Concatenate)   (None, 127, 256)     0           decoder0_upsample_decoder1_batchn
                                                                 decoder0_upsample_decoder2_batchn
                                                                 decoder0_upsample_encoder3_batchn
                                                                 decoder0_carry_encoder0_batchnorm
__________________________________________________________________________________________________
leaky_re_lu_13 (LeakyReLU)      (None, 124)          0           dense_17[0][0]                   
__________________________________________________________________________________________________
decoder0_conv0 (Conv1D)         (None, 127, 256)     196864      decoder0_concat[0][0]            
__________________________________________________________________________________________________
batch_normalization_13 (BatchNo (None, 124)          496         leaky_re_lu_13[0][0]             
__________________________________________________________________________________________________
decoder0_conv0_activation (Leak (None, 127, 256)     0           decoder0_conv0[0][0]             
__________________________________________________________________________________________________
dense_18 (Dense)                (None, 16)           2000        batch_normalization_13[0][0]     
__________________________________________________________________________________________________
deepsup1_upsampling (UpSampling (None, 126, 256)     0           decoder1_conv0_batchnorm[0][0]   
__________________________________________________________________________________________________
deepsup2_upsampling (UpSampling (None, 124, 256)     0           decoder2_conv0_batchnorm[0][0]   
__________________________________________________________________________________________________
deepsup3_upsampling (UpSampling (None, 120, 512)     0           encoder3_conv0_batchnorm[0][0]   
__________________________________________________________________________________________________
decoder0_conv0_batchnorm (Batch (None, 127, 256)     1024        decoder0_conv0_activation[0][0]  
__________________________________________________________________________________________________
leaky_re_lu_14 (LeakyReLU)      (None, 16)           0           dense_18[0][0]                   
__________________________________________________________________________________________________
deepsup1_padding (ZeroPadding1D (None, 127, 256)     0           deepsup1_upsampling[0][0]        
__________________________________________________________________________________________________
deepsup2_padding (ZeroPadding1D (None, 127, 256)     0           deepsup2_upsampling[0][0]        
__________________________________________________________________________________________________
deepsup3_padding (ZeroPadding1D (None, 127, 512)     0           deepsup3_upsampling[0][0]        
__________________________________________________________________________________________________
last_conv (Conv1D)              (None, 127, 1)       257         decoder0_conv0_batchnorm[0][0]   
__________________________________________________________________________________________________
batch_normalization_14 (BatchNo (None, 16)           64          leaky_re_lu_14[0][0]             
__________________________________________________________________________________________________
deepsup1_conv (Conv1D)          (None, 127, 1)       257         deepsup1_padding[0][0]           
__________________________________________________________________________________________________
deepsup2_conv (Conv1D)          (None, 127, 1)       257         deepsup2_padding[0][0]           
__________________________________________________________________________________________________
deepsup3_conv (Conv1D)          (None, 127, 1)       513         deepsup3_padding[0][0]           
__________________________________________________________________________________________________
last_conv_activation (ReLU)     (None, 127, 1)       0           last_conv[0][0]                  
__________________________________________________________________________________________________
dense_19 (Dense)                (None, 2)            34          batch_normalization_14[0][0]     
__________________________________________________________________________________________________
deepsup1_activation (ReLU)      (None, 127, 1)       0           deepsup1_conv[0][0]              
__________________________________________________________________________________________________
deepsup2_activation (ReLU)      (None, 127, 1)       0           deepsup2_conv[0][0]              
__________________________________________________________________________________________________
deepsup3_activation (ReLU)      (None, 127, 1)       0           deepsup3_conv[0][0]              
__________________________________________________________________________________________________
conv_output (Lambda)            (None, 127, 1)       0           last_conv_activation[0][0]       
__________________________________________________________________________________________________
dense_output (ReLU)             (None, 2)            0           dense_19[0][0]                   
__________________________________________________________________________________________________
deepsup1_output (Lambda)        (None, 127, 1)       0           deepsup1_activation[0][0]        
__________________________________________________________________________________________________
deepsup2_output (Lambda)        (None, 127, 1)       0           deepsup2_activation[0][0]        
__________________________________________________________________________________________________
deepsup3_output (Lambda)        (None, 127, 1)       0           deepsup3_activation[0][0]        
==================================================================================================
Total params: 9,326,514
Trainable params: 9,319,290
Non-trainable params: 7,224
__________________________________________________________________________________________________
Writing model to: "/scratch1/RDARCH/rda-ghpcs/Ryan.Lagerquist/ml4rt_models/2022paper_experiment_sw_plusplusplus_deep/templates/depth=3_num-conv-layers-per-block=1_num-first-layer-channels=064/model.h5"...
Writing metadata to: "/scratch1/RDARCH/rda-ghpcs/Ryan.Lagerquist/ml4rt_models/2022paper_experiment_sw_plusplusplus_deep/templates/depth=3_num-conv-layers-per-block=1_num-first-layer-channels=064/model_metadata.dill"...
Model: "model_5"
__________________________________________________________________________________________________
Layer (type)                    Output Shape         Param #     Connected to                     
==================================================================================================
input_6 (InputLayer)            [(None, 127, 26)]    0                                            
__________________________________________________________________________________________________
encoder0_conv0 (Conv1D)         (None, 127, 128)     10112       input_6[0][0]                    
__________________________________________________________________________________________________
encoder0_conv0_activation (Leak (None, 127, 128)     0           encoder0_conv0[0][0]             
__________________________________________________________________________________________________
encoder0_conv0_batchnorm (Batch (None, 127, 128)     512         encoder0_conv0_activation[0][0]  
__________________________________________________________________________________________________
encoder0_pooling (MaxPooling1D) (None, 63, 128)      0           encoder0_conv0_batchnorm[0][0]   
__________________________________________________________________________________________________
encoder1_conv0 (Conv1D)         (None, 63, 256)      98560       encoder0_pooling[0][0]           
__________________________________________________________________________________________________
encoder1_conv0_activation (Leak (None, 63, 256)      0           encoder1_conv0[0][0]             
__________________________________________________________________________________________________
encoder1_conv0_batchnorm (Batch (None, 63, 256)      1024        encoder1_conv0_activation[0][0]  
__________________________________________________________________________________________________
encoder1_pooling (MaxPooling1D) (None, 31, 256)      0           encoder1_conv0_batchnorm[0][0]   
__________________________________________________________________________________________________
encoder2_conv0 (Conv1D)         (None, 31, 512)      393728      encoder1_pooling[0][0]           
__________________________________________________________________________________________________
encoder2_conv0_activation (Leak (None, 31, 512)      0           encoder2_conv0[0][0]             
__________________________________________________________________________________________________
encoder2_conv0_batchnorm (Batch (None, 31, 512)      2048        encoder2_conv0_activation[0][0]  
__________________________________________________________________________________________________
encoder2_pooling (MaxPooling1D) (None, 15, 512)      0           encoder2_conv0_batchnorm[0][0]   
__________________________________________________________________________________________________
encoder3_conv0 (Conv1D)         (None, 15, 1024)     1573888     encoder2_pooling[0][0]           
__________________________________________________________________________________________________
encoder3_conv0_activation (Leak (None, 15, 1024)     0           encoder3_conv0[0][0]             
__________________________________________________________________________________________________
encoder3_conv0_batchnorm (Batch (None, 15, 1024)     4096        encoder3_conv0_activation[0][0]  
__________________________________________________________________________________________________
decoder2_upsample_encoder3 (UpS (None, 30, 1024)     0           encoder3_conv0_batchnorm[0][0]   
__________________________________________________________________________________________________
decoder2_upsample_encoder3_padd (None, 31, 1024)     0           decoder2_upsample_encoder3[0][0] 
__________________________________________________________________________________________________
decoder2_downsample_encoder0_po (None, 31, 128)      0           encoder0_conv0_batchnorm[0][0]   
__________________________________________________________________________________________________
decoder2_downsample_encoder1_po (None, 31, 256)      0           encoder1_conv0_batchnorm[0][0]   
__________________________________________________________________________________________________
decoder2_upsample_encoder3_conv (None, 31, 128)      393344      decoder2_upsample_encoder3_paddin
__________________________________________________________________________________________________
decoder2_carry_encoder2_conv (C (None, 31, 128)      196736      encoder2_conv0_batchnorm[0][0]   
__________________________________________________________________________________________________
decoder2_downsample_encoder0_co (None, 31, 128)      49280       decoder2_downsample_encoder0_pool
__________________________________________________________________________________________________
decoder2_downsample_encoder1_co (None, 31, 128)      98432       decoder2_downsample_encoder1_pool
__________________________________________________________________________________________________
decoder2_upsample_encoder3_acti (None, 31, 128)      0           decoder2_upsample_encoder3_conv[0
__________________________________________________________________________________________________
decoder2_carry_encoder2_activat (None, 31, 128)      0           decoder2_carry_encoder2_conv[0][0
__________________________________________________________________________________________________
decoder2_downsample_encoder0_ac (None, 31, 128)      0           decoder2_downsample_encoder0_conv
__________________________________________________________________________________________________
decoder2_downsample_encoder1_ac (None, 31, 128)      0           decoder2_downsample_encoder1_conv
__________________________________________________________________________________________________
decoder2_upsample_encoder3_batc (None, 31, 128)      512         decoder2_upsample_encoder3_activa
__________________________________________________________________________________________________
decoder2_carry_encoder2_batchno (None, 31, 128)      512         decoder2_carry_encoder2_activatio
__________________________________________________________________________________________________
decoder2_downsample_encoder0_ba (None, 31, 128)      512         decoder2_downsample_encoder0_acti
__________________________________________________________________________________________________
decoder2_downsample_encoder1_ba (None, 31, 128)      512         decoder2_downsample_encoder1_acti
__________________________________________________________________________________________________
decoder2_concat (Concatenate)   (None, 31, 512)      0           decoder2_upsample_encoder3_batchn
                                                                 decoder2_carry_encoder2_batchnorm
                                                                 decoder2_downsample_encoder0_batc
                                                                 decoder2_downsample_encoder1_batc
__________________________________________________________________________________________________
decoder2_conv0 (Conv1D)         (None, 31, 512)      786944      decoder2_concat[0][0]            
__________________________________________________________________________________________________
decoder2_conv0_activation (Leak (None, 31, 512)      0           decoder2_conv0[0][0]             
__________________________________________________________________________________________________
decoder2_conv0_batchnorm (Batch (None, 31, 512)      2048        decoder2_conv0_activation[0][0]  
__________________________________________________________________________________________________
decoder1_upsample_decoder2 (UpS (None, 62, 512)      0           decoder2_conv0_batchnorm[0][0]   
__________________________________________________________________________________________________
decoder1_upsample_encoder3 (UpS (None, 60, 1024)     0           encoder3_conv0_batchnorm[0][0]   
__________________________________________________________________________________________________
decoder1_upsample_decoder2_padd (None, 63, 512)      0           decoder1_upsample_decoder2[0][0] 
__________________________________________________________________________________________________
decoder1_upsample_encoder3_padd (None, 63, 1024)     0           decoder1_upsample_encoder3[0][0] 
__________________________________________________________________________________________________
decoder1_downsample_encoder0_po (None, 63, 128)      0           encoder0_conv0_batchnorm[0][0]   
__________________________________________________________________________________________________
decoder1_upsample_decoder2_conv (None, 63, 128)      196736      decoder1_upsample_decoder2_paddin
__________________________________________________________________________________________________
decoder1_upsample_encoder3_conv (None, 63, 128)      393344      decoder1_upsample_encoder3_paddin
__________________________________________________________________________________________________
decoder1_carry_encoder1_conv (C (None, 63, 128)      98432       encoder1_conv0_batchnorm[0][0]   
__________________________________________________________________________________________________
decoder1_downsample_encoder0_co (None, 63, 128)      49280       decoder1_downsample_encoder0_pool
__________________________________________________________________________________________________
decoder1_upsample_decoder2_acti (None, 63, 128)      0           decoder1_upsample_decoder2_conv[0
__________________________________________________________________________________________________
decoder1_upsample_encoder3_acti (None, 63, 128)      0           decoder1_upsample_encoder3_conv[0
__________________________________________________________________________________________________
decoder1_carry_encoder1_activat (None, 63, 128)      0           decoder1_carry_encoder1_conv[0][0
__________________________________________________________________________________________________
decoder1_downsample_encoder0_ac (None, 63, 128)      0           decoder1_downsample_encoder0_conv
__________________________________________________________________________________________________
decoder1_upsample_decoder2_batc (None, 63, 128)      512         decoder1_upsample_decoder2_activa
__________________________________________________________________________________________________
decoder1_upsample_encoder3_batc (None, 63, 128)      512         decoder1_upsample_encoder3_activa
__________________________________________________________________________________________________
decoder1_carry_encoder1_batchno (None, 63, 128)      512         decoder1_carry_encoder1_activatio
__________________________________________________________________________________________________
decoder1_downsample_encoder0_ba (None, 63, 128)      512         decoder1_downsample_encoder0_acti
__________________________________________________________________________________________________
decoder1_concat (Concatenate)   (None, 63, 512)      0           decoder1_upsample_decoder2_batchn
                                                                 decoder1_upsample_encoder3_batchn
                                                                 decoder1_carry_encoder1_batchnorm
                                                                 decoder1_downsample_encoder0_batc
__________________________________________________________________________________________________
decoder1_conv0 (Conv1D)         (None, 63, 512)      786944      decoder1_concat[0][0]            
__________________________________________________________________________________________________
decoder1_conv0_activation (Leak (None, 63, 512)      0           decoder1_conv0[0][0]             
__________________________________________________________________________________________________
decoder1_conv0_batchnorm (Batch (None, 63, 512)      2048        decoder1_conv0_activation[0][0]  
__________________________________________________________________________________________________
decoder0_upsample_decoder1 (UpS (None, 126, 512)     0           decoder1_conv0_batchnorm[0][0]   
__________________________________________________________________________________________________
decoder0_upsample_decoder2 (UpS (None, 124, 512)     0           decoder2_conv0_batchnorm[0][0]   
__________________________________________________________________________________________________
decoder0_upsample_encoder3 (UpS (None, 120, 1024)    0           encoder3_conv0_batchnorm[0][0]   
__________________________________________________________________________________________________
flatten_5 (Flatten)             (None, 15360)        0           encoder3_conv0_batchnorm[0][0]   
__________________________________________________________________________________________________
decoder0_upsample_decoder1_padd (None, 127, 512)     0           decoder0_upsample_decoder1[0][0] 
__________________________________________________________________________________________________
decoder0_upsample_decoder2_padd (None, 127, 512)     0           decoder0_upsample_decoder2[0][0] 
__________________________________________________________________________________________________
decoder0_upsample_encoder3_padd (None, 127, 1024)    0           decoder0_upsample_encoder3[0][0] 
__________________________________________________________________________________________________
dense_20 (Dense)                (None, 1641)         25207401    flatten_5[0][0]                  
__________________________________________________________________________________________________
decoder0_upsample_decoder1_conv (None, 127, 128)     196736      decoder0_upsample_decoder1_paddin
__________________________________________________________________________________________________
decoder0_upsample_decoder2_conv (None, 127, 128)     196736      decoder0_upsample_decoder2_paddin
__________________________________________________________________________________________________
decoder0_upsample_encoder3_conv (None, 127, 128)     393344      decoder0_upsample_encoder3_paddin
__________________________________________________________________________________________________
decoder0_carry_encoder0_conv (C (None, 127, 128)     49280       encoder0_conv0_batchnorm[0][0]   
__________________________________________________________________________________________________
leaky_re_lu_15 (LeakyReLU)      (None, 1641)         0           dense_20[0][0]                   
__________________________________________________________________________________________________
decoder0_upsample_decoder1_acti (None, 127, 128)     0           decoder0_upsample_decoder1_conv[0
__________________________________________________________________________________________________
decoder0_upsample_decoder2_acti (None, 127, 128)     0           decoder0_upsample_decoder2_conv[0
__________________________________________________________________________________________________
decoder0_upsample_encoder3_acti (None, 127, 128)     0           decoder0_upsample_encoder3_conv[0
__________________________________________________________________________________________________
decoder0_carry_encoder0_activat (None, 127, 128)     0           decoder0_carry_encoder0_conv[0][0
__________________________________________________________________________________________________
batch_normalization_15 (BatchNo (None, 1641)         6564        leaky_re_lu_15[0][0]             
__________________________________________________________________________________________________
decoder0_upsample_decoder1_batc (None, 127, 128)     512         decoder0_upsample_decoder1_activa
__________________________________________________________________________________________________
decoder0_upsample_decoder2_batc (None, 127, 128)     512         decoder0_upsample_decoder2_activa
__________________________________________________________________________________________________
decoder0_upsample_encoder3_batc (None, 127, 128)     512         decoder0_upsample_encoder3_activa
__________________________________________________________________________________________________
decoder0_carry_encoder0_batchno (None, 127, 128)     512         decoder0_carry_encoder0_activatio
__________________________________________________________________________________________________
dense_21 (Dense)                (None, 175)          287350      batch_normalization_15[0][0]     
__________________________________________________________________________________________________
decoder0_concat (Concatenate)   (None, 127, 512)     0           decoder0_upsample_decoder1_batchn
                                                                 decoder0_upsample_decoder2_batchn
                                                                 decoder0_upsample_encoder3_batchn
                                                                 decoder0_carry_encoder0_batchnorm
__________________________________________________________________________________________________
leaky_re_lu_16 (LeakyReLU)      (None, 175)          0           dense_21[0][0]                   
__________________________________________________________________________________________________
decoder0_conv0 (Conv1D)         (None, 127, 512)     786944      decoder0_concat[0][0]            
__________________________________________________________________________________________________
batch_normalization_16 (BatchNo (None, 175)          700         leaky_re_lu_16[0][0]             
__________________________________________________________________________________________________
decoder0_conv0_activation (Leak (None, 127, 512)     0           decoder0_conv0[0][0]             
__________________________________________________________________________________________________
dense_22 (Dense)                (None, 19)           3344        batch_normalization_16[0][0]     
__________________________________________________________________________________________________
deepsup1_upsampling (UpSampling (None, 126, 512)     0           decoder1_conv0_batchnorm[0][0]   
__________________________________________________________________________________________________
deepsup2_upsampling (UpSampling (None, 124, 512)     0           decoder2_conv0_batchnorm[0][0]   
__________________________________________________________________________________________________
deepsup3_upsampling (UpSampling (None, 120, 1024)    0           encoder3_conv0_batchnorm[0][0]   
__________________________________________________________________________________________________
decoder0_conv0_batchnorm (Batch (None, 127, 512)     2048        decoder0_conv0_activation[0][0]  
__________________________________________________________________________________________________
leaky_re_lu_17 (LeakyReLU)      (None, 19)           0           dense_22[0][0]                   
__________________________________________________________________________________________________
deepsup1_padding (ZeroPadding1D (None, 127, 512)     0           deepsup1_upsampling[0][0]        
__________________________________________________________________________________________________
deepsup2_padding (ZeroPadding1D (None, 127, 512)     0           deepsup2_upsampling[0][0]        
__________________________________________________________________________________________________
deepsup3_padding (ZeroPadding1D (None, 127, 1024)    0           deepsup3_upsampling[0][0]        
__________________________________________________________________________________________________
last_conv (Conv1D)              (None, 127, 1)       513         decoder0_conv0_batchnorm[0][0]   
__________________________________________________________________________________________________
batch_normalization_17 (BatchNo (None, 19)           76          leaky_re_lu_17[0][0]             
__________________________________________________________________________________________________
deepsup1_conv (Conv1D)          (None, 127, 1)       513         deepsup1_padding[0][0]           
__________________________________________________________________________________________________
deepsup2_conv (Conv1D)          (None, 127, 1)       513         deepsup2_padding[0][0]           
__________________________________________________________________________________________________
deepsup3_conv (Conv1D)          (None, 127, 1)       1025        deepsup3_padding[0][0]           
__________________________________________________________________________________________________
last_conv_activation (ReLU)     (None, 127, 1)       0           last_conv[0][0]                  
__________________________________________________________________________________________________
dense_23 (Dense)                (None, 2)            40          batch_normalization_17[0][0]     
__________________________________________________________________________________________________
deepsup1_activation (ReLU)      (None, 127, 1)       0           deepsup1_conv[0][0]              
__________________________________________________________________________________________________
deepsup2_activation (ReLU)      (None, 127, 1)       0           deepsup2_conv[0][0]              
__________________________________________________________________________________________________
deepsup3_activation (ReLU)      (None, 127, 1)       0           deepsup3_conv[0][0]              
__________________________________________________________________________________________________
conv_output (Lambda)            (None, 127, 1)       0           last_conv_activation[0][0]       
__________________________________________________________________________________________________
dense_output (ReLU)             (None, 2)            0           dense_23[0][0]                   
__________________________________________________________________________________________________
deepsup1_output (Lambda)        (None, 127, 1)       0           deepsup1_activation[0][0]        
__________________________________________________________________________________________________
deepsup2_output (Lambda)        (None, 127, 1)       0           deepsup2_activation[0][0]        
__________________________________________________________________________________________________
deepsup3_output (Lambda)        (None, 127, 1)       0           deepsup3_activation[0][0]        
==================================================================================================
Total params: 32,276,807
Trainable params: 32,263,153
Non-trainable params: 13,654
__________________________________________________________________________________________________
Writing model to: "/scratch1/RDARCH/rda-ghpcs/Ryan.Lagerquist/ml4rt_models/2022paper_experiment_sw_plusplusplus_deep/templates/depth=3_num-conv-layers-per-block=1_num-first-layer-channels=128/model.h5"...
Writing metadata to: "/scratch1/RDARCH/rda-ghpcs/Ryan.Lagerquist/ml4rt_models/2022paper_experiment_sw_plusplusplus_deep/templates/depth=3_num-conv-layers-per-block=1_num-first-layer-channels=128/model_metadata.dill"...
Model: "model_6"
__________________________________________________________________________________________________
Layer (type)                    Output Shape         Param #     Connected to                     
==================================================================================================
input_7 (InputLayer)            [(None, 127, 26)]    0                                            
__________________________________________________________________________________________________
encoder0_conv0 (Conv1D)         (None, 127, 4)       316         input_7[0][0]                    
__________________________________________________________________________________________________
encoder0_conv0_activation (Leak (None, 127, 4)       0           encoder0_conv0[0][0]             
__________________________________________________________________________________________________
encoder0_conv0_batchnorm (Batch (None, 127, 4)       16          encoder0_conv0_activation[0][0]  
__________________________________________________________________________________________________
encoder0_conv1 (Conv1D)         (None, 127, 4)       52          encoder0_conv0_batchnorm[0][0]   
__________________________________________________________________________________________________
encoder0_conv1_activation (Leak (None, 127, 4)       0           encoder0_conv1[0][0]             
__________________________________________________________________________________________________
encoder0_conv1_batchnorm (Batch (None, 127, 4)       16          encoder0_conv1_activation[0][0]  
__________________________________________________________________________________________________
encoder0_pooling (MaxPooling1D) (None, 63, 4)        0           encoder0_conv1_batchnorm[0][0]   
__________________________________________________________________________________________________
encoder1_conv0 (Conv1D)         (None, 63, 8)        104         encoder0_pooling[0][0]           
__________________________________________________________________________________________________
encoder1_conv0_activation (Leak (None, 63, 8)        0           encoder1_conv0[0][0]             
__________________________________________________________________________________________________
encoder1_conv0_batchnorm (Batch (None, 63, 8)        32          encoder1_conv0_activation[0][0]  
__________________________________________________________________________________________________
encoder1_conv1 (Conv1D)         (None, 63, 8)        200         encoder1_conv0_batchnorm[0][0]   
__________________________________________________________________________________________________
encoder1_conv1_activation (Leak (None, 63, 8)        0           encoder1_conv1[0][0]             
__________________________________________________________________________________________________
encoder1_conv1_batchnorm (Batch (None, 63, 8)        32          encoder1_conv1_activation[0][0]  
__________________________________________________________________________________________________
encoder1_pooling (MaxPooling1D) (None, 31, 8)        0           encoder1_conv1_batchnorm[0][0]   
__________________________________________________________________________________________________
encoder2_conv0 (Conv1D)         (None, 31, 16)       400         encoder1_pooling[0][0]           
__________________________________________________________________________________________________
encoder2_conv0_activation (Leak (None, 31, 16)       0           encoder2_conv0[0][0]             
__________________________________________________________________________________________________
encoder2_conv0_batchnorm (Batch (None, 31, 16)       64          encoder2_conv0_activation[0][0]  
__________________________________________________________________________________________________
encoder2_conv1 (Conv1D)         (None, 31, 16)       784         encoder2_conv0_batchnorm[0][0]   
__________________________________________________________________________________________________
encoder2_conv1_activation (Leak (None, 31, 16)       0           encoder2_conv1[0][0]             
__________________________________________________________________________________________________
encoder2_conv1_batchnorm (Batch (None, 31, 16)       64          encoder2_conv1_activation[0][0]  
__________________________________________________________________________________________________
encoder2_pooling (MaxPooling1D) (None, 15, 16)       0           encoder2_conv1_batchnorm[0][0]   
__________________________________________________________________________________________________
encoder3_conv0 (Conv1D)         (None, 15, 32)       1568        encoder2_pooling[0][0]           
__________________________________________________________________________________________________
encoder3_conv0_activation (Leak (None, 15, 32)       0           encoder3_conv0[0][0]             
__________________________________________________________________________________________________
encoder3_conv0_batchnorm (Batch (None, 15, 32)       128         encoder3_conv0_activation[0][0]  
__________________________________________________________________________________________________
encoder3_conv1 (Conv1D)         (None, 15, 32)       3104        encoder3_conv0_batchnorm[0][0]   
__________________________________________________________________________________________________
encoder3_conv1_activation (Leak (None, 15, 32)       0           encoder3_conv1[0][0]             
__________________________________________________________________________________________________
encoder3_conv1_batchnorm (Batch (None, 15, 32)       128         encoder3_conv1_activation[0][0]  
__________________________________________________________________________________________________
decoder2_upsample_encoder3 (UpS (None, 30, 32)       0           encoder3_conv1_batchnorm[0][0]   
__________________________________________________________________________________________________
decoder2_upsample_encoder3_padd (None, 31, 32)       0           decoder2_upsample_encoder3[0][0] 
__________________________________________________________________________________________________
decoder2_downsample_encoder0_po (None, 31, 4)        0           encoder0_conv1_batchnorm[0][0]   
__________________________________________________________________________________________________
decoder2_downsample_encoder1_po (None, 31, 8)        0           encoder1_conv1_batchnorm[0][0]   
__________________________________________________________________________________________________
decoder2_upsample_encoder3_conv (None, 31, 4)        388         decoder2_upsample_encoder3_paddin
__________________________________________________________________________________________________
decoder2_carry_encoder2_conv (C (None, 31, 4)        196         encoder2_conv1_batchnorm[0][0]   
__________________________________________________________________________________________________
decoder2_downsample_encoder0_co (None, 31, 4)        52          decoder2_downsample_encoder0_pool
__________________________________________________________________________________________________
decoder2_downsample_encoder1_co (None, 31, 4)        100         decoder2_downsample_encoder1_pool
__________________________________________________________________________________________________
decoder2_upsample_encoder3_acti (None, 31, 4)        0           decoder2_upsample_encoder3_conv[0
__________________________________________________________________________________________________
decoder2_carry_encoder2_activat (None, 31, 4)        0           decoder2_carry_encoder2_conv[0][0
__________________________________________________________________________________________________
decoder2_downsample_encoder0_ac (None, 31, 4)        0           decoder2_downsample_encoder0_conv
__________________________________________________________________________________________________
decoder2_downsample_encoder1_ac (None, 31, 4)        0           decoder2_downsample_encoder1_conv
__________________________________________________________________________________________________
decoder2_upsample_encoder3_batc (None, 31, 4)        16          decoder2_upsample_encoder3_activa
__________________________________________________________________________________________________
decoder2_carry_encoder2_batchno (None, 31, 4)        16          decoder2_carry_encoder2_activatio
__________________________________________________________________________________________________
decoder2_downsample_encoder0_ba (None, 31, 4)        16          decoder2_downsample_encoder0_acti
__________________________________________________________________________________________________
decoder2_downsample_encoder1_ba (None, 31, 4)        16          decoder2_downsample_encoder1_acti
__________________________________________________________________________________________________
decoder2_concat (Concatenate)   (None, 31, 16)       0           decoder2_upsample_encoder3_batchn
                                                                 decoder2_carry_encoder2_batchnorm
                                                                 decoder2_downsample_encoder0_batc
                                                                 decoder2_downsample_encoder1_batc
__________________________________________________________________________________________________
…
__________________________________________________________________________________________________
encoder5_conv3 (Conv1D)         (None, 3, 4096)      50335744    encoder5_conv2_batchnorm[0][0]   
__________________________________________________________________________________________________
encoder5_conv3_activation (Leak (None, 3, 4096)      0           encoder5_conv3[0][0]             
__________________________________________________________________________________________________
encoder5_conv3_batchnorm (Batch (None, 3, 4096)      16384       encoder5_conv3_activation[0][0]  
__________________________________________________________________________________________________
decoder4_upsample_encoder5 (UpS (None, 6, 4096)      0           encoder5_conv3_batchnorm[0][0]   
__________________________________________________________________________________________________
decoder4_upsample_encoder5_padd (None, 7, 4096)      0           decoder4_upsample_encoder5[0][0] 
__________________________________________________________________________________________________
decoder4_downsample_encoder0_po (None, 7, 128)       0           encoder0_conv3_batchnorm[0][0]   
__________________________________________________________________________________________________
decoder4_downsample_encoder1_po (None, 7, 256)       0           encoder1_conv3_batchnorm[0][0]   
__________________________________________________________________________________________________
decoder4_downsample_encoder2_po (None, 7, 512)       0           encoder2_conv3_batchnorm[0][0]   
__________________________________________________________________________________________________
decoder4_downsample_encoder3_po (None, 7, 1024)      0           encoder3_conv3_batchnorm[0][0]   
__________________________________________________________________________________________________
decoder4_upsample_encoder5_conv (None, 7, 128)       1572992     decoder4_upsample_encoder5_paddin
__________________________________________________________________________________________________
decoder4_carry_encoder4_conv (C (None, 7, 128)       786560      encoder4_conv3_batchnorm[0][0]   
__________________________________________________________________________________________________
decoder4_downsample_encoder0_co (None, 7, 128)       49280       decoder4_downsample_encoder0_pool
__________________________________________________________________________________________________
decoder4_downsample_encoder1_co (None, 7, 128)       98432       decoder4_downsample_encoder1_pool
__________________________________________________________________________________________________
decoder4_downsample_encoder2_co (None, 7, 128)       196736      decoder4_downsample_encoder2_pool
__________________________________________________________________________________________________
decoder4_downsample_encoder3_co (None, 7, 128)       393344      decoder4_downsample_encoder3_pool
__________________________________________________________________________________________________
decoder4_upsample_encoder5_acti (None, 7, 128)       0           decoder4_upsample_encoder5_conv[0
__________________________________________________________________________________________________
decoder4_carry_encoder4_activat (None, 7, 128)       0           decoder4_carry_encoder4_conv[0][0
__________________________________________________________________________________________________
decoder4_downsample_encoder0_ac (None, 7, 128)       0           decoder4_downsample_encoder0_conv
__________________________________________________________________________________________________
decoder4_downsample_encoder1_ac (None, 7, 128)       0           decoder4_downsample_encoder1_conv
__________________________________________________________________________________________________
decoder4_downsample_encoder2_ac (None, 7, 128)       0           decoder4_downsample_encoder2_conv
__________________________________________________________________________________________________
decoder4_downsample_encoder3_ac (None, 7, 128)       0           decoder4_downsample_encoder3_conv
__________________________________________________________________________________________________
decoder4_upsample_encoder5_batc (None, 7, 128)       512         decoder4_upsample_encoder5_activa
__________________________________________________________________________________________________
decoder4_carry_encoder4_batchno (None, 7, 128)       512         decoder4_carry_encoder4_activatio
__________________________________________________________________________________________________
decoder4_downsample_encoder0_ba (None, 7, 128)       512         decoder4_downsample_encoder0_acti
__________________________________________________________________________________________________
decoder4_downsample_encoder1_ba (None, 7, 128)       512         decoder4_downsample_encoder1_acti
__________________________________________________________________________________________________
decoder4_downsample_encoder2_ba (None, 7, 128)       512         decoder4_downsample_encoder2_acti
__________________________________________________________________________________________________
decoder4_downsample_encoder3_ba (None, 7, 128)       512         decoder4_downsample_encoder3_acti
__________________________________________________________________________________________________
decoder4_concat (Concatenate)   (None, 7, 768)       0           decoder4_upsample_encoder5_batchn
                                                                 decoder4_carry_encoder4_batchnorm
                                                                 decoder4_downsample_encoder0_batc
                                                                 decoder4_downsample_encoder1_batc
                                                                 decoder4_downsample_encoder2_batc
                                                                 decoder4_downsample_encoder3_batc
__________________________________________________________________________________________________
decoder4_conv0 (Conv1D)         (None, 7, 768)       1770240     decoder4_concat[0][0]            
__________________________________________________________________________________________________
decoder4_conv0_activation (Leak (None, 7, 768)       0           decoder4_conv0[0][0]             
__________________________________________________________________________________________________
decoder4_conv0_batchnorm (Batch (None, 7, 768)       3072        decoder4_conv0_activation[0][0]  
__________________________________________________________________________________________________
decoder4_conv1 (Conv1D)         (None, 7, 768)       1770240     decoder4_conv0_batchnorm[0][0]   
__________________________________________________________________________________________________
decoder4_conv1_activation (Leak (None, 7, 768)       0           decoder4_conv1[0][0]             
__________________________________________________________________________________________________
decoder4_conv1_batchnorm (Batch (None, 7, 768)       3072        decoder4_conv1_activation[0][0]  
__________________________________________________________________________________________________
decoder4_conv2 (Conv1D)         (None, 7, 768)       1770240     decoder4_conv1_batchnorm[0][0]   
__________________________________________________________________________________________________
decoder4_conv2_activation (Leak (None, 7, 768)       0           decoder4_conv2[0][0]             
__________________________________________________________________________________________________
decoder4_conv2_batchnorm (Batch (None, 7, 768)       3072        decoder4_conv2_activation[0][0]  
__________________________________________________________________________________________________
decoder4_conv3 (Conv1D)         (None, 7, 768)       1770240     decoder4_conv2_batchnorm[0][0]   
__________________________________________________________________________________________________
decoder4_conv3_activation (Leak (None, 7, 768)       0           decoder4_conv3[0][0]             
__________________________________________________________________________________________________
decoder4_conv3_batchnorm (Batch (None, 7, 768)       3072        decoder4_conv3_activation[0][0]  
__________________________________________________________________________________________________
decoder3_upsample_decoder4 (UpS (None, 14, 768)      0           decoder4_conv3_batchnorm[0][0]   
__________________________________________________________________________________________________
decoder3_upsample_encoder5 (UpS (None, 12, 4096)     0           encoder5_conv3_batchnorm[0][0]   
__________________________________________________________________________________________________
decoder3_upsample_decoder4_padd (None, 15, 768)      0           decoder3_upsample_decoder4[0][0] 
__________________________________________________________________________________________________
decoder3_upsample_encoder5_padd (None, 15, 4096)     0           decoder3_upsample_encoder5[0][0] 
__________________________________________________________________________________________________
decoder3_downsample_encoder0_po (None, 15, 128)      0           encoder0_conv3_batchnorm[0][0]   
__________________________________________________________________________________________________
decoder3_downsample_encoder1_po (None, 15, 256)      0           encoder1_conv3_batchnorm[0][0]   
__________________________________________________________________________________________________
decoder3_downsample_encoder2_po (None, 15, 512)      0           encoder2_conv3_batchnorm[0][0]   
__________________________________________________________________________________________________
decoder3_upsample_decoder4_conv (None, 15, 128)      295040      decoder3_upsample_decoder4_paddin
__________________________________________________________________________________________________
decoder3_upsample_encoder5_conv (None, 15, 128)      1572992     decoder3_upsample_encoder5_paddin
__________________________________________________________________________________________________
decoder3_carry_encoder3_conv (C (None, 15, 128)      393344      encoder3_conv3_batchnorm[0][0]   
__________________________________________________________________________________________________
decoder3_downsample_encoder0_co (None, 15, 128)      49280       decoder3_downsample_encoder0_pool
__________________________________________________________________________________________________
decoder3_downsample_encoder1_co (None, 15, 128)      98432       decoder3_downsample_encoder1_pool
__________________________________________________________________________________________________
decoder3_downsample_encoder2_co (None, 15, 128)      196736      decoder3_downsample_encoder2_pool
__________________________________________________________________________________________________
decoder3_upsample_decoder4_acti (None, 15, 128)      0           decoder3_upsample_decoder4_conv[0
__________________________________________________________________________________________________
decoder3_upsample_encoder5_acti (None, 15, 128)      0           decoder3_upsample_encoder5_conv[0
__________________________________________________________________________________________________
decoder3_carry_encoder3_activat (None, 15, 128)      0           decoder3_carry_encoder3_conv[0][0
__________________________________________________________________________________________________
decoder3_downsample_encoder0_ac (None, 15, 128)      0           decoder3_downsample_encoder0_conv
__________________________________________________________________________________________________
decoder3_downsample_encoder1_ac (None, 15, 128)      0           decoder3_downsample_encoder1_conv
__________________________________________________________________________________________________
decoder3_downsample_encoder2_ac (None, 15, 128)      0           decoder3_downsample_encoder2_conv
__________________________________________________________________________________________________
decoder3_upsample_decoder4_batc (None, 15, 128)      512         decoder3_upsample_decoder4_activa
__________________________________________________________________________________________________
decoder3_upsample_encoder5_batc (None, 15, 128)      512         decoder3_upsample_encoder5_activa
__________________________________________________________________________________________________
decoder3_carry_encoder3_batchno (None, 15, 128)      512         decoder3_carry_encoder3_activatio
__________________________________________________________________________________________________
decoder3_downsample_encoder0_ba (None, 15, 128)      512         decoder3_downsample_encoder0_acti
__________________________________________________________________________________________________
decoder3_downsample_encoder1_ba (None, 15, 128)      512         decoder3_downsample_encoder1_acti
__________________________________________________________________________________________________
decoder3_downsample_encoder2_ba (None, 15, 128)      512         decoder3_downsample_encoder2_acti
__________________________________________________________________________________________________
decoder3_concat (Concatenate)   (None, 15, 768)      0           decoder3_upsample_decoder4_batchn
                                                                 decoder3_upsample_encoder5_batchn
                                                                 decoder3_carry_encoder3_batchnorm
                                                                 decoder3_downsample_encoder0_batc
                                                                 decoder3_downsample_encoder1_batc
                                                                 decoder3_downsample_encoder2_batc
__________________________________________________________________________________________________
decoder3_conv0 (Conv1D)         (None, 15, 768)      1770240     decoder3_concat[0][0]            
__________________________________________________________________________________________________
decoder3_conv0_activation (Leak (None, 15, 768)      0           decoder3_conv0[0][0]             
__________________________________________________________________________________________________
decoder3_conv0_batchnorm (Batch (None, 15, 768)      3072        decoder3_conv0_activation[0][0]  
__________________________________________________________________________________________________
decoder3_conv1 (Conv1D)         (None, 15, 768)      1770240     decoder3_conv0_batchnorm[0][0]   
__________________________________________________________________________________________________
decoder3_conv1_activation (Leak (None, 15, 768)      0           decoder3_conv1[0][0]             
__________________________________________________________________________________________________
decoder3_conv1_batchnorm (Batch (None, 15, 768)      3072        decoder3_conv1_activation[0][0]  
__________________________________________________________________________________________________
decoder3_conv2 (Conv1D)         (None, 15, 768)      1770240     decoder3_conv1_batchnorm[0][0]   
__________________________________________________________________________________________________
decoder3_conv2_activation (Leak (None, 15, 768)      0           decoder3_conv2[0][0]             
__________________________________________________________________________________________________
decoder3_conv2_batchnorm (Batch (None, 15, 768)      3072        decoder3_conv2_activation[0][0]  
__________________________________________________________________________________________________
decoder3_conv3 (Conv1D)         (None, 15, 768)      1770240     decoder3_conv2_batchnorm[0][0]   
__________________________________________________________________________________________________
decoder3_conv3_activation (Leak (None, 15, 768)      0           decoder3_conv3[0][0]             
__________________________________________________________________________________________________
decoder3_conv3_batchnorm (Batch (None, 15, 768)      3072        decoder3_conv3_activation[0][0]  
__________________________________________________________________________________________________
decoder2_upsample_decoder3 (UpS (None, 30, 768)      0           decoder3_conv3_batchnorm[0][0]   
__________________________________________________________________________________________________
decoder2_upsample_decoder4 (UpS (None, 28, 768)      0           decoder4_conv3_batchnorm[0][0]   
__________________________________________________________________________________________________
decoder2_upsample_encoder5 (UpS (None, 24, 4096)     0           encoder5_conv3_batchnorm[0][0]   
__________________________________________________________________________________________________
decoder2_upsample_decoder3_padd (None, 31, 768)      0           decoder2_upsample_decoder3[0][0] 
__________________________________________________________________________________________________
decoder2_upsample_decoder4_padd (None, 31, 768)      0           decoder2_upsample_decoder4[0][0] 
__________________________________________________________________________________________________
decoder2_upsample_encoder5_padd (None, 31, 4096)     0           decoder2_upsample_encoder5[0][0] 
__________________________________________________________________________________________________
decoder2_downsample_encoder0_po (None, 31, 128)      0           encoder0_conv3_batchnorm[0][0]   
__________________________________________________________________________________________________
decoder2_downsample_encoder1_po (None, 31, 256)      0           encoder1_conv3_batchnorm[0][0]   
__________________________________________________________________________________________________
decoder2_upsample_decoder3_conv (None, 31, 128)      295040      decoder2_upsample_decoder3_paddin
__________________________________________________________________________________________________
decoder2_upsample_decoder4_conv (None, 31, 128)      295040      decoder2_upsample_decoder4_paddin
__________________________________________________________________________________________________
decoder2_upsample_encoder5_conv (None, 31, 128)      1572992     decoder2_upsample_encoder5_paddin
__________________________________________________________________________________________________
decoder2_carry_encoder2_conv (C (None, 31, 128)      196736      encoder2_conv3_batchnorm[0][0]   
__________________________________________________________________________________________________
decoder2_downsample_encoder0_co (None, 31, 128)      49280       decoder2_downsample_encoder0_pool
__________________________________________________________________________________________________
decoder2_downsample_encoder1_co (None, 31, 128)      98432       decoder2_downsample_encoder1_pool
__________________________________________________________________________________________________
decoder2_upsample_decoder3_acti (None, 31, 128)      0           decoder2_upsample_decoder3_conv[0
__________________________________________________________________________________________________
decoder2_upsample_decoder4_acti (None, 31, 128)      0           decoder2_upsample_decoder4_conv[0
__________________________________________________________________________________________________
decoder2_upsample_encoder5_acti (None, 31, 128)      0           decoder2_upsample_encoder5_conv[0
__________________________________________________________________________________________________
decoder2_carry_encoder2_activat (None, 31, 128)      0           decoder2_carry_encoder2_conv[0][0
__________________________________________________________________________________________________
decoder2_downsample_encoder0_ac (None, 31, 128)      0           decoder2_downsample_encoder0_conv
__________________________________________________________________________________________________
decoder2_downsample_encoder1_ac (None, 31, 128)      0           decoder2_downsample_encoder1_conv
__________________________________________________________________________________________________
decoder2_upsample_decoder3_batc (None, 31, 128)      512         decoder2_upsample_decoder3_activa
__________________________________________________________________________________________________
decoder2_upsample_decoder4_batc (None, 31, 128)      512         decoder2_upsample_decoder4_activa
__________________________________________________________________________________________________
decoder2_upsample_encoder5_batc (None, 31, 128)      512         decoder2_upsample_encoder5_activa
__________________________________________________________________________________________________
decoder2_carry_encoder2_batchno (None, 31, 128)      512         decoder2_carry_encoder2_activatio
__________________________________________________________________________________________________
decoder2_downsample_encoder0_ba (None, 31, 128)      512         decoder2_downsample_encoder0_acti
__________________________________________________________________________________________________
decoder2_downsample_encoder1_ba (None, 31, 128)      512         decoder2_downsample_encoder1_acti
__________________________________________________________________________________________________
decoder2_concat (Concatenate)   (None, 31, 768)      0           decoder2_upsample_decoder3_batchn
                                                                 decoder2_upsample_decoder4_batchn
                                                                 decoder2_upsample_encoder5_batchn
                                                                 decoder2_carry_encoder2_batchnorm
                                                                 decoder2_downsample_encoder0_batc
                                                                 decoder2_downsample_encoder1_batc
__________________________________________________________________________________________________
decoder2_conv0 (Conv1D)         (None, 31, 768)      1770240     decoder2_concat[0][0]            
__________________________________________________________________________________________________
decoder2_conv0_activation (Leak (None, 31, 768)      0           decoder2_conv0[0][0]             
__________________________________________________________________________________________________
decoder2_conv0_batchnorm (Batch (None, 31, 768)      3072        decoder2_conv0_activation[0][0]  
__________________________________________________________________________________________________
decoder2_conv1 (Conv1D)         (None, 31, 768)      1770240     decoder2_conv0_batchnorm[0][0]   
__________________________________________________________________________________________________
decoder2_conv1_activation (Leak (None, 31, 768)      0           decoder2_conv1[0][0]             
__________________________________________________________________________________________________
decoder2_conv1_batchnorm (Batch (None, 31, 768)      3072        decoder2_conv1_activation[0][0]  
__________________________________________________________________________________________________
decoder2_conv2 (Conv1D)         (None, 31, 768)      1770240     decoder2_conv1_batchnorm[0][0]   
__________________________________________________________________________________________________
decoder2_conv2_activation (Leak (None, 31, 768)      0           decoder2_conv2[0][0]             
__________________________________________________________________________________________________
decoder2_conv2_batchnorm (Batch (None, 31, 768)      3072        decoder2_conv2_activation[0][0]  
__________________________________________________________________________________________________
decoder2_conv3 (Conv1D)         (None, 31, 768)      1770240     decoder2_conv2_batchnorm[0][0]   
__________________________________________________________________________________________________
decoder2_conv3_activation (Leak (None, 31, 768)      0           decoder2_conv3[0][0]             
__________________________________________________________________________________________________
decoder2_conv3_batchnorm (Batch (None, 31, 768)      3072        decoder2_conv3_activation[0][0]  
__________________________________________________________________________________________________
decoder1_upsample_decoder2 (UpS (None, 62, 768)      0           decoder2_conv3_batchnorm[0][0]   
__________________________________________________________________________________________________
decoder1_upsample_decoder3 (UpS (None, 60, 768)      0           decoder3_conv3_batchnorm[0][0]   
__________________________________________________________________________________________________
decoder1_upsample_decoder4 (UpS (None, 56, 768)      0           decoder4_conv3_batchnorm[0][0]   
__________________________________________________________________________________________________
decoder1_upsample_encoder5 (UpS (None, 48, 4096)     0           encoder5_conv3_batchnorm[0][0]   
__________________________________________________________________________________________________
decoder1_upsample_decoder2_padd (None, 63, 768)      0           decoder1_upsample_decoder2[0][0] 
__________________________________________________________________________________________________
decoder1_upsample_decoder3_padd (None, 63, 768)      0           decoder1_upsample_decoder3[0][0] 
__________________________________________________________________________________________________
decoder1_upsample_decoder4_padd (None, 63, 768)      0           decoder1_upsample_decoder4[0][0] 
__________________________________________________________________________________________________
decoder1_upsample_encoder5_padd (None, 63, 4096)     0           decoder1_upsample_encoder5[0][0] 
__________________________________________________________________________________________________
decoder1_downsample_encoder0_po (None, 63, 128)      0           encoder0_conv3_batchnorm[0][0]   
__________________________________________________________________________________________________
decoder1_upsample_decoder2_conv (None, 63, 128)      295040      decoder1_upsample_decoder2_paddin
__________________________________________________________________________________________________
decoder1_upsample_decoder3_conv (None, 63, 128)      295040      decoder1_upsample_decoder3_paddin
__________________________________________________________________________________________________
decoder1_upsample_decoder4_conv (None, 63, 128)      295040      decoder1_upsample_decoder4_paddin
__________________________________________________________________________________________________
decoder1_upsample_encoder5_conv (None, 63, 128)      1572992     decoder1_upsample_encoder5_paddin
__________________________________________________________________________________________________
decoder1_carry_encoder1_conv (C (None, 63, 128)      98432       encoder1_conv3_batchnorm[0][0]   
__________________________________________________________________________________________________
decoder1_downsample_encoder0_co (None, 63, 128)      49280       decoder1_downsample_encoder0_pool
__________________________________________________________________________________________________
decoder1_upsample_decoder2_acti (None, 63, 128)      0           decoder1_upsample_decoder2_conv[0
__________________________________________________________________________________________________
decoder1_upsample_decoder3_acti (None, 63, 128)      0           decoder1_upsample_decoder3_conv[0
__________________________________________________________________________________________________
decoder1_upsample_decoder4_acti (None, 63, 128)      0           decoder1_upsample_decoder4_conv[0
__________________________________________________________________________________________________
decoder1_upsample_encoder5_acti (None, 63, 128)      0           decoder1_upsample_encoder5_conv[0
__________________________________________________________________________________________________
decoder1_carry_encoder1_activat (None, 63, 128)      0           decoder1_carry_encoder1_conv[0][0
__________________________________________________________________________________________________
decoder1_downsample_encoder0_ac (None, 63, 128)      0           decoder1_downsample_encoder0_conv
__________________________________________________________________________________________________
decoder1_upsample_decoder2_batc (None, 63, 128)      512         decoder1_upsample_decoder2_activa
__________________________________________________________________________________________________
decoder1_upsample_decoder3_batc (None, 63, 128)      512         decoder1_upsample_decoder3_activa
__________________________________________________________________________________________________
decoder1_upsample_decoder4_batc (None, 63, 128)      512         decoder1_upsample_decoder4_activa
__________________________________________________________________________________________________
decoder1_upsample_encoder5_batc (None, 63, 128)      512         decoder1_upsample_encoder5_activa
__________________________________________________________________________________________________
decoder1_carry_encoder1_batchno (None, 63, 128)      512         decoder1_carry_encoder1_activatio
__________________________________________________________________________________________________
decoder1_downsample_encoder0_ba (None, 63, 128)      512         decoder1_downsample_encoder0_acti
__________________________________________________________________________________________________
decoder1_concat (Concatenate)   (None, 63, 768)      0           decoder1_upsample_decoder2_batchn
                                                                 decoder1_upsample_decoder3_batchn
                                                                 decoder1_upsample_decoder4_batchn
                                                                 decoder1_upsample_encoder5_batchn
                                                                 decoder1_carry_encoder1_batchnorm
                                                                 decoder1_downsample_encoder0_batc
__________________________________________________________________________________________________
decoder1_conv0 (Conv1D)         (None, 63, 768)      1770240     decoder1_concat[0][0]            
__________________________________________________________________________________________________
decoder1_conv0_activation (Leak (None, 63, 768)      0           decoder1_conv0[0][0]             
__________________________________________________________________________________________________
decoder1_conv0_batchnorm (Batch (None, 63, 768)      3072        decoder1_conv0_activation[0][0]  
__________________________________________________________________________________________________
decoder1_conv1 (Conv1D)         (None, 63, 768)      1770240     decoder1_conv0_batchnorm[0][0]   
__________________________________________________________________________________________________
decoder1_conv1_activation (Leak (None, 63, 768)      0           decoder1_conv1[0][0]             
__________________________________________________________________________________________________
decoder1_conv1_batchnorm (Batch (None, 63, 768)      3072        decoder1_conv1_activation[0][0]  
__________________________________________________________________________________________________
decoder1_conv2 (Conv1D)         (None, 63, 768)      1770240     decoder1_conv1_batchnorm[0][0]   
__________________________________________________________________________________________________
decoder1_conv2_activation (Leak (None, 63, 768)      0           decoder1_conv2[0][0]             
__________________________________________________________________________________________________
decoder1_conv2_batchnorm (Batch (None, 63, 768)      3072        decoder1_conv2_activation[0][0]  
__________________________________________________________________________________________________
decoder1_conv3 (Conv1D)         (None, 63, 768)      1770240     decoder1_conv2_batchnorm[0][0]   
__________________________________________________________________________________________________
decoder1_conv3_activation (Leak (None, 63, 768)      0           decoder1_conv3[0][0]             
__________________________________________________________________________________________________
decoder1_conv3_batchnorm (Batch (None, 63, 768)      3072        decoder1_conv3_activation[0][0]  
__________________________________________________________________________________________________
decoder0_upsample_decoder1 (UpS (None, 126, 768)     0           decoder1_conv3_batchnorm[0][0]   
__________________________________________________________________________________________________
decoder0_upsample_decoder2 (UpS (None, 124, 768)     0           decoder2_conv3_batchnorm[0][0]   
__________________________________________________________________________________________________
decoder0_upsample_decoder3 (UpS (None, 120, 768)     0           decoder3_conv3_batchnorm[0][0]   
__________________________________________________________________________________________________
decoder0_upsample_decoder4 (UpS (None, 112, 768)     0           decoder4_conv3_batchnorm[0][0]   
__________________________________________________________________________________________________
decoder0_upsample_encoder5 (UpS (None, 96, 4096)     0           encoder5_conv3_batchnorm[0][0]   
__________________________________________________________________________________________________
decoder0_upsample_decoder1_padd (None, 127, 768)     0           decoder0_upsample_decoder1[0][0] 
__________________________________________________________________________________________________
decoder0_upsample_decoder2_padd (None, 127, 768)     0           decoder0_upsample_decoder2[0][0] 
__________________________________________________________________________________________________
decoder0_upsample_decoder3_padd (None, 127, 768)     0           decoder0_upsample_decoder3[0][0] 
__________________________________________________________________________________________________
decoder0_upsample_decoder4_padd (None, 127, 768)     0           decoder0_upsample_decoder4[0][0] 
__________________________________________________________________________________________________
decoder0_upsample_encoder5_padd (None, 127, 4096)    0           decoder0_upsample_encoder5[0][0] 
__________________________________________________________________________________________________
decoder0_upsample_decoder1_conv (None, 127, 128)     295040      decoder0_upsample_decoder1_paddin
__________________________________________________________________________________________________
decoder0_upsample_decoder2_conv (None, 127, 128)     295040      decoder0_upsample_decoder2_paddin
__________________________________________________________________________________________________
decoder0_upsample_decoder3_conv (None, 127, 128)     295040      decoder0_upsample_decoder3_paddin
__________________________________________________________________________________________________
decoder0_upsample_decoder4_conv (None, 127, 128)     295040      decoder0_upsample_decoder4_paddin
__________________________________________________________________________________________________
decoder0_upsample_encoder5_conv (None, 127, 128)     1572992     decoder0_upsample_encoder5_paddin
__________________________________________________________________________________________________
decoder0_carry_encoder0_conv (C (None, 127, 128)     49280       encoder0_conv3_batchnorm[0][0]   
__________________________________________________________________________________________________
decoder0_upsample_decoder1_acti (None, 127, 128)     0           decoder0_upsample_decoder1_conv[0
__________________________________________________________________________________________________
decoder0_upsample_decoder2_acti (None, 127, 128)     0           decoder0_upsample_decoder2_conv[0
__________________________________________________________________________________________________
decoder0_upsample_decoder3_acti (None, 127, 128)     0           decoder0_upsample_decoder3_conv[0
__________________________________________________________________________________________________
decoder0_upsample_decoder4_acti (None, 127, 128)     0           decoder0_upsample_decoder4_conv[0
__________________________________________________________________________________________________
decoder0_upsample_encoder5_acti (None, 127, 128)     0           decoder0_upsample_encoder5_conv[0
__________________________________________________________________________________________________
decoder0_carry_encoder0_activat (None, 127, 128)     0           decoder0_carry_encoder0_conv[0][0
__________________________________________________________________________________________________
decoder0_upsample_decoder1_batc (None, 127, 128)     512         decoder0_upsample_decoder1_activa
__________________________________________________________________________________________________
decoder0_upsample_decoder2_batc (None, 127, 128)     512         decoder0_upsample_decoder2_activa
__________________________________________________________________________________________________
decoder0_upsample_decoder3_batc (None, 127, 128)     512         decoder0_upsample_decoder3_activa
__________________________________________________________________________________________________
decoder0_upsample_decoder4_batc (None, 127, 128)     512         decoder0_upsample_decoder4_activa
__________________________________________________________________________________________________
decoder0_upsample_encoder5_batc (None, 127, 128)     512         decoder0_upsample_encoder5_activa
__________________________________________________________________________________________________
decoder0_carry_encoder0_batchno (None, 127, 128)     512         decoder0_carry_encoder0_activatio
__________________________________________________________________________________________________
decoder0_concat (Concatenate)   (None, 127, 768)     0           decoder0_upsample_decoder1_batchn
                                                                 decoder0_upsample_decoder2_batchn
                                                                 decoder0_upsample_decoder3_batchn
                                                                 decoder0_upsample_decoder4_batchn
                                                                 decoder0_upsample_encoder5_batchn
                                                                 decoder0_carry_encoder0_batchnorm
__________________________________________________________________________________________________
decoder0_conv0 (Conv1D)         (None, 127, 768)     1770240     decoder0_concat[0][0]            
__________________________________________________________________________________________________
decoder0_conv0_activation (Leak (None, 127, 768)     0           decoder0_conv0[0][0]             
__________________________________________________________________________________________________
decoder0_conv0_batchnorm (Batch (None, 127, 768)     3072        decoder0_conv0_activation[0][0]  
__________________________________________________________________________________________________
decoder0_conv1 (Conv1D)         (None, 127, 768)     1770240     decoder0_conv0_batchnorm[0][0]   
__________________________________________________________________________________________________
flatten_71 (Flatten)            (None, 12288)        0           encoder5_conv3_batchnorm[0][0]   
__________________________________________________________________________________________________
decoder0_conv1_activation (Leak (None, 127, 768)     0           decoder0_conv1[0][0]             
__________________________________________________________________________________________________
dense_284 (Dense)               (None, 1388)         17057132    flatten_71[0][0]                 
__________________________________________________________________________________________________
decoder0_conv1_batchnorm (Batch (None, 127, 768)     3072        decoder0_conv1_activation[0][0]  
__________________________________________________________________________________________________
leaky_re_lu_213 (LeakyReLU)     (None, 1388)         0           dense_284[0][0]                  
__________________________________________________________________________________________________
decoder0_conv2 (Conv1D)         (None, 127, 768)     1770240     decoder0_conv1_batchnorm[0][0]   
__________________________________________________________________________________________________
batch_normalization_213 (BatchN (None, 1388)         5552        leaky_re_lu_213[0][0]            
__________________________________________________________________________________________________
decoder0_conv2_activation (Leak (None, 127, 768)     0           decoder0_conv2[0][0]             
__________________________________________________________________________________________________
dense_285 (Dense)               (None, 157)          218073      batch_normalization_213[0][0]    
__________________________________________________________________________________________________
decoder0_conv2_batchnorm (Batch (None, 127, 768)     3072        decoder0_conv2_activation[0][0]  
__________________________________________________________________________________________________
leaky_re_lu_214 (LeakyReLU)     (None, 157)          0           dense_285[0][0]                  
__________________________________________________________________________________________________
decoder0_conv3 (Conv1D)         (None, 127, 768)     1770240     decoder0_conv2_batchnorm[0][0]   
__________________________________________________________________________________________________
batch_normalization_214 (BatchN (None, 157)          628         leaky_re_lu_214[0][0]            
__________________________________________________________________________________________________
decoder0_conv3_activation (Leak (None, 127, 768)     0           decoder0_conv3[0][0]             
__________________________________________________________________________________________________
dense_286 (Dense)               (None, 18)           2844        batch_normalization_214[0][0]    
__________________________________________________________________________________________________
deepsup1_upsampling (UpSampling (None, 126, 768)     0           decoder1_conv3_batchnorm[0][0]   
__________________________________________________________________________________________________
deepsup2_upsampling (UpSampling (None, 124, 768)     0           decoder2_conv3_batchnorm[0][0]   
__________________________________________________________________________________________________
deepsup3_upsampling (UpSampling (None, 120, 768)     0           decoder3_conv3_batchnorm[0][0]   
__________________________________________________________________________________________________
deepsup4_upsampling (UpSampling (None, 112, 768)     0           decoder4_conv3_batchnorm[0][0]   
__________________________________________________________________________________________________
deepsup5_upsampling (UpSampling (None, 96, 4096)     0           encoder5_conv3_batchnorm[0][0]   
__________________________________________________________________________________________________
decoder0_conv3_batchnorm (Batch (None, 127, 768)     3072        decoder0_conv3_activation[0][0]  
__________________________________________________________________________________________________
leaky_re_lu_215 (LeakyReLU)     (None, 18)           0           dense_286[0][0]                  
__________________________________________________________________________________________________
deepsup1_padding (ZeroPadding1D (None, 127, 768)     0           deepsup1_upsampling[0][0]        
__________________________________________________________________________________________________
deepsup2_padding (ZeroPadding1D (None, 127, 768)     0           deepsup2_upsampling[0][0]        
__________________________________________________________________________________________________
deepsup3_padding (ZeroPadding1D (None, 127, 768)     0           deepsup3_upsampling[0][0]        
__________________________________________________________________________________________________
deepsup4_padding (ZeroPadding1D (None, 127, 768)     0           deepsup4_upsampling[0][0]        
__________________________________________________________________________________________________
deepsup5_padding (ZeroPadding1D (None, 127, 4096)    0           deepsup5_upsampling[0][0]        
__________________________________________________________________________________________________
last_conv (Conv1D)              (None, 127, 1)       769         decoder0_conv3_batchnorm[0][0]   
__________________________________________________________________________________________________
batch_normalization_215 (BatchN (None, 18)           72          leaky_re_lu_215[0][0]            
__________________________________________________________________________________________________
deepsup1_conv (Conv1D)          (None, 127, 1)       769         deepsup1_padding[0][0]           
__________________________________________________________________________________________________
deepsup2_conv (Conv1D)          (None, 127, 1)       769         deepsup2_padding[0][0]           
__________________________________________________________________________________________________
deepsup3_conv (Conv1D)          (None, 127, 1)       769         deepsup3_padding[0][0]           
__________________________________________________________________________________________________
deepsup4_conv (Conv1D)          (None, 127, 1)       769         deepsup4_padding[0][0]           
__________________________________________________________________________________________________
deepsup5_conv (Conv1D)          (None, 127, 1)       4097        deepsup5_padding[0][0]           
__________________________________________________________________________________________________
last_conv_activation (ReLU)     (None, 127, 1)       0           last_conv[0][0]                  
__________________________________________________________________________________________________
dense_287 (Dense)               (None, 2)            38          batch_normalization_215[0][0]    
__________________________________________________________________________________________________
deepsup1_activation (ReLU)      (None, 127, 1)       0           deepsup1_conv[0][0]              
__________________________________________________________________________________________________
deepsup2_activation (ReLU)      (None, 127, 1)       0           deepsup2_conv[0][0]              
__________________________________________________________________________________________________
deepsup3_activation (ReLU)      (None, 127, 1)       0           deepsup3_conv[0][0]              
__________________________________________________________________________________________________
deepsup4_activation (ReLU)      (None, 127, 1)       0           deepsup4_conv[0][0]              
__________________________________________________________________________________________________
deepsup5_activation (ReLU)      (None, 127, 1)       0           deepsup5_conv[0][0]              
__________________________________________________________________________________________________
conv_output (Lambda)            (None, 127, 1)       0           last_conv_activation[0][0]       
__________________________________________________________________________________________________
dense_output (ReLU)             (None, 2)            0           dense_287[0][0]                  
__________________________________________________________________________________________________
deepsup1_output (Lambda)        (None, 127, 1)       0           deepsup1_activation[0][0]        
__________________________________________________________________________________________________
deepsup2_output (Lambda)        (None, 127, 1)       0           deepsup2_activation[0][0]        
__________________________________________________________________________________________________
deepsup3_output (Lambda)        (None, 127, 1)       0           deepsup3_activation[0][0]        
__________________________________________________________________________________________________
deepsup4_output (Lambda)        (None, 127, 1)       0           deepsup4_activation[0][0]        
__________________________________________________________________________________________________
deepsup5_output (Lambda)        (None, 127, 1)       0           deepsup5_activation[0][0]        
==================================================================================================
Total params: 301,363,193
Trainable params: 301,257,155
Non-trainable params: 106,038
__________________________________________________________________________________________________
Writing model to: "/scratch1/RDARCH/rda-ghpcs/Ryan.Lagerquist/ml4rt_models/2022paper_experiment_sw_plusplusplus_deep/templates/depth=5_num-conv-layers-per-block=4_num-first-layer-channels=128/model.h5"...
…
