…
2022-11-08 23:33:08.902417: I tensorflow/compiler/xla/service/service.cc:176]   StreamExecutor device (7): Tesla P100-PCIE-16GB, Compute Capability 6.0
Model: "model"
__________________________________________________________________________________________________
Layer (type)                    Output Shape         Param #     Connected to                     
==================================================================================================
input_1 (InputLayer)            [(None, 127, 26)]    0                                            
__________________________________________________________________________________________________
block0-0_conv0 (Conv1D)         (None, 127, 4)       316         input_1[0][0]                    
__________________________________________________________________________________________________
block0-0_conv0_activation (Leak (None, 127, 4)       0           block0-0_conv0[0][0]             
__________________________________________________________________________________________________
block0-0_conv0_bn (BatchNormali (None, 127, 4)       16          block0-0_conv0_activation[0][0]  
__________________________________________________________________________________________________
block0-0_pooling (MaxPooling1D) (None, 63, 4)        0           block0-0_conv0_bn[0][0]          
__________________________________________________________________________________________________
block1-0_conv0 (Conv1D)         (None, 63, 8)        104         block0-0_pooling[0][0]           
__________________________________________________________________________________________________
block1-0_conv0_activation (Leak (None, 63, 8)        0           block1-0_conv0[0][0]             
__________________________________________________________________________________________________
block1-0_conv0_bn (BatchNormali (None, 63, 8)        32          block1-0_conv0_activation[0][0]  
__________________________________________________________________________________________________
block1-0_pooling (MaxPooling1D) (None, 31, 8)        0           block1-0_conv0_bn[0][0]          
__________________________________________________________________________________________________
block2-0_conv0 (Conv1D)         (None, 31, 16)       400         block1-0_pooling[0][0]           
__________________________________________________________________________________________________
block2-0_conv0_activation (Leak (None, 31, 16)       0           block2-0_conv0[0][0]             
__________________________________________________________________________________________________
block2-0_conv0_bn (BatchNormali (None, 31, 16)       64          block2-0_conv0_activation[0][0]  
__________________________________________________________________________________________________
block2-0_pooling (MaxPooling1D) (None, 15, 16)       0           block2-0_conv0_bn[0][0]          
__________________________________________________________________________________________________
block3-0_conv0 (Conv1D)         (None, 15, 32)       1568        block2-0_pooling[0][0]           
__________________________________________________________________________________________________
block3-0_conv0_activation (Leak (None, 15, 32)       0           block3-0_conv0[0][0]             
__________________________________________________________________________________________________
block3-0_conv0_bn (BatchNormali (None, 15, 32)       128         block3-0_conv0_activation[0][0]  
__________________________________________________________________________________________________
block2-1_upsampling (UpSampling (None, 30, 32)       0           block3-0_conv0_bn[0][0]          
__________________________________________________________________________________________________
block2-1_upconv (Conv1D)        (None, 30, 16)       1552        block2-1_upsampling[0][0]        
__________________________________________________________________________________________________
block2-1_upconv_activation (Lea (None, 30, 16)       0           block2-1_upconv[0][0]            
__________________________________________________________________________________________________
block2-1_upconv_padding (ZeroPa (None, 31, 16)       0           block2-1_upconv_activation[0][0] 
__________________________________________________________________________________________________
block1-1_upsampling (UpSampling (None, 62, 16)       0           block2-0_conv0_bn[0][0]          
__________________________________________________________________________________________________
block2-1_skip (Concatenate)     (None, 31, 32)       0           block2-0_conv0_bn[0][0]          
                                                                 block2-1_upconv_padding[0][0]    
__________________________________________________________________________________________________
block1-1_upconv (Conv1D)        (None, 62, 8)        392         block1-1_upsampling[0][0]        
__________________________________________________________________________________________________
block2-1_skipconv0 (Conv1D)     (None, 31, 16)       1552        block2-1_skip[0][0]              
__________________________________________________________________________________________________
block1-1_upconv_activation (Lea (None, 62, 8)        0           block1-1_upconv[0][0]            
__________________________________________________________________________________________________
block2-1_skipconv0_activation ( (None, 31, 16)       0           block2-1_skipconv0[0][0]         
__________________________________________________________________________________________________
block1-1_upconv_padding (ZeroPa (None, 63, 8)        0           block1-1_upconv_activation[0][0] 
__________________________________________________________________________________________________
block2-1_skipconv0_bn (BatchNor (None, 31, 16)       64          block2-1_skipconv0_activation[0][
__________________________________________________________________________________________________
block0-1_upsampling (UpSampling (None, 126, 8)       0           block1-0_conv0_bn[0][0]          
__________________________________________________________________________________________________
block1-1_skip (Concatenate)     (None, 63, 16)       0           block1-0_conv0_bn[0][0]          
                                                                 block1-1_upconv_padding[0][0]    
__________________________________________________________________________________________________
block1-2_upsampling (UpSampling (None, 62, 16)       0           block2-1_skipconv0_bn[0][0]      
__________________________________________________________________________________________________
block0-1_upconv (Conv1D)        (None, 126, 4)       100         block0-1_upsampling[0][0]        
__________________________________________________________________________________________________
block1-1_skipconv0 (Conv1D)     (None, 63, 8)        392         block1-1_skip[0][0]              
__________________________________________________________________________________________________
block1-2_upconv (Conv1D)        (None, 62, 8)        392         block1-2_upsampling[0][0]        
__________________________________________________________________________________________________
block0-1_upconv_activation (Lea (None, 126, 4)       0           block0-1_upconv[0][0]            
__________________________________________________________________________________________________
block1-1_skipconv0_activation ( (None, 63, 8)        0           block1-1_skipconv0[0][0]         
__________________________________________________________________________________________________
block1-2_upconv_activation (Lea (None, 62, 8)        0           block1-2_upconv[0][0]            
__________________________________________________________________________________________________
block0-1_upconv_padding (ZeroPa (None, 127, 4)       0           block0-1_upconv_activation[0][0] 
__________________________________________________________________________________________________
block1-1_skipconv0_bn (BatchNor (None, 63, 8)        32          block1-1_skipconv0_activation[0][
__________________________________________________________________________________________________
block1-2_upconv_padding (ZeroPa (None, 63, 8)        0           block1-2_upconv_activation[0][0] 
__________________________________________________________________________________________________
block0-1_skip (Concatenate)     (None, 127, 8)       0           block0-0_conv0_bn[0][0]          
                                                                 block0-1_upconv_padding[0][0]    
__________________________________________________________________________________________________
block0-2_upsampling (UpSampling (None, 126, 8)       0           block1-1_skipconv0_bn[0][0]      
__________________________________________________________________________________________________
block1-2_skip (Concatenate)     (None, 63, 24)       0           block1-0_conv0_bn[0][0]          
                                                                 block1-1_skipconv0_bn[0][0]      
                                                                 block1-2_upconv_padding[0][0]    
__________________________________________________________________________________________________
block0-1_skipconv0 (Conv1D)     (None, 127, 4)       100         block0-1_skip[0][0]              
__________________________________________________________________________________________________
block0-2_upconv (Conv1D)        (None, 126, 4)       100         block0-2_upsampling[0][0]        
__________________________________________________________________________________________________
block1-2_skipconv0 (Conv1D)     (None, 63, 8)        584         block1-2_skip[0][0]              
__________________________________________________________________________________________________
block0-1_skipconv0_activation ( (None, 127, 4)       0           block0-1_skipconv0[0][0]         
__________________________________________________________________________________________________
block0-2_upconv_activation (Lea (None, 126, 4)       0           block0-2_upconv[0][0]            
__________________________________________________________________________________________________
block1-2_skipconv0_activation ( (None, 63, 8)        0           block1-2_skipconv0[0][0]         
__________________________________________________________________________________________________
block0-1_skipconv0_bn (BatchNor (None, 127, 4)       16          block0-1_skipconv0_activation[0][
__________________________________________________________________________________________________
block0-2_upconv_padding (ZeroPa (None, 127, 4)       0           block0-2_upconv_activation[0][0] 
__________________________________________________________________________________________________
block1-2_skipconv0_bn (BatchNor (None, 63, 8)        32          block1-2_skipconv0_activation[0][
__________________________________________________________________________________________________
flatten (Flatten)               (None, 480)          0           block3-0_conv0_bn[0][0]          
__________________________________________________________________________________________________
block0-2_skip (Concatenate)     (None, 127, 12)      0           block0-0_conv0_bn[0][0]          
                                                                 block0-1_skipconv0_bn[0][0]      
                                                                 block0-2_upconv_padding[0][0]    
__________________________________________________________________________________________________
block0-3_upsampling (UpSampling (None, 126, 8)       0           block1-2_skipconv0_bn[0][0]      
__________________________________________________________________________________________________
dense (Dense)                   (None, 122)          58682       flatten[0][0]                    
__________________________________________________________________________________________________
block0-2_skipconv0 (Conv1D)     (None, 127, 4)       148         block0-2_skip[0][0]              
__________________________________________________________________________________________________
block0-3_upconv (Conv1D)        (None, 126, 4)       100         block0-3_upsampling[0][0]        
__________________________________________________________________________________________________
leaky_re_lu (LeakyReLU)         (None, 122)          0           dense[0][0]                      
__________________________________________________________________________________________________
block0-2_skipconv0_activation ( (None, 127, 4)       0           block0-2_skipconv0[0][0]         
__________________________________________________________________________________________________
block0-3_upconv_activation (Lea (None, 126, 4)       0           block0-3_upconv[0][0]            
__________________________________________________________________________________________________
batch_normalization (BatchNorma (None, 122)          488         leaky_re_lu[0][0]                
__________________________________________________________________________________________________
block0-2_skipconv0_bn (BatchNor (None, 127, 4)       16          block0-2_skipconv0_activation[0][
__________________________________________________________________________________________________
block0-3_upconv_padding (ZeroPa (None, 127, 4)       0           block0-3_upconv_activation[0][0] 
__________________________________________________________________________________________________
dense_1 (Dense)                 (None, 31)           3813        batch_normalization[0][0]        
__________________________________________________________________________________________________
block0-3_skip (Concatenate)     (None, 127, 16)      0           block0-0_conv0_bn[0][0]          
                                                                 block0-1_skipconv0_bn[0][0]      
                                                                 block0-2_skipconv0_bn[0][0]      
                                                                 block0-3_upconv_padding[0][0]    
__________________________________________________________________________________________________
leaky_re_lu_1 (LeakyReLU)       (None, 31)           0           dense_1[0][0]                    
__________________________________________________________________________________________________
block0-3_skipconv0 (Conv1D)     (None, 127, 4)       196         block0-3_skip[0][0]              
__________________________________________________________________________________________________
batch_normalization_1 (BatchNor (None, 31)           124         leaky_re_lu_1[0][0]              
__________________________________________________________________________________________________
block0-3_skipconv0_activation ( (None, 127, 4)       0           block0-3_skipconv0[0][0]         
__________________________________________________________________________________________________
dense_2 (Dense)                 (None, 8)            256         batch_normalization_1[0][0]      
__________________________________________________________________________________________________
block0-3_skipconv0_bn (BatchNor (None, 127, 4)       16          block0-3_skipconv0_activation[0][
__________________________________________________________________________________________________
leaky_re_lu_2 (LeakyReLU)       (None, 8)            0           dense_2[0][0]                    
__________________________________________________________________________________________________
last_conv (Conv1D)              (None, 127, 1)       5           block0-3_skipconv0_bn[0][0]      
__________________________________________________________________________________________________
batch_normalization_2 (BatchNor (None, 8)            32          leaky_re_lu_2[0][0]              
__________________________________________________________________________________________________
last_conv_activation (ReLU)     (None, 127, 1)       0           last_conv[0][0]                  
__________________________________________________________________________________________________
dense_3 (Dense)                 (None, 2)            18          batch_normalization_2[0][0]      
__________________________________________________________________________________________________
conv_output (Lambda)            (None, 127, 1)       0           last_conv_activation[0][0]       
__________________________________________________________________________________________________
dense_output (ReLU)             (None, 2)            0           dense_3[0][0]                    
==================================================================================================
Total params: 71,830
Trainable params: 71,300
Non-trainable params: 530
__________________________________________________________________________________________________
Writing model to: "/scratch1/RDARCH/rda-ghpcs/Ryan.Lagerquist/ml4rt_models/2022paper_experiment_sw_plusplus/templates/depth=3_num-conv-layers-per-block=1_num-first-layer-channels=004/model.h5"...
Writing metadata to: "/scratch1/RDARCH/rda-ghpcs/Ryan.Lagerquist/ml4rt_models/2022paper_experiment_sw_plusplus/templates/depth=3_num-conv-layers-per-block=1_num-first-layer-channels=004/model_metadata.dill"...
Model: "model_1"
__________________________________________________________________________________________________
Layer (type)                    Output Shape         Param #     Connected to                     
==================================================================================================
input_2 (InputLayer)            [(None, 127, 26)]    0                                            
__________________________________________________________________________________________________
block0-0_conv0 (Conv1D)         (None, 127, 8)       632         input_2[0][0]                    
__________________________________________________________________________________________________
block0-0_conv0_activation (Leak (None, 127, 8)       0           block0-0_conv0[0][0]             
__________________________________________________________________________________________________
block0-0_conv0_bn (BatchNormali (None, 127, 8)       32          block0-0_conv0_activation[0][0]  
__________________________________________________________________________________________________
block0-0_pooling (MaxPooling1D) (None, 63, 8)        0           block0-0_conv0_bn[0][0]          
__________________________________________________________________________________________________
block1-0_conv0 (Conv1D)         (None, 63, 16)       400         block0-0_pooling[0][0]           
__________________________________________________________________________________________________
block1-0_conv0_activation (Leak (None, 63, 16)       0           block1-0_conv0[0][0]             
__________________________________________________________________________________________________
block1-0_conv0_bn (BatchNormali (None, 63, 16)       64          block1-0_conv0_activation[0][0]  
__________________________________________________________________________________________________
block1-0_pooling (MaxPooling1D) (None, 31, 16)       0           block1-0_conv0_bn[0][0]          
__________________________________________________________________________________________________
block2-0_conv0 (Conv1D)         (None, 31, 32)       1568        block1-0_pooling[0][0]           
__________________________________________________________________________________________________
block2-0_conv0_activation (Leak (None, 31, 32)       0           block2-0_conv0[0][0]             
__________________________________________________________________________________________________
block2-0_conv0_bn (BatchNormali (None, 31, 32)       128         block2-0_conv0_activation[0][0]  
__________________________________________________________________________________________________
block2-0_pooling (MaxPooling1D) (None, 15, 32)       0           block2-0_conv0_bn[0][0]          
__________________________________________________________________________________________________
block3-0_conv0 (Conv1D)         (None, 15, 64)       6208        block2-0_pooling[0][0]           
__________________________________________________________________________________________________
block3-0_conv0_activation (Leak (None, 15, 64)       0           block3-0_conv0[0][0]             
__________________________________________________________________________________________________
block3-0_conv0_bn (BatchNormali (None, 15, 64)       256         block3-0_conv0_activation[0][0]  
__________________________________________________________________________________________________
block2-1_upsampling (UpSampling (None, 30, 64)       0           block3-0_conv0_bn[0][0]          
__________________________________________________________________________________________________
block2-1_upconv (Conv1D)        (None, 30, 32)       6176        block2-1_upsampling[0][0]        
__________________________________________________________________________________________________
block2-1_upconv_activation (Lea (None, 30, 32)       0           block2-1_upconv[0][0]            
__________________________________________________________________________________________________
block2-1_upconv_padding (ZeroPa (None, 31, 32)       0           block2-1_upconv_activation[0][0] 
__________________________________________________________________________________________________
block1-1_upsampling (UpSampling (None, 62, 32)       0           block2-0_conv0_bn[0][0]          
__________________________________________________________________________________________________
block2-1_skip (Concatenate)     (None, 31, 64)       0           block2-0_conv0_bn[0][0]          
                                                                 block2-1_upconv_padding[0][0]    
__________________________________________________________________________________________________
block1-1_upconv (Conv1D)        (None, 62, 16)       1552        block1-1_upsampling[0][0]        
__________________________________________________________________________________________________
block2-1_skipconv0 (Conv1D)     (None, 31, 32)       6176        block2-1_skip[0][0]              
__________________________________________________________________________________________________
block1-1_upconv_activation (Lea (None, 62, 16)       0           block1-1_upconv[0][0]            
__________________________________________________________________________________________________
block2-1_skipconv0_activation ( (None, 31, 32)       0           block2-1_skipconv0[0][0]         
__________________________________________________________________________________________________
block1-1_upconv_padding (ZeroPa (None, 63, 16)       0           block1-1_upconv_activation[0][0] 
__________________________________________________________________________________________________
block2-1_skipconv0_bn (BatchNor (None, 31, 32)       128         block2-1_skipconv0_activation[0][
__________________________________________________________________________________________________
block0-1_upsampling (UpSampling (None, 126, 16)      0           block1-0_conv0_bn[0][0]          
__________________________________________________________________________________________________
block1-1_skip (Concatenate)     (None, 63, 32)       0           block1-0_conv0_bn[0][0]          
                                                                 block1-1_upconv_padding[0][0]    
__________________________________________________________________________________________________
block1-2_upsampling (UpSampling (None, 62, 32)       0           block2-1_skipconv0_bn[0][0]      
__________________________________________________________________________________________________
block0-1_upconv (Conv1D)        (None, 126, 8)       392         block0-1_upsampling[0][0]        
__________________________________________________________________________________________________
block1-1_skipconv0 (Conv1D)     (None, 63, 16)       1552        block1-1_skip[0][0]              
__________________________________________________________________________________________________
block1-2_upconv (Conv1D)        (None, 62, 16)       1552        block1-2_upsampling[0][0]        
__________________________________________________________________________________________________
block0-1_upconv_activation (Lea (None, 126, 8)       0           block0-1_upconv[0][0]            
__________________________________________________________________________________________________
block1-1_skipconv0_activation ( (None, 63, 16)       0           block1-1_skipconv0[0][0]         
__________________________________________________________________________________________________
block1-2_upconv_activation (Lea (None, 62, 16)       0           block1-2_upconv[0][0]            
__________________________________________________________________________________________________
block0-1_upconv_padding (ZeroPa (None, 127, 8)       0           block0-1_upconv_activation[0][0] 
__________________________________________________________________________________________________
block1-1_skipconv0_bn (BatchNor (None, 63, 16)       64          block1-1_skipconv0_activation[0][
__________________________________________________________________________________________________
block1-2_upconv_padding (ZeroPa (None, 63, 16)       0           block1-2_upconv_activation[0][0] 
__________________________________________________________________________________________________
block0-1_skip (Concatenate)     (None, 127, 16)      0           block0-0_conv0_bn[0][0]          
                                                                 block0-1_upconv_padding[0][0]    
__________________________________________________________________________________________________
block0-2_upsampling (UpSampling (None, 126, 16)      0           block1-1_skipconv0_bn[0][0]      
__________________________________________________________________________________________________
block1-2_skip (Concatenate)     (None, 63, 48)       0           block1-0_conv0_bn[0][0]          
                                                                 block1-1_skipconv0_bn[0][0]      
                                                                 block1-2_upconv_padding[0][0]    
__________________________________________________________________________________________________
block0-1_skipconv0 (Conv1D)     (None, 127, 8)       392         block0-1_skip[0][0]              
__________________________________________________________________________________________________
block0-2_upconv (Conv1D)        (None, 126, 8)       392         block0-2_upsampling[0][0]        
__________________________________________________________________________________________________
block1-2_skipconv0 (Conv1D)     (None, 63, 16)       2320        block1-2_skip[0][0]              
__________________________________________________________________________________________________
block0-1_skipconv0_activation ( (None, 127, 8)       0           block0-1_skipconv0[0][0]         
__________________________________________________________________________________________________
block0-2_upconv_activation (Lea (None, 126, 8)       0           block0-2_upconv[0][0]            
__________________________________________________________________________________________________
block1-2_skipconv0_activation ( (None, 63, 16)       0           block1-2_skipconv0[0][0]         
__________________________________________________________________________________________________
block0-1_skipconv0_bn (BatchNor (None, 127, 8)       32          block0-1_skipconv0_activation[0][
__________________________________________________________________________________________________
block0-2_upconv_padding (ZeroPa (None, 127, 8)       0           block0-2_upconv_activation[0][0] 
__________________________________________________________________________________________________
block1-2_skipconv0_bn (BatchNor (None, 63, 16)       64          block1-2_skipconv0_activation[0][
__________________________________________________________________________________________________
flatten_1 (Flatten)             (None, 960)          0           block3-0_conv0_bn[0][0]          
__________________________________________________________________________________________________
block0-2_skip (Concatenate)     (None, 127, 24)      0           block0-0_conv0_bn[0][0]          
                                                                 block0-1_skipconv0_bn[0][0]      
                                                                 block0-2_upconv_padding[0][0]    
__________________________________________________________________________________________________
block0-3_upsampling (UpSampling (None, 126, 16)      0           block1-2_skipconv0_bn[0][0]      
__________________________________________________________________________________________________
dense_4 (Dense)                 (None, 205)          197005      flatten_1[0][0]                  
__________________________________________________________________________________________________
block0-2_skipconv0 (Conv1D)     (None, 127, 8)       584         block0-2_skip[0][0]              
__________________________________________________________________________________________________
block0-3_upconv (Conv1D)        (None, 126, 8)       392         block0-3_upsampling[0][0]        
__________________________________________________________________________________________________
leaky_re_lu_3 (LeakyReLU)       (None, 205)          0           dense_4[0][0]                    
__________________________________________________________________________________________________
block0-2_skipconv0_activation ( (None, 127, 8)       0           block0-2_skipconv0[0][0]         
__________________________________________________________________________________________________
block0-3_upconv_activation (Lea (None, 126, 8)       0           block0-3_upconv[0][0]            
__________________________________________________________________________________________________
batch_normalization_3 (BatchNor (None, 205)          820         leaky_re_lu_3[0][0]              
__________________________________________________________________________________________________
block0-2_skipconv0_bn (BatchNor (None, 127, 8)       32          block0-2_skipconv0_activation[0][
__________________________________________________________________________________________________
block0-3_upconv_padding (ZeroPa (None, 127, 8)       0           block0-3_upconv_activation[0][0] 
__________________________________________________________________________________________________
dense_5 (Dense)                 (None, 44)           9064        batch_normalization_3[0][0]      
__________________________________________________________________________________________________
block0-3_skip (Concatenate)     (None, 127, 32)      0           block0-0_conv0_bn[0][0]          
                                                                 block0-1_skipconv0_bn[0][0]      
                                                                 block0-2_skipconv0_bn[0][0]      
                                                                 block0-3_upconv_padding[0][0]    
__________________________________________________________________________________________________
leaky_re_lu_4 (LeakyReLU)       (None, 44)           0           dense_5[0][0]                    
__________________________________________________________________________________________________
block0-3_skipconv0 (Conv1D)     (None, 127, 8)       776         block0-3_skip[0][0]              
__________________________________________________________________________________________________
batch_normalization_4 (BatchNor (None, 44)           176         leaky_re_lu_4[0][0]              
__________________________________________________________________________________________________
block0-3_skipconv0_activation ( (None, 127, 8)       0           block0-3_skipconv0[0][0]         
__________________________________________________________________________________________________
dense_6 (Dense)                 (None, 9)            405         batch_normalization_4[0][0]      
__________________________________________________________________________________________________
block0-3_skipconv0_bn (BatchNor (None, 127, 8)       32          block0-3_skipconv0_activation[0][
__________________________________________________________________________________________________
leaky_re_lu_5 (LeakyReLU)       (None, 9)            0           dense_6[0][0]                    
__________________________________________________________________________________________________
last_conv (Conv1D)              (None, 127, 1)       9           block0-3_skipconv0_bn[0][0]      
__________________________________________________________________________________________________
batch_normalization_5 (BatchNor (None, 9)            36          leaky_re_lu_5[0][0]              
__________________________________________________________________________________________________
last_conv_activation (ReLU)     (None, 127, 1)       0           last_conv[0][0]                  
__________________________________________________________________________________________________
dense_7 (Dense)                 (None, 2)            20          batch_normalization_5[0][0]      
__________________________________________________________________________________________________
conv_output (Lambda)            (None, 127, 1)       0           last_conv_activation[0][0]       
__________________________________________________________________________________________________
dense_output (ReLU)             (None, 2)            0           dense_7[0][0]                    
==================================================================================================
Total params: 239,431
Trainable params: 238,499
Non-trainable params: 932
__________________________________________________________________________________________________
Writing model to: "/scratch1/RDARCH/rda-ghpcs/Ryan.Lagerquist/ml4rt_models/2022paper_experiment_sw_plusplus/templates/depth=3_num-conv-layers-per-block=1_num-first-layer-channels=008/model.h5"...
Writing metadata to: "/scratch1/RDARCH/rda-ghpcs/Ryan.Lagerquist/ml4rt_models/2022paper_experiment_sw_plusplus/templates/depth=3_num-conv-layers-per-block=1_num-first-layer-channels=008/model_metadata.dill"...
Model: "model_2"
__________________________________________________________________________________________________
Layer (type)                    Output Shape         Param #     Connected to                     
==================================================================================================
input_3 (InputLayer)            [(None, 127, 26)]    0                                            
__________________________________________________________________________________________________
block0-0_conv0 (Conv1D)         (None, 127, 16)      1264        input_3[0][0]                    
__________________________________________________________________________________________________
block0-0_conv0_activation (Leak (None, 127, 16)      0           block0-0_conv0[0][0]             
__________________________________________________________________________________________________
block0-0_conv0_bn (BatchNormali (None, 127, 16)      64          block0-0_conv0_activation[0][0]  
__________________________________________________________________________________________________
block0-0_pooling (MaxPooling1D) (None, 63, 16)       0           block0-0_conv0_bn[0][0]          
__________________________________________________________________________________________________
block1-0_conv0 (Conv1D)         (None, 63, 32)       1568        block0-0_pooling[0][0]           
__________________________________________________________________________________________________
block1-0_conv0_activation (Leak (None, 63, 32)       0           block1-0_conv0[0][0]             
__________________________________________________________________________________________________
block1-0_conv0_bn (BatchNormali (None, 63, 32)       128         block1-0_conv0_activation[0][0]  
__________________________________________________________________________________________________
block1-0_pooling (MaxPooling1D) (None, 31, 32)       0           block1-0_conv0_bn[0][0]          
__________________________________________________________________________________________________
block2-0_conv0 (Conv1D)         (None, 31, 64)       6208        block1-0_pooling[0][0]           
__________________________________________________________________________________________________
block2-0_conv0_activation (Leak (None, 31, 64)       0           block2-0_conv0[0][0]             
__________________________________________________________________________________________________
block2-0_conv0_bn (BatchNormali (None, 31, 64)       256         block2-0_conv0_activation[0][0]  
__________________________________________________________________________________________________
block2-0_pooling (MaxPooling1D) (None, 15, 64)       0           block2-0_conv0_bn[0][0]          
__________________________________________________________________________________________________
block3-0_conv0 (Conv1D)         (None, 15, 128)      24704       block2-0_pooling[0][0]           
__________________________________________________________________________________________________
block3-0_conv0_activation (Leak (None, 15, 128)      0           block3-0_conv0[0][0]             
__________________________________________________________________________________________________
block3-0_conv0_bn (BatchNormali (None, 15, 128)      512         block3-0_conv0_activation[0][0]  
__________________________________________________________________________________________________
block2-1_upsampling (UpSampling (None, 30, 128)      0           block3-0_conv0_bn[0][0]          
__________________________________________________________________________________________________
block2-1_upconv (Conv1D)        (None, 30, 64)       24640       block2-1_upsampling[0][0]        
__________________________________________________________________________________________________
block2-1_upconv_activation (Lea (None, 30, 64)       0           block2-1_upconv[0][0]            
__________________________________________________________________________________________________
block2-1_upconv_padding (ZeroPa (None, 31, 64)       0           block2-1_upconv_activation[0][0] 
__________________________________________________________________________________________________
block1-1_upsampling (UpSampling (None, 62, 64)       0           block2-0_conv0_bn[0][0]          
__________________________________________________________________________________________________
block2-1_skip (Concatenate)     (None, 31, 128)      0           block2-0_conv0_bn[0][0]          
                                                                 block2-1_upconv_padding[0][0]    
__________________________________________________________________________________________________
block1-1_upconv (Conv1D)        (None, 62, 32)       6176        block1-1_upsampling[0][0]        
__________________________________________________________________________________________________
block2-1_skipconv0 (Conv1D)     (None, 31, 64)       24640       block2-1_skip[0][0]              
__________________________________________________________________________________________________
block1-1_upconv_activation (Lea (None, 62, 32)       0           block1-1_upconv[0][0]            
__________________________________________________________________________________________________
block2-1_skipconv0_activation ( (None, 31, 64)       0           block2-1_skipconv0[0][0]         
__________________________________________________________________________________________________
block1-1_upconv_padding (ZeroPa (None, 63, 32)       0           block1-1_upconv_activation[0][0] 
__________________________________________________________________________________________________
block2-1_skipconv0_bn (BatchNor (None, 31, 64)       256         block2-1_skipconv0_activation[0][
__________________________________________________________________________________________________
block0-1_upsampling (UpSampling (None, 126, 32)      0           block1-0_conv0_bn[0][0]          
__________________________________________________________________________________________________
block1-1_skip (Concatenate)     (None, 63, 64)       0           block1-0_conv0_bn[0][0]          
                                                                 block1-1_upconv_padding[0][0]    
__________________________________________________________________________________________________
block1-2_upsampling (UpSampling (None, 62, 64)       0           block2-1_skipconv0_bn[0][0]      
__________________________________________________________________________________________________
block0-1_upconv (Conv1D)        (None, 126, 16)      1552        block0-1_upsampling[0][0]        
__________________________________________________________________________________________________
block1-1_skipconv0 (Conv1D)     (None, 63, 32)       6176        block1-1_skip[0][0]              
__________________________________________________________________________________________________
block1-2_upconv (Conv1D)        (None, 62, 32)       6176        block1-2_upsampling[0][0]        
__________________________________________________________________________________________________
block0-1_upconv_activation (Lea (None, 126, 16)      0           block0-1_upconv[0][0]            
__________________________________________________________________________________________________
block1-1_skipconv0_activation ( (None, 63, 32)       0           block1-1_skipconv0[0][0]         
__________________________________________________________________________________________________
block1-2_upconv_activation (Lea (None, 62, 32)       0           block1-2_upconv[0][0]            
__________________________________________________________________________________________________
block0-1_upconv_padding (ZeroPa (None, 127, 16)      0           block0-1_upconv_activation[0][0] 
__________________________________________________________________________________________________
block1-1_skipconv0_bn (BatchNor (None, 63, 32)       128         block1-1_skipconv0_activation[0][
__________________________________________________________________________________________________
block1-2_upconv_padding (ZeroPa (None, 63, 32)       0           block1-2_upconv_activation[0][0] 
__________________________________________________________________________________________________
block0-1_skip (Concatenate)     (None, 127, 32)      0           block0-0_conv0_bn[0][0]          
                                                                 block0-1_upconv_padding[0][0]    
__________________________________________________________________________________________________
block0-2_upsampling (UpSampling (None, 126, 32)      0           block1-1_skipconv0_bn[0][0]      
__________________________________________________________________________________________________
block1-2_skip (Concatenate)     (None, 63, 96)       0           block1-0_conv0_bn[0][0]          
                                                                 block1-1_skipconv0_bn[0][0]      
                                                                 block1-2_upconv_padding[0][0]    
__________________________________________________________________________________________________
block0-1_skipconv0 (Conv1D)     (None, 127, 16)      1552        block0-1_skip[0][0]              
__________________________________________________________________________________________________
block0-2_upconv (Conv1D)        (None, 126, 16)      1552        block0-2_upsampling[0][0]        
__________________________________________________________________________________________________
block1-2_skipconv0 (Conv1D)     (None, 63, 32)       9248        block1-2_skip[0][0]              
__________________________________________________________________________________________________
block0-1_skipconv0_activation ( (None, 127, 16)      0           block0-1_skipconv0[0][0]         
__________________________________________________________________________________________________
block0-2_upconv_activation (Lea (None, 126, 16)      0           block0-2_upconv[0][0]            
__________________________________________________________________________________________________
block1-2_skipconv0_activation ( (None, 63, 32)       0           block1-2_skipconv0[0][0]         
__________________________________________________________________________________________________
block0-1_skipconv0_bn (BatchNor (None, 127, 16)      64          block0-1_skipconv0_activation[0][
__________________________________________________________________________________________________
block0-2_upconv_padding (ZeroPa (None, 127, 16)      0           block0-2_upconv_activation[0][0] 
__________________________________________________________________________________________________
block1-2_skipconv0_bn (BatchNor (None, 63, 32)       128         block1-2_skipconv0_activation[0][
__________________________________________________________________________________________________
flatten_2 (Flatten)             (None, 1920)         0           block3-0_conv0_bn[0][0]          
__________________________________________________________________________________________________
block0-2_skip (Concatenate)     (None, 127, 48)      0           block0-0_conv0_bn[0][0]          
                                                                 block0-1_skipconv0_bn[0][0]      
                                                                 block0-2_upconv_padding[0][0]    
__________________________________________________________________________________________________
block0-3_upsampling (UpSampling (None, 126, 32)      0           block1-2_skipconv0_bn[0][0]      
__________________________________________________________________________________________________
dense_8 (Dense)                 (None, 345)          662745      flatten_2[0][0]                  
__________________________________________________________________________________________________
block0-2_skipconv0 (Conv1D)     (None, 127, 16)      2320        block0-2_skip[0][0]              
__________________________________________________________________________________________________
block0-3_upconv (Conv1D)        (None, 126, 16)      1552        block0-3_upsampling[0][0]        
__________________________________________________________________________________________________
leaky_re_lu_6 (LeakyReLU)       (None, 345)          0           dense_8[0][0]                    
__________________________________________________________________________________________________
block0-2_skipconv0_activation ( (None, 127, 16)      0           block0-2_skipconv0[0][0]         
__________________________________________________________________________________________________
block0-3_upconv_activation (Lea (None, 126, 16)      0           block0-3_upconv[0][0]            
__________________________________________________________________________________________________
batch_normalization_6 (BatchNor (None, 345)          1380        leaky_re_lu_6[0][0]              
__________________________________________________________________________________________________
block0-2_skipconv0_bn (BatchNor (None, 127, 16)      64          block0-2_skipconv0_activation[0][
__________________________________________________________________________________________________
block0-3_upconv_padding (ZeroPa (None, 127, 16)      0           block0-3_upconv_activation[0][0] 
__________________________________________________________________________________________________
dense_9 (Dense)                 (None, 62)           21452       batch_normalization_6[0][0]      
__________________________________________________________________________________________________
block0-3_skip (Concatenate)     (None, 127, 64)      0           block0-0_conv0_bn[0][0]          
                                                                 block0-1_skipconv0_bn[0][0]      
                                                                 block0-2_skipconv0_bn[0][0]      
                                                                 block0-3_upconv_padding[0][0]    
__________________________________________________________________________________________________
leaky_re_lu_7 (LeakyReLU)       (None, 62)           0           dense_9[0][0]                    
__________________________________________________________________________________________________
block0-3_skipconv0 (Conv1D)     (None, 127, 16)      3088        block0-3_skip[0][0]              
__________________________________________________________________________________________________
batch_normalization_7 (BatchNor (None, 62)           248         leaky_re_lu_7[0][0]              
__________________________________________________________________________________________________
block0-3_skipconv0_activation ( (None, 127, 16)      0           block0-3_skipconv0[0][0]         
__________________________________________________________________________________________________
dense_10 (Dense)                (None, 11)           693         batch_normalization_7[0][0]      
__________________________________________________________________________________________________
block0-3_skipconv0_bn (BatchNor (None, 127, 16)      64          block0-3_skipconv0_activation[0][
__________________________________________________________________________________________________
leaky_re_lu_8 (LeakyReLU)       (None, 11)           0           dense_10[0][0]                   
__________________________________________________________________________________________________
last_conv (Conv1D)              (None, 127, 1)       17          block0-3_skipconv0_bn[0][0]      
__________________________________________________________________________________________________
batch_normalization_8 (BatchNor (None, 11)           44          leaky_re_lu_8[0][0]              
__________________________________________________________________________________________________
last_conv_activation (ReLU)     (None, 127, 1)       0           last_conv[0][0]                  
__________________________________________________________________________________________________
dense_11 (Dense)                (None, 2)            24          batch_normalization_8[0][0]      
__________________________________________________________________________________________________
conv_output (Lambda)            (None, 127, 1)       0           last_conv_activation[0][0]       
__________________________________________________________________________________________________
dense_output (ReLU)             (None, 2)            0           dense_11[0][0]                   
==================================================================================================
Total params: 810,683
Trainable params: 809,015
Non-trainable params: 1,668
__________________________________________________________________________________________________
Writing model to: "/scratch1/RDARCH/rda-ghpcs/Ryan.Lagerquist/ml4rt_models/2022paper_experiment_sw_plusplus/templates/depth=3_num-conv-layers-per-block=1_num-first-layer-channels=016/model.h5"...
Writing metadata to: "/scratch1/RDARCH/rda-ghpcs/Ryan.Lagerquist/ml4rt_models/2022paper_experiment_sw_plusplus/templates/depth=3_num-conv-layers-per-block=1_num-first-layer-channels=016/model_metadata.dill"...
Model: "model_3"
__________________________________________________________________________________________________
Layer (type)                    Output Shape         Param #     Connected to                     
==================================================================================================
input_4 (InputLayer)            [(None, 127, 26)]    0                                            
__________________________________________________________________________________________________
block0-0_conv0 (Conv1D)         (None, 127, 32)      2528        input_4[0][0]                    
__________________________________________________________________________________________________
block0-0_conv0_activation (Leak (None, 127, 32)      0           block0-0_conv0[0][0]             
__________________________________________________________________________________________________
block0-0_conv0_bn (BatchNormali (None, 127, 32)      128         block0-0_conv0_activation[0][0]  
__________________________________________________________________________________________________
block0-0_pooling (MaxPooling1D) (None, 63, 32)       0           block0-0_conv0_bn[0][0]          
__________________________________________________________________________________________________
block1-0_conv0 (Conv1D)         (None, 63, 64)       6208        block0-0_pooling[0][0]           
__________________________________________________________________________________________________
block1-0_conv0_activation (Leak (None, 63, 64)       0           block1-0_conv0[0][0]             
__________________________________________________________________________________________________
block1-0_conv0_bn (BatchNormali (None, 63, 64)       256         block1-0_conv0_activation[0][0]  
__________________________________________________________________________________________________
block1-0_pooling (MaxPooling1D) (None, 31, 64)       0           block1-0_conv0_bn[0][0]          
__________________________________________________________________________________________________
block2-0_conv0 (Conv1D)         (None, 31, 128)      24704       block1-0_pooling[0][0]           
__________________________________________________________________________________________________
block2-0_conv0_activation (Leak (None, 31, 128)      0           block2-0_conv0[0][0]             
__________________________________________________________________________________________________
block2-0_conv0_bn (BatchNormali (None, 31, 128)      512         block2-0_conv0_activation[0][0]  
__________________________________________________________________________________________________
block2-0_pooling (MaxPooling1D) (None, 15, 128)      0           block2-0_conv0_bn[0][0]          
__________________________________________________________________________________________________
block3-0_conv0 (Conv1D)         (None, 15, 256)      98560       block2-0_pooling[0][0]           
__________________________________________________________________________________________________
block3-0_conv0_activation (Leak (None, 15, 256)      0           block3-0_conv0[0][0]             
__________________________________________________________________________________________________
block3-0_conv0_bn (BatchNormali (None, 15, 256)      1024        block3-0_conv0_activation[0][0]  
__________________________________________________________________________________________________
block2-1_upsampling (UpSampling (None, 30, 256)      0           block3-0_conv0_bn[0][0]          
__________________________________________________________________________________________________
block2-1_upconv (Conv1D)        (None, 30, 128)      98432       block2-1_upsampling[0][0]        
__________________________________________________________________________________________________
block2-1_upconv_activation (Lea (None, 30, 128)      0           block2-1_upconv[0][0]            
__________________________________________________________________________________________________
block2-1_upconv_padding (ZeroPa (None, 31, 128)      0           block2-1_upconv_activation[0][0] 
__________________________________________________________________________________________________
block1-1_upsampling (UpSampling (None, 62, 128)      0           block2-0_conv0_bn[0][0]          
__________________________________________________________________________________________________
block2-1_skip (Concatenate)     (None, 31, 256)      0           block2-0_conv0_bn[0][0]          
                                                                 block2-1_upconv_padding[0][0]    
__________________________________________________________________________________________________
block1-1_upconv (Conv1D)        (None, 62, 64)       24640       block1-1_upsampling[0][0]        
__________________________________________________________________________________________________
block2-1_skipconv0 (Conv1D)     (None, 31, 128)      98432       block2-1_skip[0][0]              
__________________________________________________________________________________________________
block1-1_upconv_activation (Lea (None, 62, 64)       0           block1-1_upconv[0][0]            
__________________________________________________________________________________________________
block2-1_skipconv0_activation ( (None, 31, 128)      0           block2-1_skipconv0[0][0]         
__________________________________________________________________________________________________
block1-1_upconv_padding (ZeroPa (None, 63, 64)       0           block1-1_upconv_activation[0][0] 
__________________________________________________________________________________________________
block2-1_skipconv0_bn (BatchNor (None, 31, 128)      512         block2-1_skipconv0_activation[0][
__________________________________________________________________________________________________
block0-1_upsampling (UpSampling (None, 126, 64)      0           block1-0_conv0_bn[0][0]          
__________________________________________________________________________________________________
block1-1_skip (Concatenate)     (None, 63, 128)      0           block1-0_conv0_bn[0][0]          
                                                                 block1-1_upconv_padding[0][0]    
__________________________________________________________________________________________________
block1-2_upsampling (UpSampling (None, 62, 128)      0           block2-1_skipconv0_bn[0][0]      
__________________________________________________________________________________________________
block0-1_upconv (Conv1D)        (None, 126, 32)      6176        block0-1_upsampling[0][0]        
__________________________________________________________________________________________________
block1-1_skipconv0 (Conv1D)     (None, 63, 64)       24640       block1-1_skip[0][0]              
__________________________________________________________________________________________________
block1-2_upconv (Conv1D)        (None, 62, 64)       24640       block1-2_upsampling[0][0]        
__________________________________________________________________________________________________
block0-1_upconv_activation (Lea (None, 126, 32)      0           block0-1_upconv[0][0]            
__________________________________________________________________________________________________
block1-1_skipconv0_activation ( (None, 63, 64)       0           block1-1_skipconv0[0][0]         
__________________________________________________________________________________________________
block1-2_upconv_activation (Lea (None, 62, 64)       0           block1-2_upconv[0][0]            
__________________________________________________________________________________________________
block0-1_upconv_padding (ZeroPa (None, 127, 32)      0           block0-1_upconv_activation[0][0] 
__________________________________________________________________________________________________
block1-1_skipconv0_bn (BatchNor (None, 63, 64)       256         block1-1_skipconv0_activation[0][
__________________________________________________________________________________________________
block1-2_upconv_padding (ZeroPa (None, 63, 64)       0           block1-2_upconv_activation[0][0] 
__________________________________________________________________________________________________
block0-1_skip (Concatenate)     (None, 127, 64)      0           block0-0_conv0_bn[0][0]          
                                                                 block0-1_upconv_padding[0][0]    
__________________________________________________________________________________________________
block0-2_upsampling (UpSampling (None, 126, 64)      0           block1-1_skipconv0_bn[0][0]      
__________________________________________________________________________________________________
block1-2_skip (Concatenate)     (None, 63, 192)      0           block1-0_conv0_bn[0][0]          
                                                                 block1-1_skipconv0_bn[0][0]      
                                                                 block1-2_upconv_padding[0][0]    
__________________________________________________________________________________________________
block0-1_skipconv0 (Conv1D)     (None, 127, 32)      6176        block0-1_skip[0][0]              
__________________________________________________________________________________________________
block0-2_upconv (Conv1D)        (None, 126, 32)      6176        block0-2_upsampling[0][0]        
__________________________________________________________________________________________________
block1-2_skipconv0 (Conv1D)     (None, 63, 64)       36928       block1-2_skip[0][0]              
__________________________________________________________________________________________________
block0-1_skipconv0_activation ( (None, 127, 32)      0           block0-1_skipconv0[0][0]         
__________________________________________________________________________________________________
block0-2_upconv_activation (Lea (None, 126, 32)      0           block0-2_upconv[0][0]            
__________________________________________________________________________________________________
block1-2_skipconv0_activation ( (None, 63, 64)       0           block1-2_skipconv0[0][0]         
__________________________________________________________________________________________________
block0-1_skipconv0_bn (BatchNor (None, 127, 32)      128         block0-1_skipconv0_activation[0][
__________________________________________________________________________________________________
block0-2_upconv_padding (ZeroPa (None, 127, 32)      0           block0-2_upconv_activation[0][0] 
__________________________________________________________________________________________________
block1-2_skipconv0_bn (BatchNor (None, 63, 64)       256         block1-2_skipconv0_activation[0][
__________________________________________________________________________________________________
flatten_3 (Flatten)             (None, 3840)         0           block3-0_conv0_bn[0][0]          
__________________________________________________________________________________________________
block0-2_skip (Concatenate)     (None, 127, 96)      0           block0-0_conv0_bn[0][0]          
                                                                 block0-1_skipconv0_bn[0][0]      
                                                                 block0-2_upconv_padding[0][0]    
__________________________________________________________________________________________________
block0-3_upsampling (UpSampling (None, 126, 64)      0           block1-2_skipconv0_bn[0][0]      
__________________________________________________________________________________________________
dense_12 (Dense)                (None, 580)          2227780     flatten_3[0][0]                  
__________________________________________________________________________________________________
block0-2_skipconv0 (Conv1D)     (None, 127, 32)      9248        block0-2_skip[0][0]              
__________________________________________________________________________________________________
block0-3_upconv (Conv1D)        (None, 126, 32)      6176        block0-3_upsampling[0][0]        
__________________________________________________________________________________________________
leaky_re_lu_9 (LeakyReLU)       (None, 580)          0           dense_12[0][0]                   
__________________________________________________________________________________________________
block0-2_skipconv0_activation ( (None, 127, 32)      0           block0-2_skipconv0[0][0]         
__________________________________________________________________________________________________
block0-3_upconv_activation (Lea (None, 126, 32)      0           block0-3_upconv[0][0]            
__________________________________________________________________________________________________
batch_normalization_9 (BatchNor (None, 580)          2320        leaky_re_lu_9[0][0]              
__________________________________________________________________________________________________
block0-2_skipconv0_bn (BatchNor (None, 127, 32)      128         block0-2_skipconv0_activation[0][
__________________________________________________________________________________________________
block0-3_upconv_padding (ZeroPa (None, 127, 32)      0           block0-3_upconv_activation[0][0] 
__________________________________________________________________________________________________
dense_13 (Dense)                (None, 88)           51128       batch_normalization_9[0][0]      
__________________________________________________________________________________________________
block0-3_skip (Concatenate)     (None, 127, 128)     0           block0-0_conv0_bn[0][0]          
                                                                 block0-1_skipconv0_bn[0][0]      
                                                                 block0-2_skipconv0_bn[0][0]      
                                                                 block0-3_upconv_padding[0][0]    
__________________________________________________________________________________________________
leaky_re_lu_10 (LeakyReLU)      (None, 88)           0           dense_13[0][0]                   
__________________________________________________________________________________________________
block0-3_skipconv0 (Conv1D)     (None, 127, 32)      12320       block0-3_skip[0][0]              
__________________________________________________________________________________________________
batch_normalization_10 (BatchNo (None, 88)           352         leaky_re_lu_10[0][0]             
__________________________________________________________________________________________________
block0-3_skipconv0_activation ( (None, 127, 32)      0           block0-3_skipconv0[0][0]         
__________________________________________________________________________________________________
dense_14 (Dense)                (None, 13)           1157        batch_normalization_10[0][0]     
__________________________________________________________________________________________________
block0-3_skipconv0_bn (BatchNor (None, 127, 32)      128         block0-3_skipconv0_activation[0][
__________________________________________________________________________________________________
leaky_re_lu_11 (LeakyReLU)      (None, 13)           0           dense_14[0][0]                   
__________________________________________________________________________________________________
last_conv (Conv1D)              (None, 127, 1)       33          block0-3_skipconv0_bn[0][0]      
__________________________________________________________________________________________________
batch_normalization_11 (BatchNo (None, 13)           52          leaky_re_lu_11[0][0]             
__________________________________________________________________________________________________
last_conv_activation (ReLU)     (None, 127, 1)       0           last_conv[0][0]                  
__________________________________________________________________________________________________
dense_15 (Dense)                (None, 2)            28          batch_normalization_11[0][0]     
__________________________________________________________________________________________________
conv_output (Lambda)            (None, 127, 1)       0           last_conv_activation[0][0]       
__________________________________________________________________________________________________
dense_output (ReLU)             (None, 2)            0           dense_15[0][0]                   
==================================================================================================
Total params: 2,772,162
Trainable params: 2,769,136
Non-trainable params: 3,026
__________________________________________________________________________________________________
Writing model to: "/scratch1/RDARCH/rda-ghpcs/Ryan.Lagerquist/ml4rt_models/2022paper_experiment_sw_plusplus/templates/depth=3_num-conv-layers-per-block=1_num-first-layer-channels=032/model.h5"...
Writing metadata to: "/scratch1/RDARCH/rda-ghpcs/Ryan.Lagerquist/ml4rt_models/2022paper_experiment_sw_plusplus/templates/depth=3_num-conv-layers-per-block=1_num-first-layer-channels=032/model_metadata.dill"...
Model: "model_4"
__________________________________________________________________________________________________
Layer (type)                    Output Shape         Param #     Connected to                     
==================================================================================================
input_5 (InputLayer)            [(None, 127, 26)]    0                                            
__________________________________________________________________________________________________
block0-0_conv0 (Conv1D)         (None, 127, 64)      5056        input_5[0][0]                    
__________________________________________________________________________________________________
block0-0_conv0_activation (Leak (None, 127, 64)      0           block0-0_conv0[0][0]             
__________________________________________________________________________________________________
block0-0_conv0_bn (BatchNormali (None, 127, 64)      256         block0-0_conv0_activation[0][0]  
__________________________________________________________________________________________________
block0-0_pooling (MaxPooling1D) (None, 63, 64)       0           block0-0_conv0_bn[0][0]          
__________________________________________________________________________________________________
block1-0_conv0 (Conv1D)         (None, 63, 128)      24704       block0-0_pooling[0][0]           
__________________________________________________________________________________________________
block1-0_conv0_activation (Leak (None, 63, 128)      0           block1-0_conv0[0][0]             
__________________________________________________________________________________________________
block1-0_conv0_bn (BatchNormali (None, 63, 128)      512         block1-0_conv0_activation[0][0]  
__________________________________________________________________________________________________
block1-0_pooling (MaxPooling1D) (None, 31, 128)      0           block1-0_conv0_bn[0][0]          
__________________________________________________________________________________________________
block2-0_conv0 (Conv1D)         (None, 31, 256)      98560       block1-0_pooling[0][0]           
__________________________________________________________________________________________________
block2-0_conv0_activation (Leak (None, 31, 256)      0           block2-0_conv0[0][0]             
__________________________________________________________________________________________________
block2-0_conv0_bn (BatchNormali (None, 31, 256)      1024        block2-0_conv0_activation[0][0]  
__________________________________________________________________________________________________
block2-0_pooling (MaxPooling1D) (None, 15, 256)      0           block2-0_conv0_bn[0][0]          
__________________________________________________________________________________________________
block3-0_conv0 (Conv1D)         (None, 15, 512)      393728      block2-0_pooling[0][0]           
__________________________________________________________________________________________________
block3-0_conv0_activation (Leak (None, 15, 512)      0           block3-0_conv0[0][0]             
__________________________________________________________________________________________________
block3-0_conv0_bn (BatchNormali (None, 15, 512)      2048        block3-0_conv0_activation[0][0]  
__________________________________________________________________________________________________
block2-1_upsampling (UpSampling (None, 30, 512)      0           block3-0_conv0_bn[0][0]          
__________________________________________________________________________________________________
block2-1_upconv (Conv1D)        (None, 30, 256)      393472      block2-1_upsampling[0][0]        
__________________________________________________________________________________________________
block2-1_upconv_activation (Lea (None, 30, 256)      0           block2-1_upconv[0][0]            
__________________________________________________________________________________________________
block2-1_upconv_padding (ZeroPa (None, 31, 256)      0           block2-1_upconv_activation[0][0] 
__________________________________________________________________________________________________
block1-1_upsampling (UpSampling (None, 62, 256)      0           block2-0_conv0_bn[0][0]          
__________________________________________________________________________________________________
block2-1_skip (Concatenate)     (None, 31, 512)      0           block2-0_conv0_bn[0][0]          
                                                                 block2-1_upconv_padding[0][0]    
__________________________________________________________________________________________________
block1-1_upconv (Conv1D)        (None, 62, 128)      98432       block1-1_upsampling[0][0]        
__________________________________________________________________________________________________
block2-1_skipconv0 (Conv1D)     (None, 31, 256)      393472      block2-1_skip[0][0]              
__________________________________________________________________________________________________
block1-1_upconv_activation (Lea (None, 62, 128)      0           block1-1_upconv[0][0]            
__________________________________________________________________________________________________
block2-1_skipconv0_activation ( (None, 31, 256)      0           block2-1_skipconv0[0][0]         
__________________________________________________________________________________________________
block1-1_upconv_padding (ZeroPa (None, 63, 128)      0           block1-1_upconv_activation[0][0] 
__________________________________________________________________________________________________
block2-1_skipconv0_bn (BatchNor (None, 31, 256)      1024        block2-1_skipconv0_activation[0][
__________________________________________________________________________________________________
block0-1_upsampling (UpSampling (None, 126, 128)     0           block1-0_conv0_bn[0][0]          
__________________________________________________________________________________________________
block1-1_skip (Concatenate)     (None, 63, 256)      0           block1-0_conv0_bn[0][0]          
                                                                 block1-1_upconv_padding[0][0]    
__________________________________________________________________________________________________
block1-2_upsampling (UpSampling (None, 62, 256)      0           block2-1_skipconv0_bn[0][0]      
__________________________________________________________________________________________________
block0-1_upconv (Conv1D)        (None, 126, 64)      24640       block0-1_upsampling[0][0]        
__________________________________________________________________________________________________
block1-1_skipconv0 (Conv1D)     (None, 63, 128)      98432       block1-1_skip[0][0]              
__________________________________________________________________________________________________
block1-2_upconv (Conv1D)        (None, 62, 128)      98432       block1-2_upsampling[0][0]        
__________________________________________________________________________________________________
block0-1_upconv_activation (Lea (None, 126, 64)      0           block0-1_upconv[0][0]            
__________________________________________________________________________________________________
block1-1_skipconv0_activation ( (None, 63, 128)      0           block1-1_skipconv0[0][0]         
__________________________________________________________________________________________________
block1-2_upconv_activation (Lea (None, 62, 128)      0           block1-2_upconv[0][0]            
__________________________________________________________________________________________________
block0-1_upconv_padding (ZeroPa (None, 127, 64)      0           block0-1_upconv_activation[0][0] 
__________________________________________________________________________________________________
block1-1_skipconv0_bn (BatchNor (None, 63, 128)      512         block1-1_skipconv0_activation[0][
__________________________________________________________________________________________________
block1-2_upconv_padding (ZeroPa (None, 63, 128)      0           block1-2_upconv_activation[0][0] 
__________________________________________________________________________________________________
block0-1_skip (Concatenate)     (None, 127, 128)     0           block0-0_conv0_bn[0][0]          
                                                                 block0-1_upconv_padding[0][0]    
__________________________________________________________________________________________________
block0-2_upsampling (UpSampling (None, 126, 128)     0           block1-1_skipconv0_bn[0][0]      
__________________________________________________________________________________________________
block1-2_skip (Concatenate)     (None, 63, 384)      0           block1-0_conv0_bn[0][0]          
                                                                 block1-1_skipconv0_bn[0][0]      
                                                                 block1-2_upconv_padding[0][0]    
__________________________________________________________________________________________________
block0-1_skipconv0 (Conv1D)     (None, 127, 64)      24640       block0-1_skip[0][0]              
__________________________________________________________________________________________________
block0-2_upconv (Conv1D)        (None, 126, 64)      24640       block0-2_upsampling[0][0]        
__________________________________________________________________________________________________
block1-2_skipconv0 (Conv1D)     (None, 63, 128)      147584      block1-2_skip[0][0]              
__________________________________________________________________________________________________
block0-1_skipconv0_activation ( (None, 127, 64)      0           block0-1_skipconv0[0][0]         
__________________________________________________________________________________________________
block0-2_upconv_activation (Lea (None, 126, 64)      0           block0-2_upconv[0][0]            
__________________________________________________________________________________________________
block1-2_skipconv0_activation ( (None, 63, 128)      0           block1-2_skipconv0[0][0]         
__________________________________________________________________________________________________
block0-1_skipconv0_bn (BatchNor (None, 127, 64)      256         block0-1_skipconv0_activation[0][
__________________________________________________________________________________________________
block0-2_upconv_padding (ZeroPa (None, 127, 64)      0           block0-2_upconv_activation[0][0] 
__________________________________________________________________________________________________
block1-2_skipconv0_bn (BatchNor (None, 63, 128)      512         block1-2_skipconv0_activation[0][
__________________________________________________________________________________________________
flatten_4 (Flatten)             (None, 7680)         0           block3-0_conv0_bn[0][0]          
__________________________________________________________________________________________________
block0-2_skip (Concatenate)     (None, 127, 192)     0           block0-0_conv0_bn[0][0]          
                                                                 block0-1_skipconv0_bn[0][0]      
                                                                 block0-2_upconv_padding[0][0]    
__________________________________________________________________________________________________
block0-3_upsampling (UpSampling (None, 126, 128)     0           block1-2_skipconv0_bn[0][0]      
__________________________________________________________________________________________________
dense_16 (Dense)                (None, 976)          7496656     flatten_4[0][0]                  
__________________________________________________________________________________________________
block0-2_skipconv0 (Conv1D)     (None, 127, 64)      36928       block0-2_skip[0][0]              
__________________________________________________________________________________________________
block0-3_upconv (Conv1D)        (None, 126, 64)      24640       block0-3_upsampling[0][0]        
__________________________________________________________________________________________________
leaky_re_lu_12 (LeakyReLU)      (None, 976)          0           dense_16[0][0]                   
__________________________________________________________________________________________________
block0-2_skipconv0_activation ( (None, 127, 64)      0           block0-2_skipconv0[0][0]         
__________________________________________________________________________________________________
block0-3_upconv_activation (Lea (None, 126, 64)      0           block0-3_upconv[0][0]            
__________________________________________________________________________________________________
batch_normalization_12 (BatchNo (None, 976)          3904        leaky_re_lu_12[0][0]             
__________________________________________________________________________________________________
block0-2_skipconv0_bn (BatchNor (None, 127, 64)      256         block0-2_skipconv0_activation[0][
__________________________________________________________________________________________________
block0-3_upconv_padding (ZeroPa (None, 127, 64)      0           block0-3_upconv_activation[0][0] 
__________________________________________________________________________________________________
dense_17 (Dense)                (None, 124)          121148      batch_normalization_12[0][0]     
__________________________________________________________________________________________________
block0-3_skip (Concatenate)     (None, 127, 256)     0           block0-0_conv0_bn[0][0]          
                                                                 block0-1_skipconv0_bn[0][0]      
                                                                 block0-2_skipconv0_bn[0][0]      
                                                                 block0-3_upconv_padding[0][0]    
__________________________________________________________________________________________________
leaky_re_lu_13 (LeakyReLU)      (None, 124)          0           dense_17[0][0]                   
__________________________________________________________________________________________________
block0-3_skipconv0 (Conv1D)     (None, 127, 64)      49216       block0-3_skip[0][0]              
__________________________________________________________________________________________________
batch_normalization_13 (BatchNo (None, 124)          496         leaky_re_lu_13[0][0]             
__________________________________________________________________________________________________
block0-3_skipconv0_activation ( (None, 127, 64)      0           block0-3_skipconv0[0][0]         
__________________________________________________________________________________________________
dense_18 (Dense)                (None, 16)           2000        batch_normalization_13[0][0]     
__________________________________________________________________________________________________
block0-3_skipconv0_bn (BatchNor (None, 127, 64)      256         block0-3_skipconv0_activation[0][
__________________________________________________________________________________________________
leaky_re_lu_14 (LeakyReLU)      (None, 16)           0           dense_18[0][0]                   
__________________________________________________________________________________________________
last_conv (Conv1D)              (None, 127, 1)       65          block0-3_skipconv0_bn[0][0]      
__________________________________________________________________________________________________
batch_normalization_14 (BatchNo (None, 16)           64          leaky_re_lu_14[0][0]             
__________________________________________________________________________________________________
last_conv_activation (ReLU)     (None, 127, 1)       0           last_conv[0][0]                  
__________________________________________________________________________________________________
dense_19 (Dense)                (None, 2)            34          batch_normalization_14[0][0]     
__________________________________________________________________________________________________
conv_output (Lambda)            (None, 127, 1)       0           last_conv_activation[0][0]       
__________________________________________________________________________________________________
dense_output (ReLU)             (None, 2)            0           dense_19[0][0]                   
==================================================================================================
Total params: 9,567,599
Trainable params: 9,562,039
Non-trainable params: 5,560
__________________________________________________________________________________________________
Writing model to: "/scratch1/RDARCH/rda-ghpcs/Ryan.Lagerquist/ml4rt_models/2022paper_experiment_sw_plusplus/templates/depth=3_num-conv-layers-per-block=1_num-first-layer-channels=064/model.h5"...
Writing metadata to: "/scratch1/RDARCH/rda-ghpcs/Ryan.Lagerquist/ml4rt_models/2022paper_experiment_sw_plusplus/templates/depth=3_num-conv-layers-per-block=1_num-first-layer-channels=064/model_metadata.dill"...
Model: "model_5"
__________________________________________________________________________________________________
Layer (type)                    Output Shape         Param #     Connected to                     
==================================================================================================
input_6 (InputLayer)            [(None, 127, 26)]    0                                            
__________________________________________________________________________________________________
block0-0_conv0 (Conv1D)         (None, 127, 128)     10112       input_6[0][0]                    
__________________________________________________________________________________________________
block0-0_conv0_activation (Leak (None, 127, 128)     0           block0-0_conv0[0][0]             
__________________________________________________________________________________________________
block0-0_conv0_bn (BatchNormali (None, 127, 128)     512         block0-0_conv0_activation[0][0]  
__________________________________________________________________________________________________
block0-0_pooling (MaxPooling1D) (None, 63, 128)      0           block0-0_conv0_bn[0][0]          
__________________________________________________________________________________________________
block1-0_conv0 (Conv1D)         (None, 63, 256)      98560       block0-0_pooling[0][0]           
__________________________________________________________________________________________________
block1-0_conv0_activation (Leak (None, 63, 256)      0           block1-0_conv0[0][0]             
__________________________________________________________________________________________________
block1-0_conv0_bn (BatchNormali (None, 63, 256)      1024        block1-0_conv0_activation[0][0]  
__________________________________________________________________________________________________
block1-0_pooling (MaxPooling1D) (None, 31, 256)      0           block1-0_conv0_bn[0][0]          
__________________________________________________________________________________________________
block2-0_conv0 (Conv1D)         (None, 31, 512)      393728      block1-0_pooling[0][0]           
__________________________________________________________________________________________________
block2-0_conv0_activation (Leak (None, 31, 512)      0           block2-0_conv0[0][0]             
__________________________________________________________________________________________________
block2-0_conv0_bn (BatchNormali (None, 31, 512)      2048        block2-0_conv0_activation[0][0]  
__________________________________________________________________________________________________
block2-0_pooling (MaxPooling1D) (None, 15, 512)      0           block2-0_conv0_bn[0][0]          
__________________________________________________________________________________________________
block3-0_conv0 (Conv1D)         (None, 15, 1024)     1573888     block2-0_pooling[0][0]           
__________________________________________________________________________________________________
block3-0_conv0_activation (Leak (None, 15, 1024)     0           block3-0_conv0[0][0]             
__________________________________________________________________________________________________
block3-0_conv0_bn (BatchNormali (None, 15, 1024)     4096        block3-0_conv0_activation[0][0]  
__________________________________________________________________________________________________
block2-1_upsampling (UpSampling (None, 30, 1024)     0           block3-0_conv0_bn[0][0]          
__________________________________________________________________________________________________
block2-1_upconv (Conv1D)        (None, 30, 512)      1573376     block2-1_upsampling[0][0]        
__________________________________________________________________________________________________
block2-1_upconv_activation (Lea (None, 30, 512)      0           block2-1_upconv[0][0]            
__________________________________________________________________________________________________
block2-1_upconv_padding (ZeroPa (None, 31, 512)      0           block2-1_upconv_activation[0][0] 
__________________________________________________________________________________________________
block1-1_upsampling (UpSampling (None, 62, 512)      0           block2-0_conv0_bn[0][0]          
__________________________________________________________________________________________________
block2-1_skip (Concatenate)     (None, 31, 1024)     0           block2-0_conv0_bn[0][0]          
                                                                 block2-1_upconv_padding[0][0]    
__________________________________________________________________________________________________
block1-1_upconv (Conv1D)        (None, 62, 256)      393472      block1-1_upsampling[0][0]        
__________________________________________________________________________________________________
block2-1_skipconv0 (Conv1D)     (None, 31, 512)      1573376     block2-1_skip[0][0]              
__________________________________________________________________________________________________
block1-1_upconv_activation (Lea (None, 62, 256)      0           block1-1_upconv[0][0]            
__________________________________________________________________________________________________
block2-1_skipconv0_activation ( (None, 31, 512)      0           block2-1_skipconv0[0][0]         
__________________________________________________________________________________________________
block1-1_upconv_padding (ZeroPa (None, 63, 256)      0           block1-1_upconv_activation[0][0] 
__________________________________________________________________________________________________
block2-1_skipconv0_bn (BatchNor (None, 31, 512)      2048        block2-1_skipconv0_activation[0][
__________________________________________________________________________________________________
block0-1_upsampling (UpSampling (None, 126, 256)     0           block1-0_conv0_bn[0][0]          
__________________________________________________________________________________________________
block1-1_skip (Concatenate)     (None, 63, 512)      0           block1-0_conv0_bn[0][0]          
                                                                 block1-1_upconv_padding[0][0]    
__________________________________________________________________________________________________
block1-2_upsampling (UpSampling (None, 62, 512)      0           block2-1_skipconv0_bn[0][0]      
__________________________________________________________________________________________________
block0-1_upconv (Conv1D)        (None, 126, 128)     98432       block0-1_upsampling[0][0]        
__________________________________________________________________________________________________
block1-1_skipconv0 (Conv1D)     (None, 63, 256)      393472      block1-1_skip[0][0]              
__________________________________________________________________________________________________
block1-2_upconv (Conv1D)        (None, 62, 256)      393472      block1-2_upsampling[0][0]        
__________________________________________________________________________________________________
block0-1_upconv_activation (Lea (None, 126, 128)     0           block0-1_upconv[0][0]            
__________________________________________________________________________________________________
block1-1_skipconv0_activation ( (None, 63, 256)      0           block1-1_skipconv0[0][0]         
__________________________________________________________________________________________________
block1-2_upconv_activation (Lea (None, 62, 256)      0           block1-2_upconv[0][0]            
__________________________________________________________________________________________________
block0-1_upconv_padding (ZeroPa (None, 127, 128)     0           block0-1_upconv_activation[0][0] 
__________________________________________________________________________________________________
block1-1_skipconv0_bn (BatchNor (None, 63, 256)      1024        block1-1_skipconv0_activation[0][
__________________________________________________________________________________________________
block1-2_upconv_padding (ZeroPa (None, 63, 256)      0           block1-2_upconv_activation[0][0] 
__________________________________________________________________________________________________
block0-1_skip (Concatenate)     (None, 127, 256)     0           block0-0_conv0_bn[0][0]          
                                                                 block0-1_upconv_padding[0][0]    
__________________________________________________________________________________________________
block0-2_upsampling (UpSampling (None, 126, 256)     0           block1-1_skipconv0_bn[0][0]      
__________________________________________________________________________________________________
block1-2_skip (Concatenate)     (None, 63, 768)      0           block1-0_conv0_bn[0][0]          
                                                                 block1-1_skipconv0_bn[0][0]      
                                                                 block1-2_upconv_padding[0][0]    
__________________________________________________________________________________________________
block0-1_skipconv0 (Conv1D)     (None, 127, 128)     98432       block0-1_skip[0][0]              
__________________________________________________________________________________________________
block0-2_upconv (Conv1D)        (None, 126, 128)     98432       block0-2_upsampling[0][0]        
__________________________________________________________________________________________________
block1-2_skipconv0 (Conv1D)     (None, 63, 256)      590080      block1-2_skip[0][0]              
__________________________________________________________________________________________________
block0-1_skipconv0_activation ( (None, 127, 128)     0           block0-1_skipconv0[0][0]         
__________________________________________________________________________________________________
block0-2_upconv_activation (Lea (None, 126, 128)     0           block0-2_upconv[0][0]            
__________________________________________________________________________________________________
block1-2_skipconv0_activation ( (None, 63, 256)      0           block1-2_skipconv0[0][0]         
__________________________________________________________________________________________________
block0-1_skipconv0_bn (BatchNor (None, 127, 128)     512         block0-1_skipconv0_activation[0][
__________________________________________________________________________________________________
block0-2_upconv_padding (ZeroPa (None, 127, 128)     0           block0-2_upconv_activation[0][0] 
__________________________________________________________________________________________________
block1-2_skipconv0_bn (BatchNor (None, 63, 256)      1024        block1-2_skipconv0_activation[0][
__________________________________________________________________________________________________
flatten_5 (Flatten)             (None, 15360)        0           block3-0_conv0_bn[0][0]          
__________________________________________________________________________________________________
block0-2_skip (Concatenate)     (None, 127, 384)     0           block0-0_conv0_bn[0][0]          
                                                                 block0-1_skipconv0_bn[0][0]      
                                                                 block0-2_upconv_padding[0][0]    
__________________________________________________________________________________________________
block0-3_upsampling (UpSampling (None, 126, 256)     0           block1-2_skipconv0_bn[0][0]      
__________________________________________________________________________________________________
dense_20 (Dense)                (None, 1641)         25207401    flatten_5[0][0]                  
__________________________________________________________________________________________________
block0-2_skipconv0 (Conv1D)     (None, 127, 128)     147584      block0-2_skip[0][0]              
__________________________________________________________________________________________________
block0-3_upconv (Conv1D)        (None, 126, 128)     98432       block0-3_upsampling[0][0]        
__________________________________________________________________________________________________
leaky_re_lu_15 (LeakyReLU)      (None, 1641)         0           dense_20[0][0]                   
__________________________________________________________________________________________________
block0-2_skipconv0_activation ( (None, 127, 128)     0           block0-2_skipconv0[0][0]         
__________________________________________________________________________________________________
block0-3_upconv_activation (Lea (None, 126, 128)     0           block0-3_upconv[0][0]            
__________________________________________________________________________________________________
batch_normalization_15 (BatchNo (None, 1641)         6564        leaky_re_lu_15[0][0]             
__________________________________________________________________________________________________
block0-2_skipconv0_bn (BatchNor (None, 127, 128)     512         block0-2_skipconv0_activation[0][
__________________________________________________________________________________________________
block0-3_upconv_padding (ZeroPa (None, 127, 128)     0           block0-3_upconv_activation[0][0] 
__________________________________________________________________________________________________
dense_21 (Dense)                (None, 175)          287350      batch_normalization_15[0][0]     
__________________________________________________________________________________________________
block0-3_skip (Concatenate)     (None, 127, 512)     0           block0-0_conv0_bn[0][0]          
                                                                 block0-1_skipconv0_bn[0][0]      
                                                                 block0-2_skipconv0_bn[0][0]      
                                                                 block0-3_upconv_padding[0][0]    
__________________________________________________________________________________________________
leaky_re_lu_16 (LeakyReLU)      (None, 175)          0           dense_21[0][0]                   
__________________________________________________________________________________________________
block0-3_skipconv0 (Conv1D)     (None, 127, 128)     196736      block0-3_skip[0][0]              
__________________________________________________________________________________________________
batch_normalization_16 (BatchNo (None, 175)          700         leaky_re_lu_16[0][0]             
__________________________________________________________________________________________________
block0-3_skipconv0_activation ( (None, 127, 128)     0           block0-3_skipconv0[0][0]         
__________________________________________________________________________________________________
dense_22 (Dense)                (None, 19)           3344        batch_normalization_16[0][0]     
__________________________________________________________________________________________________
block0-3_skipconv0_bn (BatchNor (None, 127, 128)     512         block0-3_skipconv0_activation[0][
__________________________________________________________________________________________________
leaky_re_lu_17 (LeakyReLU)      (None, 19)           0           dense_22[0][0]                   
__________________________________________________________________________________________________
last_conv (Conv1D)              (None, 127, 1)       129         block0-3_skipconv0_bn[0][0]      
__________________________________________________________________________________________________
batch_normalization_17 (BatchNo (None, 19)           76          leaky_re_lu_17[0][0]             
__________________________________________________________________________________________________
last_conv_activation (ReLU)     (None, 127, 1)       0           last_conv[0][0]                  
__________________________________________________________________________________________________
dense_23 (Dense)                (None, 2)            40          batch_normalization_17[0][0]     
__________________________________________________________________________________________________
conv_output (Lambda)            (None, 127, 1)       0           last_conv_activation[0][0]       
__________________________________________________________________________________________________
dense_output (ReLU)             (None, 2)            0           dense_23[0][0]                   
==================================================================================================
Total params: 33,250,500
Trainable params: 33,240,174
Non-trainable params: 10,326
__________________________________________________________________________________________________
Writing model to: "/scratch1/RDARCH/rda-ghpcs/Ryan.Lagerquist/ml4rt_models/2022paper_experiment_sw_plusplus/templates/depth=3_num-conv-layers-per-block=1_num-first-layer-channels=128/model.h5"...
Writing metadata to: "/scratch1/RDARCH/rda-ghpcs/Ryan.Lagerquist/ml4rt_models/2022paper_experiment_sw_plusplus/templates/depth=3_num-conv-layers-per-block=1_num-first-layer-channels=128/model_metadata.dill"...
Model: "model_6"
__________________________________________________________________________________________________
Layer (type)                    Output Shape         Param #     Connected to                     
==================================================================================================
input_7 (InputLayer)            [(None, 127, 26)]    0                                            
__________________________________________________________________________________________________
block0-0_conv0 (Conv1D)         (None, 127, 4)       316         input_7[0][0]                    
__________________________________________________________________________________________________
block0-0_conv0_activation (Leak (None, 127, 4)       0           block0-0_conv0[0][0]             
__________________________________________________________________________________________________
block0-0_conv0_bn (BatchNormali (None, 127, 4)       16          block0-0_conv0_activation[0][0]  
__________________________________________________________________________________________________
block0-0_conv1 (Conv1D)         (None, 127, 4)       52          block0-0_conv0_bn[0][0]          
__________________________________________________________________________________________________
block0-0_conv1_activation (Leak (None, 127, 4)       0           block0-0_conv1[0][0]             
__________________________________________________________________________________________________
block0-0_conv1_bn (BatchNormali (None, 127, 4)       16          block0-0_conv1_activation[0][0]  
__________________________________________________________________________________________________
block0-0_pooling (MaxPooling1D) (None, 63, 4)        0           block0-0_conv1_bn[0][0]          
__________________________________________________________________________________________________
block1-0_conv0 (Conv1D)         (None, 63, 8)        104         block0-0_pooling[0][0]           
__________________________________________________________________________________________________
block1-0_conv0_activation (Leak (None, 63, 8)        0           block1-0_conv0[0][0]             
__________________________________________________________________________________________________
block1-0_conv0_bn (BatchNormali (None, 63, 8)        32          block1-0_conv0_activation[0][0]  
__________________________________________________________________________________________________
block1-0_conv1 (Conv1D)         (None, 63, 8)        200         block1-0_conv0_bn[0][0]          
__________________________________________________________________________________________________
block1-0_conv1_activation (Leak (None, 63, 8)        0           block1-0_conv1[0][0]             
__________________________________________________________________________________________________
block1-0_conv1_bn (BatchNormali (None, 63, 8)        32          block1-0_conv1_activation[0][0]  
__________________________________________________________________________________________________
block1-0_pooling (MaxPooling1D) (None, 31, 8)        0           block1-0_conv1_bn[0][0]          
__________________________________________________________________________________________________
block2-0_conv0 (Conv1D)         (None, 31, 16)       400         block1-0_pooling[0][0]           
__________________________________________________________________________________________________
block2-0_conv0_activation (Leak (None, 31, 16)       0           block2-0_conv0[0][0]             
__________________________________________________________________________________________________
block2-0_conv0_bn (BatchNormali (None, 31, 16)       64          block2-0_conv0_activation[0][0]  
__________________________________________________________________________________________________
block2-0_conv1 (Conv1D)         (None, 31, 16)       784         block2-0_conv0_bn[0][0]          
__________________________________________________________________________________________________
block2-0_conv1_activation (Leak (None, 31, 16)       0           block2-0_conv1[0][0]             
__________________________________________________________________________________________________
block2-0_conv1_bn (BatchNormali (None, 31, 16)       64          block2-0_conv1_activation[0][0]  
__________________________________________________________________________________________________
block2-0_pooling (MaxPooling1D) (None, 15, 16)       0           block2-0_conv1_bn[0][0]          
__________________________________________________________________________________________________
block3-0_conv0 (Conv1D)         (None, 15, 32)       1568        block2-0_pooling[0][0]           
__________________________________________________________________________________________________
block3-0_conv0_activation (Leak (None, 15, 32)       0           block3-0_conv0[0][0]             
__________________________________________________________________________________________________
block3-0_conv0_bn (BatchNormali (None, 15, 32)       128         block3-0_conv0_activation[0][0]  
__________________________________________________________________________________________________
block3-0_conv1 (Conv1D)         (None, 15, 32)       3104        block3-0_conv0_bn[0][0]          
__________________________________________________________________________________________________
block3-0_conv1_activation (Leak (None, 15, 32)       0           block3-0_conv1[0][0]             
__________________________________________________________________________________________________
block3-0_conv1_bn (BatchNormali (None, 15, 32)       128         block3-0_conv1_activation[0][0]  
__________________________________________________________________________________________________
block2-1_upsampling (UpSampling (None, 30, 32)       0           block3-0_conv1_bn[0][0]          
__________________________________________________________________________________________________
block2-1_upconv (Conv1D)        (None, 30, 16)       1552        block2-1_upsampling[0][0]        
__________________________________________________________________________________________________
block2-1_upconv_activation (Lea (None, 30, 16)       0           block2-1_upconv[0][0]            
__________________________________________________________________________________________________
block2-1_upconv_padding (ZeroPa (None, 31, 16)       0           block2-1_upconv_activation[0][0] 
__________________________________________________________________________________________________
block1-1_upsampling (UpSampling (None, 62, 16)       0           block2-0_conv1_bn[0][0]          
__________________________________________________________________________________________________
block2-1_skip (Concatenate)     (None, 31, 32)       0           block2-0_conv1_bn[0][0]          
                                                                 block2-1_upconv_padding[0][0]    
__________________________________________________________________________________________________
block1-1_upconv (Conv1D)        (None, 62, 8)        392         block1-1_upsampling[0][0]        
__________________________________________________________________________________________________
block2-1_skipconv0 (Conv1D)     (None, 31, 16)       1552        block2-1_skip[0][0]              
__________________________________________________________________________________________________
block1-1_upconv_activation (Lea (None, 62, 8)        0           block1-1_upconv[0][0]            
__________________________________________________________________________________________________
block2-1_skipconv0_activation ( (None, 31, 16)       0           block2-1_skipconv0[0][0]         
__________________________________________________________________________________________________
block1-1_upconv_padding (ZeroPa (None, 63, 8)        0           block1-1_upconv_activation[0][0] 
__________________________________________________________________________________________________
block2-1_skipconv0_bn (BatchNor (None, 31, 16)       64          block2-1_skipconv0_activation[0][
__________________________________________________________________________________________________
block0-1_upsampling (UpSampling (None, 126, 8)       0           block1-0_conv1_bn[0][0]          
__________________________________________________________________________________________________
block1-1_skip (Concatenate)     (None, 63, 16)       0           block1-0_conv1_bn[0][0]          
                                                                 block1-1_upconv_padding[0][0]    
__________________________________________________________________________________________________
block2-1_skipconv1 (Conv1D)     (None, 31, 16)       784         block2-1_skipconv0_bn[0][0]      
__________________________________________________________________________________________________
block0-1_upconv (Conv1D)        (None, 126, 4)       100         block0-1_upsampling[0][0]        
__________________________________________________________________________________________________
block1-1_skipconv0 (Conv1D)     (None, 63, 8)        392         block1-1_skip[0][0]              
__________________________________________________________________________________________________
block2-1_skipconv1_activation ( (None, 31, 16)       0           block2-1_skipconv1[0][0]         
__________________________________________________________________________________________________
block0-1_upconv_activation (Lea (None, 126, 4)       0           block0-1_upconv[0][0]            
__________________________________________________________________________________________________
block1-1_skipconv0_activation ( (None, 63, 8)        0           block1-1_skipconv0[0][0]         
__________________________________________________________________________________________________
block2-1_skipconv1_bn (BatchNor (None, 31, 16)       64          block2-1_skipconv1_activation[0][
__________________________________________________________________________________________________
block0-1_upconv_padding (ZeroPa (None, 127, 4)       0           block0-1_upconv_activation[0][0] 
__________________________________________________________________________________________________
block1-1_skipconv0_bn (BatchNor (None, 63, 8)        32          block1-1_skipconv0_activation[0][
__________________________________________________________________________________________________
block1-2_upsampling (UpSampling (None, 62, 16)       0           block2-1_skipconv1_bn[0][0]      
__________________________________________________________________________________________________
block0-1_skip (Concatenate)     (None, 127, 8)       0           block0-0_conv1_bn[0][0]          
                                                                 block0-1_upconv_padding[0][0]    
__________________________________________________________________________________________________
block1-1_skipconv1 (Conv1D)     (None, 63, 8)        200         block1-1_skipconv0_bn[0][0]      
__________________________________________________________________________________________________
block1-2_upconv (Conv1D)        (None, 62, 8)        392         block1-2_upsampling[0][0]        
__________________________________________________________________________________________________
block0-1_skipconv0 (Conv1D)     (None, 127, 4)       100         block0-1_skip[0][0]              
__________________________________________________________________________________________________
block1-1_skipconv1_activation ( (None, 63, 8)        0           block1-1_skipconv1[0][0]         
__________________________________________________________________________________________________
block1-2_upconv_activation (Lea (None, 62, 8)        0           block1-2_upconv[0][0]            
__________________________________________________________________________________________________
block0-1_skipconv0_activation ( (None, 127, 4)       0           block0-1_skipconv0[0][0]         
__________________________________________________________________________________________________
block1-1_skipconv1_bn (BatchNor (None, 63, 8)        32          block1-1_skipconv1_activation[0][
__________________________________________________________________________________________________
block1-2_upconv_padding (ZeroPa (None, 63, 8)        0           block1-2_upconv_activation[0][0] 
__________________________________________________________________________________________________
block0-1_skipconv0_bn (BatchNor (None, 127, 4)       16          block0-1_skipconv0_activation[0][
__________________________________________________________________________________________________
block0-2_upsampling (UpSampling (None, 126, 8)       0           block1-1_skipconv1_bn[0][0]      
__________________________________________________________________________________________________
block1-2_skip (Concatenate)     (None, 63, 24)       0           block1-0_conv1_bn[0][0]          
                                                                 block1-1_skipconv1_bn[0][0]      
                                                                 block1-2_upconv_padding[0][0]    
__________________________________________________________________________________________________
block0-1_skipconv1 (Conv1D)     (None, 127, 4)       52          block0-1_skipconv0_bn[0][0]      
__________________________________________________________________________________________________
block0-2_upconv (Conv1D)        (None, 126, 4)       100         block0-2_upsampling[0][0]        
__________________________________________________________________________________________________
block1-2_skipconv0 (Conv1D)     (None, 63, 8)        584         block1-2_skip[0][0]              
__________________________________________________________________________________________________
block0-1_skipconv1_activation ( (None, 127, 4)       0           block0-1_skipconv1[0][0]         
__________________________________________________________________________________________________
block0-2_upconv_activation (Lea (None, 126, 4)       0           block0-2_upconv[0][0]            
__________________________________________________________________________________________________
block1-2_skipconv0_activation ( (None, 63, 8)        0           block1-2_skipconv0[0][0]         
__________________________________________________________________________________________________
block0-1_skipconv1_bn (BatchNor (None, 127, 4)       16          block0-1_skipconv1_activation[0][
__________________________________________________________________________________________________
block0-2_upconv_padding (ZeroPa (None, 127, 4)       0           block0-2_upconv_activation[0][0] 
__________________________________________________________________________________________________
block1-2_skipconv0_bn (BatchNor (None, 63, 8)        32          block1-2_skipconv0_activation[0][
__________________________________________________________________________________________________
block0-2_skip (Concatenate)     (None, 127, 12)      0           block0-0_conv1_bn[0][0]          
                                                                 block0-1_skipconv1_bn[0][0]      
                                                                 block0-2_upconv_padding[0][0]    
__________________________________________________________________________________________________
block1-2_skipconv1 (Conv1D)     (None, 63, 8)        200         block1-2_skipconv0_bn[0][0]      
__________________________________________________________________________________________________
block0-2_skipconv0 (Conv1D)     (None, 127, 4)       148         block0-2_skip[0][0]              
__________________________________________________________________________________________________
block1-2_skipconv1_activation ( (None, 63, 8)        0           block1-2_skipconv1[0][0]         
__________________________________________________________________________________________________
block0-2_skipconv0_activation ( (None, 127, 4)       0           block0-2_skipconv0[0][0]         
__________________________________________________________________________________________________
block1-2_skipconv1_bn (BatchNor (None, 63, 8)        32          block1-2_skipconv1_activation[0][
__________________________________________________________________________________________________
block0-2_skipconv0_bn (BatchNor (None, 127, 4)       16          block0-2_skipconv0_activation[0][
__________________________________________________________________________________________________
block0-3_upsampling (UpSampling (None, 126, 8)       0           block1-2_skipconv1_bn[0][0]      
__________________________________________________________________________________________________
block0-2_skipconv1 (Conv1D)     (None, 127, 4)       52          block0-2_skipconv0_bn[0][0]      
__________________________________________________________________________________________________
block0-3_upconv (Conv1D)        (None, 126, 4)       100         block0-3_upsampling[0][0]        
__________________________________________________________________________________________________
block0-2_skipconv1_activation ( (None, 127, 4)       0           block0-2_skipconv1[0][0]         
__________________________________________________________________________________________________
block0-3_upconv_activation (Lea (None, 126, 4)       0           block0-3_upconv[0][0]            
__________________________________________________________________________________________________
flatten_6 (Flatten)             (None, 480)          0           block3-0_conv1_bn[0][0]          
__________________________________________________________________________________________________
block0-2_skipconv1_bn (BatchNor (None, 127, 4)       16          block0-2_skipconv1_activation[0][
__________________________________________________________________________________________________
block0-3_upconv_padding (ZeroPa (None, 127, 4)       0           block0-3_upconv_activation[0][0] 
__________________________________________________________________________________________________
dense_24 (Dense)                (None, 122)          58682       flatten_6[0][0]                  
__________________________________________________________________________________________________
block0-3_skip (Concatenate)     (None, 127, 16)      0           block0-0_conv1_bn[0][0]          
                                                                 block0-1_skipconv1_bn[0][0]      
                                                                 block0-2_skipconv1_bn[0][0]      
                                                                 block0-3_upconv_padding[0][0]    
__________________________________________________________________________________________________
leaky_re_lu_18 (LeakyReLU)      (None, 122)          0           dense_24[0][0]                   
__________________________________________________________________________________________________
block0-3_skipconv0 (Conv1D)     (None, 127, 4)       196         block0-3_skip[0][0]              
__________________________________________________________________________________________________
batch_normalization_18 (BatchNo (None, 122)          488         leaky_re_lu_18[0][0]             
__________________________________________________________________________________________________
block0-3_skipconv0_activation ( (None, 127, 4)       0           block0-3_skipconv0[0][0]         
__________________________________________________________________________________________________
dense_25 (Dense)                (None, 31)           3813        batch_normalization_18[0][0]     
__________________________________________________________________________________________________
block0-3_skipconv0_bn (BatchNor (None, 127, 4)       16          block0-3_skipconv0_activation[0][
__________________________________________________________________________________________________
leaky_re_lu_19 (LeakyReLU)      (None, 31)           0           dense_25[0][0]                   
__________________________________________________________________________________________________
block0-3_skipconv1 (Conv1D)     (None, 127, 4)       52          block0-3_skipconv0_bn[0][0]      
__________________________________________________________________________________________________
batch_normalization_19 (BatchNo (None, 31)           124         leaky_re_lu_19[0][0]             
__________________________________________________________________________________________________
block0-3_skipconv1_activation ( (None, 127, 4)       0           block0-3_skipconv1[0][0]         
__________________________________________________________________________________________________
dense_26 (Dense)                (None, 8)            256         batch_normalization_19[0][0]     
__________________________________________________________________________________________________
block0-3_skipconv1_bn (BatchNor (None, 127, 4)       16          block0-3_skipconv1_activation[0][
__________________________________________________________________________________________________
leaky_re_lu_20 (LeakyReLU)      (None, 8)            0           dense_26[0][0]                   
__________________________________________________________________________________________________
last_conv (Conv1D)              (None, 127, 1)       5           block0-3_skipconv1_bn[0][0]      
__________________________________________________________________________________________________
batch_normalization_20 (BatchNo (None, 8)            32          leaky_re_lu_20[0][0]             
__________________________________________________________________________________________________
last_conv_activation (ReLU)     (None, 127, 1)       0           last_conv[0][0]                  
__________________________________________________________________________________________________
dense_27 (Dense)                (None, 2)            18          batch_normalization_20[0][0]     
__________________________________________________________________________________________________
conv_output (Lambda)            (None, 127, 1)       0           last_conv_activation[0][0]       
__________________________________________________________________________________________________
dense_output (ReLU)             (None, 2)            0           dense_27[0][0]                   
==================================================================================================
Total params: 77,726
Trainable params: 76,988
Non-trainable params: 738
__________________________________________________________________________________________________
Writing model to: "/scratch1/RDARCH/rda-ghpcs/Ryan.Lagerquist/ml4rt_models/2022paper_experiment_sw_plusplus/templates/depth=3_num-conv-layers-per-block=2_num-first-layer-channels=004/model.h5"...
Writing metadata to: "/scratch1/RDARCH/rda-ghpcs/Ryan.Lagerquist/ml4rt_models/2022paper_experiment_sw_plusplus/templates/depth=3_num-conv-layers-per-block=2_num-first-layer-channels=004/model_metadata.dill"...
Model: "model_7"
__________________________________________________________________________________________________
Layer (type)                    Output Shape         Param #     Connected to                     
==================================================================================================
input_8 (InputLayer)            [(None, 127, 26)]    0                                            
__________________________________________________________________________________________________
block0-0_conv0 (Conv1D)         (None, 127, 8)       632         input_8[0][0]                    
__________________________________________________________________________________________________
block0-0_conv0_activation (Leak (None, 127, 8)       0           block0-0_conv0[0][0]             
__________________________________________________________________________________________________
block0-0_conv0_bn (BatchNormali (None, 127, 8)       32          block0-0_conv0_activation[0][0]  
__________________________________________________________________________________________________
block0-0_conv1 (Conv1D)         (None, 127, 8)       200         block0-0_conv0_bn[0][0]          
__________________________________________________________________________________________________
block0-0_conv1_activation (Leak (None, 127, 8)       0           block0-0_conv1[0][0]             
__________________________________________________________________________________________________
block0-0_conv1_bn (BatchNormali (None, 127, 8)       32          block0-0_conv1_activation[0][0]  
__________________________________________________________________________________________________
block0-0_pooling (MaxPooling1D) (None, 63, 8)        0           block0-0_conv1_bn[0][0]          
__________________________________________________________________________________________________
block1-0_conv0 (Conv1D)         (None, 63, 16)       400         block0-0_pooling[0][0]           
__________________________________________________________________________________________________
block1-0_conv0_activation (Leak (None, 63, 16)       0           block1-0_conv0[0][0]             
__________________________________________________________________________________________________
block1-0_conv0_bn (BatchNormali (None, 63, 16)       64          block1-0_conv0_activation[0][0]  
__________________________________________________________________________________________________
block1-0_conv1 (Conv1D)         (None, 63, 16)       784         block1-0_conv0_bn[0][0]          
__________________________________________________________________________________________________
block1-0_conv1_activation (Leak (None, 63, 16)       0           block1-0_conv1[0][0]             
__________________________________________________________________________________________________
block1-0_conv1_bn (BatchNormali (None, 63, 16)       64          block1-0_conv1_activation[0][0]  
__________________________________________________________________________________________________
block1-0_pooling (MaxPooling1D) (None, 31, 16)       0           block1-0_conv1_bn[0][0]          
__________________________________________________________________________________________________
block2-0_conv0 (Conv1D)         (None, 31, 32)       1568        block1-0_pooling[0][0]           
__________________________________________________________________________________________________
block2-0_conv0_activation (Leak (None, 31, 32)       0           block2-0_conv0[0][0]             
__________________________________________________________________________________________________
block2-0_conv0_bn (BatchNormali (None, 31, 32)       128         block2-0_conv0_activation[0][0]  
__________________________________________________________________________________________________
block2-0_conv1 (Conv1D)         (None, 31, 32)       3104        block2-0_conv0_bn[0][0]          
__________________________________________________________________________________________________
block2-0_conv1_activation (Leak (None, 31, 32)       0           block2-0_conv1[0][0]             
__________________________________________________________________________________________________
block2-0_conv1_bn (BatchNormali (None, 31, 32)       128         block2-0_conv1_activation[0][0]  
__________________________________________________________________________________________________
block2-0_pooling (MaxPooling1D) (None, 15, 32)       0           block2-0_conv1_bn[0][0]          
__________________________________________________________________________________________________
block3-0_conv0 (Conv1D)         (None, 15, 64)       6208        block2-0_pooling[0][0]           
__________________________________________________________________________________________________
block3-0_conv0_activation (Leak (None, 15, 64)       0           block3-0_conv0[0][0]             
__________________________________________________________________________________________________
block3-0_conv0_bn (BatchNormali (None, 15, 64)       256         block3-0_conv0_activation[0][0]  
__________________________________________________________________________________________________
block3-0_conv1 (Conv1D)         (None, 15, 64)       12352       block3-0_conv0_bn[0][0]          
__________________________________________________________________________________________________
block3-0_conv1_activation (Leak (None, 15, 64)       0           block3-0_conv1[0][0]             
__________________________________________________________________________________________________
block3-0_conv1_bn (BatchNormali (None, 15, 64)       256         block3-0_conv1_activation[0][0]  
__________________________________________________________________________________________________
block2-1_upsampling (UpSampling (None, 30, 64)       0           block3-0_conv1_bn[0][0]          
__________________________________________________________________________________________________
block2-1_upconv (Conv1D)        (None, 30, 32)       6176        block2-1_upsampling[0][0]        
__________________________________________________________________________________________________
block2-1_upconv_activation (Lea (None, 30, 32)       0           block2-1_upconv[0][0]            
__________________________________________________________________________________________________
block2-1_upconv_padding (ZeroPa (None, 31, 32)       0           block2-1_upconv_activation[0][0] 
__________________________________________________________________________________________________
block1-1_upsampling (UpSampling (None, 62, 32)       0           block2-0_conv1_bn[0][0]          
__________________________________________________________________________________________________
block2-1_skip (Concatenate)     (None, 31, 64)       0           block2-0_conv1_bn[0][0]          
                                                                 block2-1_upconv_padding[0][0]    
__________________________________________________________________________________________________
block1-1_upconv (Conv1D)        (None, 62, 16)       1552        block1-1_upsampling[0][0]        
__________________________________________________________________________________________________
block2-1_skipconv0 (Conv1D)     (None, 31, 32)       6176        block2-1_skip[0][0]              
__________________________________________________________________________________________________
block1-1_upconv_activation (Lea (None, 62, 16)       0           block1-1_upconv[0][0]            
__________________________________________________________________________________________________
block2-1_skipconv0_activation ( (None, 31, 32)       0           block2-1_skipconv0[0][0]         
__________________________________________________________________________________________________
block1-1_upconv_padding (ZeroPa (None, 63, 16)       0           block1-1_upconv_activation[0][0] 
__________________________________________________________________________________________________
block2-1_skipconv0_bn (BatchNor (None, 31, 32)       128         block2-1_skipconv0_activation[0][
__________________________________________________________________________________________________
block0-1_upsampling (UpSampling (None, 126, 16)      0           block1-0_conv1_bn[0][0]          
__________________________________________________________________________________________________
block1-1_skip (Concatenate)     (None, 63, 32)       0           block1-0_conv1_bn[0][0]          
                                                                 block1-1_upconv_padding[0][0]    
__________________________________________________________________________________________________
block2-1_skipconv1 (Conv1D)     (None, 31, 32)       3104        block2-1_skipconv0_bn[0][0]      
__________________________________________________________________________________________________
block0-1_upconv (Conv1D)        (None, 126, 8)       392         block0-1_upsampling[0][0]        
__________________________________________________________________________________________________
block1-1_skipconv0 (Conv1D)     (None, 63, 16)       1552        block1-1_skip[0][0]              
__________________________________________________________________________________________________
block2-1_skipconv1_activation ( (None, 31, 32)       0           block2-1_skipconv1[0][0]         
__________________________________________________________________________________________________
block0-1_upconv_activation (Lea (None, 126, 8)       0           block0-1_upconv[0][0]            
__________________________________________________________________________________________________
block1-1_skipconv0_activation ( (None, 63, 16)       0           block1-1_skipconv0[0][0]         
__________________________________________________________________________________________________
block2-1_skipconv1_bn (BatchNor (None, 31, 32)       128         block2-1_skipconv1_activation[0][
__________________________________________________________________________________________________
block0-1_upconv_padding (ZeroPa (None, 127, 8)       0           block0-1_upconv_activation[0][0] 
__________________________________________________________________________________________________
block1-1_skipconv0_bn (BatchNor (None, 63, 16)       64          block1-1_skipconv0_activation[0][
__________________________________________________________________________________________________
block1-2_upsampling (UpSampling (None, 62, 32)       0           block2-1_skipconv1_bn[0][0]      
__________________________________________________________________________________________________
block0-1_skip (Concatenate)     (None, 127, 16)      0           block0-0_conv1_bn[0][0]          
                                                                 block0-1_upconv_padding[0][0]    
__________________________________________________________________________________________________
block1-1_skipconv1 (Conv1D)     (None, 63, 16)       784         block1-1_skipconv0_bn[0][0]      
__________________________________________________________________________________________________
block1-2_upconv (Conv1D)        (None, 62, 16)       1552        block1-2_upsampling[0][0]        
__________________________________________________________________________________________________
block0-1_skipconv0 (Conv1D)     (None, 127, 8)       392         block0-1_skip[0][0]              
__________________________________________________________________________________________________
block1-1_skipconv1_activation ( (None, 63, 16)       0           block1-1_skipconv1[0][0]         
__________________________________________________________________________________________________
block1-2_upconv_activation (Lea (None, 62, 16)       0           block1-2_upconv[0][0]            
__________________________________________________________________________________________________
block0-1_skipconv0_activation ( (None, 127, 8)       0           block0-1_skipconv0[0][0]         
__________________________________________________________________________________________________
block1-1_skipconv1_bn (BatchNor (None, 63, 16)       64          block1-1_skipconv1_activation[0][
__________________________________________________________________________________________________
block1-2_upconv_padding (ZeroPa (None, 63, 16)       0           block1-2_upconv_activation[0][0] 
__________________________________________________________________________________________________
block0-1_skipconv0_bn (BatchNor (None, 127, 8)       32          block0-1_skipconv0_activation[0][
__________________________________________________________________________________________________
block0-2_upsampling (UpSampling (None, 126, 16)      0           block1-1_skipconv1_bn[0][0]      
__________________________________________________________________________________________________
block1-2_skip (Concatenate)     (None, 63, 48)       0           block1-0_conv1_bn[0][0]          
                                                                 block1-1_skipconv1_bn[0][0]      
                                                                 block1-2_upconv_padding[0][0]    
__________________________________________________________________________________________________
block0-1_skipconv1 (Conv1D)     (None, 127, 8)       200         block0-1_skipconv0_bn[0][0]      
__________________________________________________________________________________________________
block0-2_upconv (Conv1D)        (None, 126, 8)       392         block0-2_upsampling[0][0]        
__________________________________________________________________________________________________
block1-2_skipconv0 (Conv1D)     (None, 63, 16)       2320        block1-2_skip[0][0]              
__________________________________________________________________________________________________
block0-1_skipconv1_activation ( (None, 127, 8)       0           block0-1_skipconv1[0][0]         
__________________________________________________________________________________________________
block0-2_upconv_activation (Lea (None, 126, 8)       0           block0-2_upconv[0][0]            
__________________________________________________________________________________________________
block1-2_skipconv0_activation ( (None, 63, 16)       0           block1-2_skipconv0[0][0]         
__________________________________________________________________________________________________
block0-1_skipconv1_bn (BatchNor (None, 127, 8)       32          block0-1_skipconv1_activation[0][
__________________________________________________________________________________________________
block0-2_upconv_padding (ZeroPa (None, 127, 8)       0           block0-2_upconv_activation[0][0] 
__________________________________________________________________________________________________
block1-2_skipconv0_bn (BatchNor (None, 63, 16)       64          block1-2_skipconv0_activation[0][
__________________________________________________________________________________________________
block0-2_skip (Concatenate)     (None, 127, 24)      0           block0-0_conv1_bn[0][0]          
                                                                 block0-1_skipconv1_bn[0][0]      
                                                                 block0-2_upconv_padding[0][0]    
__________________________________________________________________________________________________
block1-2_skipconv1 (Conv1D)     (None, 63, 16)       784         block1-2_skipconv0_bn[0][0]      
__________________________________________________________________________________________________
block0-2_skipconv0 (Conv1D)     (None, 127, 8)       584         block0-2_skip[0][0]              
__________________________________________________________________________________________________
block1-2_skipconv1_activation ( (None, 63, 16)       0           block1-2_skipconv1[0][0]         
__________________________________________________________________________________________________
block0-2_skipconv0_activation ( (None, 127, 8)       0           block0-2_skipconv0[0][0]         
__________________________________________________________________________________________________
block1-2_skipconv1_bn (BatchNor (None, 63, 16)       64          block1-2_skipconv1_activation[0][
__________________________________________________________________________________________________
block0-2_skipconv0_bn (BatchNor (None, 127, 8)       32          block0-2_skipconv0_activation[0][
__________________________________________________________________________________________________
block0-3_upsampling (UpSampling (None, 126, 16)      0           block1-2_skipconv1_bn[0][0]      
__________________________________________________________________________________________________
block0-2_skipconv1 (Conv1D)     (None, 127, 8)       200         block0-2_skipconv0_bn[0][0]      
__________________________________________________________________________________________________
block0-3_upconv (Conv1D)        (None, 126, 8)       392         block0-3_upsampling[0][0]        
__________________________________________________________________________________________________
block0-2_skipconv1_activation ( (None, 127, 8)       0           block0-2_skipconv1[0][0]         
__________________________________________________________________________________________________
block0-3_upconv_activation (Lea (None, 126, 8)       0           block0-3_upconv[0][0]            
__________________________________________________________________________________________________
flatten_7 (Flatten)             (None, 960)          0           block3-0_conv1_bn[0][0]          
__________________________________________________________________________________________________
block0-2_skipconv1_bn (BatchNor (None, 127, 8)       32          block0-2_skipconv1_activation[0][
__________________________________________________________________________________________________
block0-3_upconv_padding (ZeroPa (None, 127, 8)       0           block0-3_upconv_activation[0][0] 
__________________________________________________________________________________________________
dense_28 (Dense)                (None, 205)          197005      flatten_7[0][0]                  
__________________________________________________________________________________________________
block0-3_skip (Concatenate)     (None, 127, 32)      0           block0-0_conv1_bn[0][0]          
                                                                 block0-1_skipconv1_bn[0][0]      
                                                                 block0-2_skipconv1_bn[0][0]      
                                                                 block0-3_upconv_padding[0][0]    
__________________________________________________________________________________________________
leaky_re_lu_21 (LeakyReLU)      (None, 205)          0           dense_28[0][0]                   
__________________________________________________________________________________________________
block0-3_skipconv0 (Conv1D)     (None, 127, 8)       776         block0-3_skip[0][0]              
__________________________________________________________________________________________________
batch_normalization_21 (BatchNo (None, 205)          820         leaky_re_lu_21[0][0]             
__________________________________________________________________________________________________
block0-3_skipconv0_activation ( (None, 127, 8)       0           block0-3_skipconv0[0][0]         
__________________________________________________________________________________________________
dense_29 (Dense)                (None, 44)           9064        batch_normalization_21[0][0]     
__________________________________________________________________________________________________
block0-3_skipconv0_bn (BatchNor (None, 127, 8)       32          block0-3_skipconv0_activation[0][
__________________________________________________________________________________________________
leaky_re_lu_22 (LeakyReLU)      (None, 44)           0           dense_29[0][0]                   
__________________________________________________________________________________________________
block0-3_skipconv1 (Conv1D)     (None, 127, 8)       200         block0-3_skipconv0_bn[0][0]      
__________________________________________________________________________________________________
batch_normalization_22 (BatchNo (None, 44)           176         leaky_re_lu_22[0][0]             
__________________________________________________________________________________________________
block0-3_skipconv1_activation ( (None, 127, 8)       0           block0-3_skipconv1[0][0]         
__________________________________________________________________________________________________
dense_30 (Dense)                (None, 9)            405         batch_normalization_22[0][0]     
…
block4-1_skipconv3 (Conv1D)     (None, 7, 2048)      12584960    block4-1_skipconv2_bn[0][0]      
__________________________________________________________________________________________________
block1-1_upconv_padding (ZeroPa (None, 63, 256)      0           block1-1_upconv_activation[0][0] 
__________________________________________________________________________________________________
block2-1_skipconv0_bn (BatchNor (None, 31, 512)      2048        block2-1_skipconv0_activation[0][
__________________________________________________________________________________________________
block3-1_skipconv2 (Conv1D)     (None, 15, 1024)     3146752     block3-1_skipconv1_bn[0][0]      
__________________________________________________________________________________________________
block4-1_skipconv3_activation ( (None, 7, 2048)      0           block4-1_skipconv3[0][0]         
__________________________________________________________________________________________________
block0-1_upsampling (UpSampling (None, 126, 256)     0           block1-0_conv3_bn[0][0]          
__________________________________________________________________________________________________
block1-1_skip (Concatenate)     (None, 63, 512)      0           block1-0_conv3_bn[0][0]          
                                                                 block1-1_upconv_padding[0][0]    
__________________________________________________________________________________________________
block2-1_skipconv1 (Conv1D)     (None, 31, 512)      786944      block2-1_skipconv0_bn[0][0]      
__________________________________________________________________________________________________
block3-1_skipconv2_activation ( (None, 15, 1024)     0           block3-1_skipconv2[0][0]         
__________________________________________________________________________________________________
block4-1_skipconv3_bn (BatchNor (None, 7, 2048)      8192        block4-1_skipconv3_activation[0][
__________________________________________________________________________________________________
block0-1_upconv (Conv1D)        (None, 126, 128)     98432       block0-1_upsampling[0][0]        
__________________________________________________________________________________________________
block1-1_skipconv0 (Conv1D)     (None, 63, 256)      393472      block1-1_skip[0][0]              
__________________________________________________________________________________________________
block2-1_skipconv1_activation ( (None, 31, 512)      0           block2-1_skipconv1[0][0]         
__________________________________________________________________________________________________
block3-1_skipconv2_bn (BatchNor (None, 15, 1024)     4096        block3-1_skipconv2_activation[0][
__________________________________________________________________________________________________
block3-2_upsampling (UpSampling (None, 14, 2048)     0           block4-1_skipconv3_bn[0][0]      
__________________________________________________________________________________________________
block0-1_upconv_activation (Lea (None, 126, 128)     0           block0-1_upconv[0][0]            
__________________________________________________________________________________________________
block1-1_skipconv0_activation ( (None, 63, 256)      0           block1-1_skipconv0[0][0]         
__________________________________________________________________________________________________
block2-1_skipconv1_bn (BatchNor (None, 31, 512)      2048        block2-1_skipconv1_activation[0][
__________________________________________________________________________________________________
block3-1_skipconv3 (Conv1D)     (None, 15, 1024)     3146752     block3-1_skipconv2_bn[0][0]      
__________________________________________________________________________________________________
block3-2_upconv (Conv1D)        (None, 14, 1024)     6292480     block3-2_upsampling[0][0]        
__________________________________________________________________________________________________
block0-1_upconv_padding (ZeroPa (None, 127, 128)     0           block0-1_upconv_activation[0][0] 
__________________________________________________________________________________________________
block1-1_skipconv0_bn (BatchNor (None, 63, 256)      1024        block1-1_skipconv0_activation[0][
__________________________________________________________________________________________________
block2-1_skipconv2 (Conv1D)     (None, 31, 512)      786944      block2-1_skipconv1_bn[0][0]      
__________________________________________________________________________________________________
block3-1_skipconv3_activation ( (None, 15, 1024)     0           block3-1_skipconv3[0][0]         
__________________________________________________________________________________________________
block3-2_upconv_activation (Lea (None, 14, 1024)     0           block3-2_upconv[0][0]            
__________________________________________________________________________________________________
block0-1_skip (Concatenate)     (None, 127, 256)     0           block0-0_conv3_bn[0][0]          
                                                                 block0-1_upconv_padding[0][0]    
__________________________________________________________________________________________________
block1-1_skipconv1 (Conv1D)     (None, 63, 256)      196864      block1-1_skipconv0_bn[0][0]      
__________________________________________________________________________________________________
block2-1_skipconv2_activation ( (None, 31, 512)      0           block2-1_skipconv2[0][0]         
__________________________________________________________________________________________________
block3-1_skipconv3_bn (BatchNor (None, 15, 1024)     4096        block3-1_skipconv3_activation[0][
__________________________________________________________________________________________________
block3-2_upconv_padding (ZeroPa (None, 15, 1024)     0           block3-2_upconv_activation[0][0] 
__________________________________________________________________________________________________
block0-1_skipconv0 (Conv1D)     (None, 127, 128)     98432       block0-1_skip[0][0]              
__________________________________________________________________________________________________
block1-1_skipconv1_activation ( (None, 63, 256)      0           block1-1_skipconv1[0][0]         
__________________________________________________________________________________________________
block2-1_skipconv2_bn (BatchNor (None, 31, 512)      2048        block2-1_skipconv2_activation[0][
__________________________________________________________________________________________________
block2-2_upsampling (UpSampling (None, 30, 1024)     0           block3-1_skipconv3_bn[0][0]      
__________________________________________________________________________________________________
block3-2_skip (Concatenate)     (None, 15, 3072)     0           block3-0_conv3_bn[0][0]          
                                                                 block3-1_skipconv3_bn[0][0]      
                                                                 block3-2_upconv_padding[0][0]    
__________________________________________________________________________________________________
block0-1_skipconv0_activation ( (None, 127, 128)     0           block0-1_skipconv0[0][0]         
__________________________________________________________________________________________________
block1-1_skipconv1_bn (BatchNor (None, 63, 256)      1024        block1-1_skipconv1_activation[0][
__________________________________________________________________________________________________
block2-1_skipconv3 (Conv1D)     (None, 31, 512)      786944      block2-1_skipconv2_bn[0][0]      
__________________________________________________________________________________________________
block2-2_upconv (Conv1D)        (None, 30, 512)      1573376     block2-2_upsampling[0][0]        
__________________________________________________________________________________________________
block3-2_skipconv0 (Conv1D)     (None, 15, 1024)     9438208     block3-2_skip[0][0]              
__________________________________________________________________________________________________
block0-1_skipconv0_bn (BatchNor (None, 127, 128)     512         block0-1_skipconv0_activation[0][
__________________________________________________________________________________________________
block1-1_skipconv2 (Conv1D)     (None, 63, 256)      196864      block1-1_skipconv1_bn[0][0]      
__________________________________________________________________________________________________
block2-1_skipconv3_activation ( (None, 31, 512)      0           block2-1_skipconv3[0][0]         
__________________________________________________________________________________________________
block2-2_upconv_activation (Lea (None, 30, 512)      0           block2-2_upconv[0][0]            
__________________________________________________________________________________________________
block3-2_skipconv0_activation ( (None, 15, 1024)     0           block3-2_skipconv0[0][0]         
__________________________________________________________________________________________________
block0-1_skipconv1 (Conv1D)     (None, 127, 128)     49280       block0-1_skipconv0_bn[0][0]      
__________________________________________________________________________________________________
block1-1_skipconv2_activation ( (None, 63, 256)      0           block1-1_skipconv2[0][0]         
__________________________________________________________________________________________________
block2-1_skipconv3_bn (BatchNor (None, 31, 512)      2048        block2-1_skipconv3_activation[0][
__________________________________________________________________________________________________
block2-2_upconv_padding (ZeroPa (None, 31, 512)      0           block2-2_upconv_activation[0][0] 
__________________________________________________________________________________________________
block3-2_skipconv0_bn (BatchNor (None, 15, 1024)     4096        block3-2_skipconv0_activation[0][
__________________________________________________________________________________________________
block0-1_skipconv1_activation ( (None, 127, 128)     0           block0-1_skipconv1[0][0]         
__________________________________________________________________________________________________
block1-1_skipconv2_bn (BatchNor (None, 63, 256)      1024        block1-1_skipconv2_activation[0][
__________________________________________________________________________________________________
block1-2_upsampling (UpSampling (None, 62, 512)      0           block2-1_skipconv3_bn[0][0]      
__________________________________________________________________________________________________
block2-2_skip (Concatenate)     (None, 31, 1536)     0           block2-0_conv3_bn[0][0]          
                                                                 block2-1_skipconv3_bn[0][0]      
                                                                 block2-2_upconv_padding[0][0]    
__________________________________________________________________________________________________
block3-2_skipconv1 (Conv1D)     (None, 15, 1024)     3146752     block3-2_skipconv0_bn[0][0]      
__________________________________________________________________________________________________
block0-1_skipconv1_bn (BatchNor (None, 127, 128)     512         block0-1_skipconv1_activation[0][
__________________________________________________________________________________________________
block1-1_skipconv3 (Conv1D)     (None, 63, 256)      196864      block1-1_skipconv2_bn[0][0]      
__________________________________________________________________________________________________
block1-2_upconv (Conv1D)        (None, 62, 256)      393472      block1-2_upsampling[0][0]        
__________________________________________________________________________________________________
block2-2_skipconv0 (Conv1D)     (None, 31, 512)      2359808     block2-2_skip[0][0]              
__________________________________________________________________________________________________
block3-2_skipconv1_activation ( (None, 15, 1024)     0           block3-2_skipconv1[0][0]         
__________________________________________________________________________________________________
block0-1_skipconv2 (Conv1D)     (None, 127, 128)     49280       block0-1_skipconv1_bn[0][0]      
__________________________________________________________________________________________________
block1-1_skipconv3_activation ( (None, 63, 256)      0           block1-1_skipconv3[0][0]         
__________________________________________________________________________________________________
block1-2_upconv_activation (Lea (None, 62, 256)      0           block1-2_upconv[0][0]            
__________________________________________________________________________________________________
block2-2_skipconv0_activation ( (None, 31, 512)      0           block2-2_skipconv0[0][0]         
__________________________________________________________________________________________________
block3-2_skipconv1_bn (BatchNor (None, 15, 1024)     4096        block3-2_skipconv1_activation[0][
__________________________________________________________________________________________________
block0-1_skipconv2_activation ( (None, 127, 128)     0           block0-1_skipconv2[0][0]         
__________________________________________________________________________________________________
block1-1_skipconv3_bn (BatchNor (None, 63, 256)      1024        block1-1_skipconv3_activation[0][
__________________________________________________________________________________________________
block1-2_upconv_padding (ZeroPa (None, 63, 256)      0           block1-2_upconv_activation[0][0] 
__________________________________________________________________________________________________
block2-2_skipconv0_bn (BatchNor (None, 31, 512)      2048        block2-2_skipconv0_activation[0][
__________________________________________________________________________________________________
block3-2_skipconv2 (Conv1D)     (None, 15, 1024)     3146752     block3-2_skipconv1_bn[0][0]      
__________________________________________________________________________________________________
block0-1_skipconv2_bn (BatchNor (None, 127, 128)     512         block0-1_skipconv2_activation[0][
__________________________________________________________________________________________________
block0-2_upsampling (UpSampling (None, 126, 256)     0           block1-1_skipconv3_bn[0][0]      
__________________________________________________________________________________________________
block1-2_skip (Concatenate)     (None, 63, 768)      0           block1-0_conv3_bn[0][0]          
                                                                 block1-1_skipconv3_bn[0][0]      
                                                                 block1-2_upconv_padding[0][0]    
__________________________________________________________________________________________________
block2-2_skipconv1 (Conv1D)     (None, 31, 512)      786944      block2-2_skipconv0_bn[0][0]      
__________________________________________________________________________________________________
block3-2_skipconv2_activation ( (None, 15, 1024)     0           block3-2_skipconv2[0][0]         
__________________________________________________________________________________________________
block0-1_skipconv3 (Conv1D)     (None, 127, 128)     49280       block0-1_skipconv2_bn[0][0]      
__________________________________________________________________________________________________
block0-2_upconv (Conv1D)        (None, 126, 128)     98432       block0-2_upsampling[0][0]        
__________________________________________________________________________________________________
block1-2_skipconv0 (Conv1D)     (None, 63, 256)      590080      block1-2_skip[0][0]              
__________________________________________________________________________________________________
block2-2_skipconv1_activation ( (None, 31, 512)      0           block2-2_skipconv1[0][0]         
__________________________________________________________________________________________________
block3-2_skipconv2_bn (BatchNor (None, 15, 1024)     4096        block3-2_skipconv2_activation[0][
__________________________________________________________________________________________________
block0-1_skipconv3_activation ( (None, 127, 128)     0           block0-1_skipconv3[0][0]         
__________________________________________________________________________________________________
block0-2_upconv_activation (Lea (None, 126, 128)     0           block0-2_upconv[0][0]            
__________________________________________________________________________________________________
block1-2_skipconv0_activation ( (None, 63, 256)      0           block1-2_skipconv0[0][0]         
__________________________________________________________________________________________________
block2-2_skipconv1_bn (BatchNor (None, 31, 512)      2048        block2-2_skipconv1_activation[0][
__________________________________________________________________________________________________
block3-2_skipconv3 (Conv1D)     (None, 15, 1024)     3146752     block3-2_skipconv2_bn[0][0]      
__________________________________________________________________________________________________
block0-1_skipconv3_bn (BatchNor (None, 127, 128)     512         block0-1_skipconv3_activation[0][
__________________________________________________________________________________________________
block0-2_upconv_padding (ZeroPa (None, 127, 128)     0           block0-2_upconv_activation[0][0] 
__________________________________________________________________________________________________
block1-2_skipconv0_bn (BatchNor (None, 63, 256)      1024        block1-2_skipconv0_activation[0][
__________________________________________________________________________________________________
block2-2_skipconv2 (Conv1D)     (None, 31, 512)      786944      block2-2_skipconv1_bn[0][0]      
__________________________________________________________________________________________________
block3-2_skipconv3_activation ( (None, 15, 1024)     0           block3-2_skipconv3[0][0]         
__________________________________________________________________________________________________
block0-2_skip (Concatenate)     (None, 127, 384)     0           block0-0_conv3_bn[0][0]          
                                                                 block0-1_skipconv3_bn[0][0]      
                                                                 block0-2_upconv_padding[0][0]    
__________________________________________________________________________________________________
block1-2_skipconv1 (Conv1D)     (None, 63, 256)      196864      block1-2_skipconv0_bn[0][0]      
__________________________________________________________________________________________________
block2-2_skipconv2_activation ( (None, 31, 512)      0           block2-2_skipconv2[0][0]         
__________________________________________________________________________________________________
block3-2_skipconv3_bn (BatchNor (None, 15, 1024)     4096        block3-2_skipconv3_activation[0][
__________________________________________________________________________________________________
block0-2_skipconv0 (Conv1D)     (None, 127, 128)     147584      block0-2_skip[0][0]              
__________________________________________________________________________________________________
block1-2_skipconv1_activation ( (None, 63, 256)      0           block1-2_skipconv1[0][0]         
__________________________________________________________________________________________________
block2-2_skipconv2_bn (BatchNor (None, 31, 512)      2048        block2-2_skipconv2_activation[0][
__________________________________________________________________________________________________
block2-3_upsampling (UpSampling (None, 30, 1024)     0           block3-2_skipconv3_bn[0][0]      
__________________________________________________________________________________________________
block0-2_skipconv0_activation ( (None, 127, 128)     0           block0-2_skipconv0[0][0]         
__________________________________________________________________________________________________
block1-2_skipconv1_bn (BatchNor (None, 63, 256)      1024        block1-2_skipconv1_activation[0][
__________________________________________________________________________________________________
block2-2_skipconv3 (Conv1D)     (None, 31, 512)      786944      block2-2_skipconv2_bn[0][0]      
__________________________________________________________________________________________________
block2-3_upconv (Conv1D)        (None, 30, 512)      1573376     block2-3_upsampling[0][0]        
__________________________________________________________________________________________________
block0-2_skipconv0_bn (BatchNor (None, 127, 128)     512         block0-2_skipconv0_activation[0][
__________________________________________________________________________________________________
block1-2_skipconv2 (Conv1D)     (None, 63, 256)      196864      block1-2_skipconv1_bn[0][0]      
__________________________________________________________________________________________________
block2-2_skipconv3_activation ( (None, 31, 512)      0           block2-2_skipconv3[0][0]         
__________________________________________________________________________________________________
block2-3_upconv_activation (Lea (None, 30, 512)      0           block2-3_upconv[0][0]            
__________________________________________________________________________________________________
block0-2_skipconv1 (Conv1D)     (None, 127, 128)     49280       block0-2_skipconv0_bn[0][0]      
__________________________________________________________________________________________________
block1-2_skipconv2_activation ( (None, 63, 256)      0           block1-2_skipconv2[0][0]         
__________________________________________________________________________________________________
block2-2_skipconv3_bn (BatchNor (None, 31, 512)      2048        block2-2_skipconv3_activation[0][
__________________________________________________________________________________________________
block2-3_upconv_padding (ZeroPa (None, 31, 512)      0           block2-3_upconv_activation[0][0] 
__________________________________________________________________________________________________
block0-2_skipconv1_activation ( (None, 127, 128)     0           block0-2_skipconv1[0][0]         
__________________________________________________________________________________________________
block1-2_skipconv2_bn (BatchNor (None, 63, 256)      1024        block1-2_skipconv2_activation[0][
__________________________________________________________________________________________________
block1-3_upsampling (UpSampling (None, 62, 512)      0           block2-2_skipconv3_bn[0][0]      
__________________________________________________________________________________________________
block2-3_skip (Concatenate)     (None, 31, 2048)     0           block2-0_conv3_bn[0][0]          
                                                                 block2-1_skipconv3_bn[0][0]      
                                                                 block2-2_skipconv3_bn[0][0]      
                                                                 block2-3_upconv_padding[0][0]    
__________________________________________________________________________________________________
block0-2_skipconv1_bn (BatchNor (None, 127, 128)     512         block0-2_skipconv1_activation[0][
__________________________________________________________________________________________________
block1-2_skipconv3 (Conv1D)     (None, 63, 256)      196864      block1-2_skipconv2_bn[0][0]      
__________________________________________________________________________________________________
block1-3_upconv (Conv1D)        (None, 62, 256)      393472      block1-3_upsampling[0][0]        
__________________________________________________________________________________________________
block2-3_skipconv0 (Conv1D)     (None, 31, 512)      3146240     block2-3_skip[0][0]              
__________________________________________________________________________________________________
block0-2_skipconv2 (Conv1D)     (None, 127, 128)     49280       block0-2_skipconv1_bn[0][0]      
__________________________________________________________________________________________________
block1-2_skipconv3_activation ( (None, 63, 256)      0           block1-2_skipconv3[0][0]         
__________________________________________________________________________________________________
block1-3_upconv_activation (Lea (None, 62, 256)      0           block1-3_upconv[0][0]            
__________________________________________________________________________________________________
block2-3_skipconv0_activation ( (None, 31, 512)      0           block2-3_skipconv0[0][0]         
__________________________________________________________________________________________________
block0-2_skipconv2_activation ( (None, 127, 128)     0           block0-2_skipconv2[0][0]         
__________________________________________________________________________________________________
block1-2_skipconv3_bn (BatchNor (None, 63, 256)      1024        block1-2_skipconv3_activation[0][
__________________________________________________________________________________________________
block1-3_upconv_padding (ZeroPa (None, 63, 256)      0           block1-3_upconv_activation[0][0] 
__________________________________________________________________________________________________
block2-3_skipconv0_bn (BatchNor (None, 31, 512)      2048        block2-3_skipconv0_activation[0][
__________________________________________________________________________________________________
block0-2_skipconv2_bn (BatchNor (None, 127, 128)     512         block0-2_skipconv2_activation[0][
__________________________________________________________________________________________________
block0-3_upsampling (UpSampling (None, 126, 256)     0           block1-2_skipconv3_bn[0][0]      
__________________________________________________________________________________________________
block1-3_skip (Concatenate)     (None, 63, 1024)     0           block1-0_conv3_bn[0][0]          
                                                                 block1-1_skipconv3_bn[0][0]      
                                                                 block1-2_skipconv3_bn[0][0]      
                                                                 block1-3_upconv_padding[0][0]    
__________________________________________________________________________________________________
block2-3_skipconv1 (Conv1D)     (None, 31, 512)      786944      block2-3_skipconv0_bn[0][0]      
__________________________________________________________________________________________________
block0-2_skipconv3 (Conv1D)     (None, 127, 128)     49280       block0-2_skipconv2_bn[0][0]      
__________________________________________________________________________________________________
block0-3_upconv (Conv1D)        (None, 126, 128)     98432       block0-3_upsampling[0][0]        
__________________________________________________________________________________________________
block1-3_skipconv0 (Conv1D)     (None, 63, 256)      786688      block1-3_skip[0][0]              
__________________________________________________________________________________________________
block2-3_skipconv1_activation ( (None, 31, 512)      0           block2-3_skipconv1[0][0]         
__________________________________________________________________________________________________
block0-2_skipconv3_activation ( (None, 127, 128)     0           block0-2_skipconv3[0][0]         
__________________________________________________________________________________________________
block0-3_upconv_activation (Lea (None, 126, 128)     0           block0-3_upconv[0][0]            
__________________________________________________________________________________________________
block1-3_skipconv0_activation ( (None, 63, 256)      0           block1-3_skipconv0[0][0]         
__________________________________________________________________________________________________
block2-3_skipconv1_bn (BatchNor (None, 31, 512)      2048        block2-3_skipconv1_activation[0][
__________________________________________________________________________________________________
block0-2_skipconv3_bn (BatchNor (None, 127, 128)     512         block0-2_skipconv3_activation[0][
__________________________________________________________________________________________________
block0-3_upconv_padding (ZeroPa (None, 127, 128)     0           block0-3_upconv_activation[0][0] 
__________________________________________________________________________________________________
block1-3_skipconv0_bn (BatchNor (None, 63, 256)      1024        block1-3_skipconv0_activation[0][
__________________________________________________________________________________________________
block2-3_skipconv2 (Conv1D)     (None, 31, 512)      786944      block2-3_skipconv1_bn[0][0]      
__________________________________________________________________________________________________
block0-3_skip (Concatenate)     (None, 127, 512)     0           block0-0_conv3_bn[0][0]          
                                                                 block0-1_skipconv3_bn[0][0]      
                                                                 block0-2_skipconv3_bn[0][0]      
                                                                 block0-3_upconv_padding[0][0]    
__________________________________________________________________________________________________
block1-3_skipconv1 (Conv1D)     (None, 63, 256)      196864      block1-3_skipconv0_bn[0][0]      
__________________________________________________________________________________________________
block2-3_skipconv2_activation ( (None, 31, 512)      0           block2-3_skipconv2[0][0]         
__________________________________________________________________________________________________
block0-3_skipconv0 (Conv1D)     (None, 127, 128)     196736      block0-3_skip[0][0]              
__________________________________________________________________________________________________
block1-3_skipconv1_activation ( (None, 63, 256)      0           block1-3_skipconv1[0][0]         
__________________________________________________________________________________________________
block2-3_skipconv2_bn (BatchNor (None, 31, 512)      2048        block2-3_skipconv2_activation[0][
__________________________________________________________________________________________________
block0-3_skipconv0_activation ( (None, 127, 128)     0           block0-3_skipconv0[0][0]         
__________________________________________________________________________________________________
block1-3_skipconv1_bn (BatchNor (None, 63, 256)      1024        block1-3_skipconv1_activation[0][
__________________________________________________________________________________________________
block2-3_skipconv3 (Conv1D)     (None, 31, 512)      786944      block2-3_skipconv2_bn[0][0]      
__________________________________________________________________________________________________
block0-3_skipconv0_bn (BatchNor (None, 127, 128)     512         block0-3_skipconv0_activation[0][
__________________________________________________________________________________________________
block1-3_skipconv2 (Conv1D)     (None, 63, 256)      196864      block1-3_skipconv1_bn[0][0]      
__________________________________________________________________________________________________
block2-3_skipconv3_activation ( (None, 31, 512)      0           block2-3_skipconv3[0][0]         
__________________________________________________________________________________________________
block0-3_skipconv1 (Conv1D)     (None, 127, 128)     49280       block0-3_skipconv0_bn[0][0]      
__________________________________________________________________________________________________
block1-3_skipconv2_activation ( (None, 63, 256)      0           block1-3_skipconv2[0][0]         
__________________________________________________________________________________________________
block2-3_skipconv3_bn (BatchNor (None, 31, 512)      2048        block2-3_skipconv3_activation[0][
__________________________________________________________________________________________________
block0-3_skipconv1_activation ( (None, 127, 128)     0           block0-3_skipconv1[0][0]         
__________________________________________________________________________________________________
block1-3_skipconv2_bn (BatchNor (None, 63, 256)      1024        block1-3_skipconv2_activation[0][
__________________________________________________________________________________________________
block1-4_upsampling (UpSampling (None, 62, 512)      0           block2-3_skipconv3_bn[0][0]      
__________________________________________________________________________________________________
block0-3_skipconv1_bn (BatchNor (None, 127, 128)     512         block0-3_skipconv1_activation[0][
__________________________________________________________________________________________________
block1-3_skipconv3 (Conv1D)     (None, 63, 256)      196864      block1-3_skipconv2_bn[0][0]      
__________________________________________________________________________________________________
block1-4_upconv (Conv1D)        (None, 62, 256)      393472      block1-4_upsampling[0][0]        
__________________________________________________________________________________________________
block0-3_skipconv2 (Conv1D)     (None, 127, 128)     49280       block0-3_skipconv1_bn[0][0]      
__________________________________________________________________________________________________
block1-3_skipconv3_activation ( (None, 63, 256)      0           block1-3_skipconv3[0][0]         
__________________________________________________________________________________________________
block1-4_upconv_activation (Lea (None, 62, 256)      0           block1-4_upconv[0][0]            
__________________________________________________________________________________________________
block0-3_skipconv2_activation ( (None, 127, 128)     0           block0-3_skipconv2[0][0]         
__________________________________________________________________________________________________
block1-3_skipconv3_bn (BatchNor (None, 63, 256)      1024        block1-3_skipconv3_activation[0][
__________________________________________________________________________________________________
block1-4_upconv_padding (ZeroPa (None, 63, 256)      0           block1-4_upconv_activation[0][0] 
__________________________________________________________________________________________________
block0-3_skipconv2_bn (BatchNor (None, 127, 128)     512         block0-3_skipconv2_activation[0][
__________________________________________________________________________________________________
block0-4_upsampling (UpSampling (None, 126, 256)     0           block1-3_skipconv3_bn[0][0]      
__________________________________________________________________________________________________
block1-4_skip (Concatenate)     (None, 63, 1280)     0           block1-0_conv3_bn[0][0]          
                                                                 block1-1_skipconv3_bn[0][0]      
                                                                 block1-2_skipconv3_bn[0][0]      
                                                                 block1-3_skipconv3_bn[0][0]      
                                                                 block1-4_upconv_padding[0][0]    
__________________________________________________________________________________________________
block0-3_skipconv3 (Conv1D)     (None, 127, 128)     49280       block0-3_skipconv2_bn[0][0]      
__________________________________________________________________________________________________
block0-4_upconv (Conv1D)        (None, 126, 128)     98432       block0-4_upsampling[0][0]        
__________________________________________________________________________________________________
block1-4_skipconv0 (Conv1D)     (None, 63, 256)      983296      block1-4_skip[0][0]              
__________________________________________________________________________________________________
block0-3_skipconv3_activation ( (None, 127, 128)     0           block0-3_skipconv3[0][0]         
__________________________________________________________________________________________________
block0-4_upconv_activation (Lea (None, 126, 128)     0           block0-4_upconv[0][0]            
__________________________________________________________________________________________________
block1-4_skipconv0_activation ( (None, 63, 256)      0           block1-4_skipconv0[0][0]         
__________________________________________________________________________________________________
block0-3_skipconv3_bn (BatchNor (None, 127, 128)     512         block0-3_skipconv3_activation[0][
__________________________________________________________________________________________________
block0-4_upconv_padding (ZeroPa (None, 127, 128)     0           block0-4_upconv_activation[0][0] 
__________________________________________________________________________________________________
block1-4_skipconv0_bn (BatchNor (None, 63, 256)      1024        block1-4_skipconv0_activation[0][
__________________________________________________________________________________________________
block0-4_skip (Concatenate)     (None, 127, 640)     0           block0-0_conv3_bn[0][0]          
                                                                 block0-1_skipconv3_bn[0][0]      
                                                                 block0-2_skipconv3_bn[0][0]      
                                                                 block0-3_skipconv3_bn[0][0]      
                                                                 block0-4_upconv_padding[0][0]    
__________________________________________________________________________________________________
block1-4_skipconv1 (Conv1D)     (None, 63, 256)      196864      block1-4_skipconv0_bn[0][0]      
__________________________________________________________________________________________________
block0-4_skipconv0 (Conv1D)     (None, 127, 128)     245888      block0-4_skip[0][0]              
__________________________________________________________________________________________________
block1-4_skipconv1_activation ( (None, 63, 256)      0           block1-4_skipconv1[0][0]         
__________________________________________________________________________________________________
block0-4_skipconv0_activation ( (None, 127, 128)     0           block0-4_skipconv0[0][0]         
__________________________________________________________________________________________________
block1-4_skipconv1_bn (BatchNor (None, 63, 256)      1024        block1-4_skipconv1_activation[0][
__________________________________________________________________________________________________
block0-4_skipconv0_bn (BatchNor (None, 127, 128)     512         block0-4_skipconv0_activation[0][
__________________________________________________________________________________________________
block1-4_skipconv2 (Conv1D)     (None, 63, 256)      196864      block1-4_skipconv1_bn[0][0]      
__________________________________________________________________________________________________
block0-4_skipconv1 (Conv1D)     (None, 127, 128)     49280       block0-4_skipconv0_bn[0][0]      
__________________________________________________________________________________________________
block1-4_skipconv2_activation ( (None, 63, 256)      0           block1-4_skipconv2[0][0]         
__________________________________________________________________________________________________
block0-4_skipconv1_activation ( (None, 127, 128)     0           block0-4_skipconv1[0][0]         
__________________________________________________________________________________________________
block1-4_skipconv2_bn (BatchNor (None, 63, 256)      1024        block1-4_skipconv2_activation[0][
__________________________________________________________________________________________________
block0-4_skipconv1_bn (BatchNor (None, 127, 128)     512         block0-4_skipconv1_activation[0][
__________________________________________________________________________________________________
block1-4_skipconv3 (Conv1D)     (None, 63, 256)      196864      block1-4_skipconv2_bn[0][0]      
__________________________________________________________________________________________________
block0-4_skipconv2 (Conv1D)     (None, 127, 128)     49280       block0-4_skipconv1_bn[0][0]      
__________________________________________________________________________________________________
block1-4_skipconv3_activation ( (None, 63, 256)      0           block1-4_skipconv3[0][0]         
__________________________________________________________________________________________________
block0-4_skipconv2_activation ( (None, 127, 128)     0           block0-4_skipconv2[0][0]         
__________________________________________________________________________________________________
block1-4_skipconv3_bn (BatchNor (None, 63, 256)      1024        block1-4_skipconv3_activation[0][
__________________________________________________________________________________________________
block0-4_skipconv2_bn (BatchNor (None, 127, 128)     512         block0-4_skipconv2_activation[0][
__________________________________________________________________________________________________
block0-5_upsampling (UpSampling (None, 126, 256)     0           block1-4_skipconv3_bn[0][0]      
__________________________________________________________________________________________________
block0-4_skipconv3 (Conv1D)     (None, 127, 128)     49280       block0-4_skipconv2_bn[0][0]      
__________________________________________________________________________________________________
block0-5_upconv (Conv1D)        (None, 126, 128)     98432       block0-5_upsampling[0][0]        
__________________________________________________________________________________________________
block0-4_skipconv3_activation ( (None, 127, 128)     0           block0-4_skipconv3[0][0]         
__________________________________________________________________________________________________
block0-5_upconv_activation (Lea (None, 126, 128)     0           block0-5_upconv[0][0]            
__________________________________________________________________________________________________
block0-4_skipconv3_bn (BatchNor (None, 127, 128)     512         block0-4_skipconv3_activation[0][
__________________________________________________________________________________________________
block0-5_upconv_padding (ZeroPa (None, 127, 128)     0           block0-5_upconv_activation[0][0] 
__________________________________________________________________________________________________
block0-5_skip (Concatenate)     (None, 127, 768)     0           block0-0_conv3_bn[0][0]          
                                                                 block0-1_skipconv3_bn[0][0]      
                                                                 block0-2_skipconv3_bn[0][0]      
                                                                 block0-3_skipconv3_bn[0][0]      
                                                                 block0-4_skipconv3_bn[0][0]      
                                                                 block0-5_upconv_padding[0][0]    
__________________________________________________________________________________________________
block0-5_skipconv0 (Conv1D)     (None, 127, 128)     295040      block0-5_skip[0][0]              
__________________________________________________________________________________________________
block0-5_skipconv0_activation ( (None, 127, 128)     0           block0-5_skipconv0[0][0]         
__________________________________________________________________________________________________
block0-5_skipconv0_bn (BatchNor (None, 127, 128)     512         block0-5_skipconv0_activation[0][
__________________________________________________________________________________________________
block0-5_skipconv1 (Conv1D)     (None, 127, 128)     49280       block0-5_skipconv0_bn[0][0]      
__________________________________________________________________________________________________
flatten_71 (Flatten)            (None, 12288)        0           block5-0_conv3_bn[0][0]          
__________________________________________________________________________________________________
block0-5_skipconv1_activation ( (None, 127, 128)     0           block0-5_skipconv1[0][0]         
__________________________________________________________________________________________________
dense_284 (Dense)               (None, 1388)         17057132    flatten_71[0][0]                 
__________________________________________________________________________________________________
block0-5_skipconv1_bn (BatchNor (None, 127, 128)     512         block0-5_skipconv1_activation[0][
__________________________________________________________________________________________________
leaky_re_lu_213 (LeakyReLU)     (None, 1388)         0           dense_284[0][0]                  
__________________________________________________________________________________________________
block0-5_skipconv2 (Conv1D)     (None, 127, 128)     49280       block0-5_skipconv1_bn[0][0]      
__________________________________________________________________________________________________
batch_normalization_213 (BatchN (None, 1388)         5552        leaky_re_lu_213[0][0]            
__________________________________________________________________________________________________
block0-5_skipconv2_activation ( (None, 127, 128)     0           block0-5_skipconv2[0][0]         
__________________________________________________________________________________________________
dense_285 (Dense)               (None, 157)          218073      batch_normalization_213[0][0]    
__________________________________________________________________________________________________
block0-5_skipconv2_bn (BatchNor (None, 127, 128)     512         block0-5_skipconv2_activation[0][
__________________________________________________________________________________________________
leaky_re_lu_214 (LeakyReLU)     (None, 157)          0           dense_285[0][0]                  
__________________________________________________________________________________________________
block0-5_skipconv3 (Conv1D)     (None, 127, 128)     49280       block0-5_skipconv2_bn[0][0]      
__________________________________________________________________________________________________
batch_normalization_214 (BatchN (None, 157)          628         leaky_re_lu_214[0][0]            
__________________________________________________________________________________________________
block0-5_skipconv3_activation ( (None, 127, 128)     0           block0-5_skipconv3[0][0]         
__________________________________________________________________________________________________
dense_286 (Dense)               (None, 18)           2844        batch_normalization_214[0][0]    
__________________________________________________________________________________________________
block0-5_skipconv3_bn (BatchNor (None, 127, 128)     512         block0-5_skipconv3_activation[0][
__________________________________________________________________________________________________
leaky_re_lu_215 (LeakyReLU)     (None, 18)           0           dense_286[0][0]                  
__________________________________________________________________________________________________
last_conv (Conv1D)              (None, 127, 1)       129         block0-5_skipconv3_bn[0][0]      
__________________________________________________________________________________________________
batch_normalization_215 (BatchN (None, 18)           72          leaky_re_lu_215[0][0]            
__________________________________________________________________________________________________
last_conv_activation (ReLU)     (None, 127, 1)       0           last_conv[0][0]                  
__________________________________________________________________________________________________
dense_287 (Dense)               (None, 2)            38          batch_normalization_215[0][0]    
__________________________________________________________________________________________________
conv_output (Lambda)            (None, 127, 1)       0           last_conv_activation[0][0]       
__________________________________________________________________________________________________
dense_output (ReLU)             (None, 2)            0           dense_287[0][0]                  
==================================================================================================
Total params: 415,445,236
Trainable params: 415,319,230
Non-trainable params: 126,006
__________________________________________________________________________________________________
Writing model to: "/scratch1/RDARCH/rda-ghpcs/Ryan.Lagerquist/ml4rt_models/2022paper_experiment_sw_plusplus/templates/depth=5_num-conv-layers-per-block=4_num-first-layer-channels=128/model.h5"...
…
